{"format": "layers-model", "generatedBy": "keras v2.14.0", "convertedBy": "TensorFlow.js Converter v4.12.0", "modelTopology": {"keras_version": "2.14.0", "backend": "tensorflow", "model_config": {"class_name": "Functional", "config": {"name": "model", "trainable": true, "layers": [{"class_name": "InputLayer", "config": {"batch_input_shape": [1, 512, 512, 1], "dtype": "float32", "sparse": false, "ragged": false, "name": "input_1"}, "name": "input_1", "inbound_nodes": []}, {"class_name": "ZeroPadding2D", "config": {"name": "zero_padding2d", "trainable": true, "dtype": "float32", "padding": [[1, 1], [1, 1]], "data_format": "channels_last"}, "name": "zero_padding2d", "inbound_nodes": [[["input_1", 0, 0, {}]]]}, {"class_name": "Conv2D", "config": {"name": "conv2d", "trainable": true, "dtype": "float32", "filters": 32, "kernel_size": [3, 3], "strides": [2, 2], "padding": "valid", "data_format": "channels_last", "dilation_rate": [1, 1], "groups": 1, "activation": "linear", "use_bias": false, "kernel_initializer": {"module": "keras.initializers", "class_name": "GlorotUniform", "config": {"seed": null}, "registered_name": null}, "bias_initializer": {"module": "keras.initializers", "class_name": "Zeros", "config": {}, "registered_name": null}, "kernel_regularizer": null, "bias_regularizer": null, "activity_regularizer": null, "kernel_constraint": null, "bias_constraint": null}, "name": "conv2d", "inbound_nodes": [[["zero_padding2d", 0, 0, {}]]]}, {"class_name": "BatchNormalization", "config": {"name": "batch_normalization", "trainable": true, "dtype": "float32", "axis": [3], "momentum": 0.9, "epsilon": 1e-05, "center": true, "scale": true, "beta_initializer": {"module": "keras.initializers", "class_name": "Zeros", "config": {}, "registered_name": null}, "gamma_initializer": {"module": "keras.initializers", "class_name": "Ones", "config": {}, "registered_name": null}, "moving_mean_initializer": {"module": "keras.initializers", "class_name": "Zeros", "config": {}, "registered_name": null}, "moving_variance_initializer": {"module": "keras.initializers", "class_name": "Ones", "config": {}, "registered_name": null}, "beta_regularizer": null, "gamma_regularizer": null, "beta_constraint": null, "gamma_constraint": null}, "name": "batch_normalization", "inbound_nodes": [[["conv2d", 0, 0, {}]]]}, {"class_name": "TFOpLambda", "config": {"name": "tf.clip_by_value", "trainable": true, "dtype": "float32", "function": "clip_by_value"}, "name": "tf.clip_by_value", "inbound_nodes": [["batch_normalization", 0, 0, {"clip_value_min": 0.0, "clip_value_max": 6.0}]]}, {"class_name": "ZeroPadding2D", "config": {"name": "zero_padding2d_1", "trainable": true, "dtype": "float32", "padding": [[1, 1], [1, 1]], "data_format": "channels_last"}, "name": "zero_padding2d_1", "inbound_nodes": [[["tf.clip_by_value", 0, 0, {}]]]}, {"class_name": "Conv2D", "config": {"name": "conv2d_1", "trainable": true, "dtype": "float32", "filters": 32, "kernel_size": [3, 3], "strides": [1, 1], "padding": "valid", "data_format": "channels_last", "dilation_rate": [1, 1], "groups": 32, "activation": "linear", "use_bias": false, "kernel_initializer": {"module": "keras.initializers", "class_name": "GlorotUniform", "config": {"seed": null}, "registered_name": null}, "bias_initializer": {"module": "keras.initializers", "class_name": "Zeros", "config": {}, "registered_name": null}, "kernel_regularizer": null, "bias_regularizer": null, "activity_regularizer": null, "kernel_constraint": null, "bias_constraint": null}, "name": "conv2d_1", "inbound_nodes": [[["zero_padding2d_1", 0, 0, {}]]]}, {"class_name": "BatchNormalization", "config": {"name": "batch_normalization_1", "trainable": true, "dtype": "float32", "axis": [3], "momentum": 0.9, "epsilon": 1e-05, "center": true, "scale": true, "beta_initializer": {"module": "keras.initializers", "class_name": "Zeros", "config": {}, "registered_name": null}, "gamma_initializer": {"module": "keras.initializers", "class_name": "Ones", "config": {}, "registered_name": null}, "moving_mean_initializer": {"module": "keras.initializers", "class_name": "Zeros", "config": {}, "registered_name": null}, "moving_variance_initializer": {"module": "keras.initializers", "class_name": "Ones", "config": {}, "registered_name": null}, "beta_regularizer": null, "gamma_regularizer": null, "beta_constraint": null, "gamma_constraint": null}, "name": "batch_normalization_1", "inbound_nodes": [[["conv2d_1", 0, 0, {}]]]}, {"class_name": "TFOpLambda", "config": {"name": "tf.clip_by_value_1", "trainable": true, "dtype": "float32", "function": "clip_by_value"}, "name": "tf.clip_by_value_1", "inbound_nodes": [["batch_normalization_1", 0, 0, {"clip_value_min": 0.0, "clip_value_max": 6.0}]]}, {"class_name": "Conv2D", "config": {"name": "conv2d_2", "trainable": true, "dtype": "float32", "filters": 16, "kernel_size": [1, 1], "strides": [1, 1], "padding": "valid", "data_format": "channels_last", "dilation_rate": [1, 1], "groups": 1, "activation": "linear", "use_bias": false, "kernel_initializer": {"module": "keras.initializers", "class_name": "GlorotUniform", "config": {"seed": null}, "registered_name": null}, "bias_initializer": {"module": "keras.initializers", "class_name": "Zeros", "config": {}, "registered_name": null}, "kernel_regularizer": null, "bias_regularizer": null, "activity_regularizer": null, "kernel_constraint": null, "bias_constraint": null}, "name": "conv2d_2", "inbound_nodes": [[["tf.clip_by_value_1", 0, 0, {}]]]}, {"class_name": "BatchNormalization", "config": {"name": "batch_normalization_2", "trainable": true, "dtype": "float32", "axis": [3], "momentum": 0.9, "epsilon": 1e-05, "center": true, "scale": true, "beta_initializer": {"module": "keras.initializers", "class_name": "Zeros", "config": {}, "registered_name": null}, "gamma_initializer": {"module": "keras.initializers", "class_name": "Ones", "config": {}, "registered_name": null}, "moving_mean_initializer": {"module": "keras.initializers", "class_name": "Zeros", "config": {}, "registered_name": null}, "moving_variance_initializer": {"module": "keras.initializers", "class_name": "Ones", "config": {}, "registered_name": null}, "beta_regularizer": null, "gamma_regularizer": null, "beta_constraint": null, "gamma_constraint": null}, "name": "batch_normalization_2", "inbound_nodes": [[["conv2d_2", 0, 0, {}]]]}, {"class_name": "Conv2D", "config": {"name": "conv2d_3", "trainable": true, "dtype": "float32", "filters": 96, "kernel_size": [1, 1], "strides": [1, 1], "padding": "valid", "data_format": "channels_last", "dilation_rate": [1, 1], "groups": 1, "activation": "linear", "use_bias": false, "kernel_initializer": {"module": "keras.initializers", "class_name": "GlorotUniform", "config": {"seed": null}, "registered_name": null}, "bias_initializer": {"module": "keras.initializers", "class_name": "Zeros", "config": {}, "registered_name": null}, "kernel_regularizer": null, "bias_regularizer": null, "activity_regularizer": null, "kernel_constraint": null, "bias_constraint": null}, "name": "conv2d_3", "inbound_nodes": [[["batch_normalization_2", 0, 0, {}]]]}, {"class_name": "BatchNormalization", "config": {"name": "batch_normalization_3", "trainable": true, "dtype": "float32", "axis": [3], "momentum": 0.9, "epsilon": 1e-05, "center": true, "scale": true, "beta_initializer": {"module": "keras.initializers", "class_name": "Zeros", "config": {}, "registered_name": null}, "gamma_initializer": {"module": "keras.initializers", "class_name": "Ones", "config": {}, "registered_name": null}, "moving_mean_initializer": {"module": "keras.initializers", "class_name": "Zeros", "config": {}, "registered_name": null}, "moving_variance_initializer": {"module": "keras.initializers", "class_name": "Ones", "config": {}, "registered_name": null}, "beta_regularizer": null, "gamma_regularizer": null, "beta_constraint": null, "gamma_constraint": null}, "name": "batch_normalization_3", "inbound_nodes": [[["conv2d_3", 0, 0, {}]]]}, {"class_name": "TFOpLambda", "config": {"name": "tf.clip_by_value_2", "trainable": true, "dtype": "float32", "function": "clip_by_value"}, "name": "tf.clip_by_value_2", "inbound_nodes": [["batch_normalization_3", 0, 0, {"clip_value_min": 0.0, "clip_value_max": 6.0}]]}, {"class_name": "ZeroPadding2D", "config": {"name": "zero_padding2d_2", "trainable": true, "dtype": "float32", "padding": [[1, 1], [1, 1]], "data_format": "channels_last"}, "name": "zero_padding2d_2", "inbound_nodes": [[["tf.clip_by_value_2", 0, 0, {}]]]}, {"class_name": "Conv2D", "config": {"name": "conv2d_4", "trainable": true, "dtype": "float32", "filters": 96, "kernel_size": [3, 3], "strides": [2, 2], "padding": "valid", "data_format": "channels_last", "dilation_rate": [1, 1], "groups": 96, "activation": "linear", "use_bias": false, "kernel_initializer": {"module": "keras.initializers", "class_name": "GlorotUniform", "config": {"seed": null}, "registered_name": null}, "bias_initializer": {"module": "keras.initializers", "class_name": "Zeros", "config": {}, "registered_name": null}, "kernel_regularizer": null, "bias_regularizer": null, "activity_regularizer": null, "kernel_constraint": null, "bias_constraint": null}, "name": "conv2d_4", "inbound_nodes": [[["zero_padding2d_2", 0, 0, {}]]]}, {"class_name": "BatchNormalization", "config": {"name": "batch_normalization_4", "trainable": true, "dtype": "float32", "axis": [3], "momentum": 0.9, "epsilon": 1e-05, "center": true, "scale": true, "beta_initializer": {"module": "keras.initializers", "class_name": "Zeros", "config": {}, "registered_name": null}, "gamma_initializer": {"module": "keras.initializers", "class_name": "Ones", "config": {}, "registered_name": null}, "moving_mean_initializer": {"module": "keras.initializers", "class_name": "Zeros", "config": {}, "registered_name": null}, "moving_variance_initializer": {"module": "keras.initializers", "class_name": "Ones", "config": {}, "registered_name": null}, "beta_regularizer": null, "gamma_regularizer": null, "beta_constraint": null, "gamma_constraint": null}, "name": "batch_normalization_4", "inbound_nodes": [[["conv2d_4", 0, 0, {}]]]}, {"class_name": "TFOpLambda", "config": {"name": "tf.clip_by_value_3", "trainable": true, "dtype": "float32", "function": "clip_by_value"}, "name": "tf.clip_by_value_3", "inbound_nodes": [["batch_normalization_4", 0, 0, {"clip_value_min": 0.0, "clip_value_max": 6.0}]]}, {"class_name": "Conv2D", "config": {"name": "conv2d_5", "trainable": true, "dtype": "float32", "filters": 24, "kernel_size": [1, 1], "strides": [1, 1], "padding": "valid", "data_format": "channels_last", "dilation_rate": [1, 1], "groups": 1, "activation": "linear", "use_bias": false, "kernel_initializer": {"module": "keras.initializers", "class_name": "GlorotUniform", "config": {"seed": null}, "registered_name": null}, "bias_initializer": {"module": "keras.initializers", "class_name": "Zeros", "config": {}, "registered_name": null}, "kernel_regularizer": null, "bias_regularizer": null, "activity_regularizer": null, "kernel_constraint": null, "bias_constraint": null}, "name": "conv2d_5", "inbound_nodes": [[["tf.clip_by_value_3", 0, 0, {}]]]}, {"class_name": "BatchNormalization", "config": {"name": "batch_normalization_5", "trainable": true, "dtype": "float32", "axis": [3], "momentum": 0.9, "epsilon": 1e-05, "center": true, "scale": true, "beta_initializer": {"module": "keras.initializers", "class_name": "Zeros", "config": {}, "registered_name": null}, "gamma_initializer": {"module": "keras.initializers", "class_name": "Ones", "config": {}, "registered_name": null}, "moving_mean_initializer": {"module": "keras.initializers", "class_name": "Zeros", "config": {}, "registered_name": null}, "moving_variance_initializer": {"module": "keras.initializers", "class_name": "Ones", "config": {}, "registered_name": null}, "beta_regularizer": null, "gamma_regularizer": null, "beta_constraint": null, "gamma_constraint": null}, "name": "batch_normalization_5", "inbound_nodes": [[["conv2d_5", 0, 0, {}]]]}, {"class_name": "Conv2D", "config": {"name": "conv2d_6", "trainable": true, "dtype": "float32", "filters": 144, "kernel_size": [1, 1], "strides": [1, 1], "padding": "valid", "data_format": "channels_last", "dilation_rate": [1, 1], "groups": 1, "activation": "linear", "use_bias": false, "kernel_initializer": {"module": "keras.initializers", "class_name": "GlorotUniform", "config": {"seed": null}, "registered_name": null}, "bias_initializer": {"module": "keras.initializers", "class_name": "Zeros", "config": {}, "registered_name": null}, "kernel_regularizer": null, "bias_regularizer": null, "activity_regularizer": null, "kernel_constraint": null, "bias_constraint": null}, "name": "conv2d_6", "inbound_nodes": [[["batch_normalization_5", 0, 0, {}]]]}, {"class_name": "BatchNormalization", "config": {"name": "batch_normalization_6", "trainable": true, "dtype": "float32", "axis": [3], "momentum": 0.9, "epsilon": 1e-05, "center": true, "scale": true, "beta_initializer": {"module": "keras.initializers", "class_name": "Zeros", "config": {}, "registered_name": null}, "gamma_initializer": {"module": "keras.initializers", "class_name": "Ones", "config": {}, "registered_name": null}, "moving_mean_initializer": {"module": "keras.initializers", "class_name": "Zeros", "config": {}, "registered_name": null}, "moving_variance_initializer": {"module": "keras.initializers", "class_name": "Ones", "config": {}, "registered_name": null}, "beta_regularizer": null, "gamma_regularizer": null, "beta_constraint": null, "gamma_constraint": null}, "name": "batch_normalization_6", "inbound_nodes": [[["conv2d_6", 0, 0, {}]]]}, {"class_name": "TFOpLambda", "config": {"name": "tf.clip_by_value_4", "trainable": true, "dtype": "float32", "function": "clip_by_value"}, "name": "tf.clip_by_value_4", "inbound_nodes": [["batch_normalization_6", 0, 0, {"clip_value_min": 0.0, "clip_value_max": 6.0}]]}, {"class_name": "ZeroPadding2D", "config": {"name": "zero_padding2d_3", "trainable": true, "dtype": "float32", "padding": [[1, 1], [1, 1]], "data_format": "channels_last"}, "name": "zero_padding2d_3", "inbound_nodes": [[["tf.clip_by_value_4", 0, 0, {}]]]}, {"class_name": "Conv2D", "config": {"name": "conv2d_7", "trainable": true, "dtype": "float32", "filters": 144, "kernel_size": [3, 3], "strides": [1, 1], "padding": "valid", "data_format": "channels_last", "dilation_rate": [1, 1], "groups": 144, "activation": "linear", "use_bias": false, "kernel_initializer": {"module": "keras.initializers", "class_name": "GlorotUniform", "config": {"seed": null}, "registered_name": null}, "bias_initializer": {"module": "keras.initializers", "class_name": "Zeros", "config": {}, "registered_name": null}, "kernel_regularizer": null, "bias_regularizer": null, "activity_regularizer": null, "kernel_constraint": null, "bias_constraint": null}, "name": "conv2d_7", "inbound_nodes": [[["zero_padding2d_3", 0, 0, {}]]]}, {"class_name": "BatchNormalization", "config": {"name": "batch_normalization_7", "trainable": true, "dtype": "float32", "axis": [3], "momentum": 0.9, "epsilon": 1e-05, "center": true, "scale": true, "beta_initializer": {"module": "keras.initializers", "class_name": "Zeros", "config": {}, "registered_name": null}, "gamma_initializer": {"module": "keras.initializers", "class_name": "Ones", "config": {}, "registered_name": null}, "moving_mean_initializer": {"module": "keras.initializers", "class_name": "Zeros", "config": {}, "registered_name": null}, "moving_variance_initializer": {"module": "keras.initializers", "class_name": "Ones", "config": {}, "registered_name": null}, "beta_regularizer": null, "gamma_regularizer": null, "beta_constraint": null, "gamma_constraint": null}, "name": "batch_normalization_7", "inbound_nodes": [[["conv2d_7", 0, 0, {}]]]}, {"class_name": "TFOpLambda", "config": {"name": "tf.clip_by_value_5", "trainable": true, "dtype": "float32", "function": "clip_by_value"}, "name": "tf.clip_by_value_5", "inbound_nodes": [["batch_normalization_7", 0, 0, {"clip_value_min": 0.0, "clip_value_max": 6.0}]]}, {"class_name": "Conv2D", "config": {"name": "conv2d_8", "trainable": true, "dtype": "float32", "filters": 24, "kernel_size": [1, 1], "strides": [1, 1], "padding": "valid", "data_format": "channels_last", "dilation_rate": [1, 1], "groups": 1, "activation": "linear", "use_bias": false, "kernel_initializer": {"module": "keras.initializers", "class_name": "GlorotUniform", "config": {"seed": null}, "registered_name": null}, "bias_initializer": {"module": "keras.initializers", "class_name": "Zeros", "config": {}, "registered_name": null}, "kernel_regularizer": null, "bias_regularizer": null, "activity_regularizer": null, "kernel_constraint": null, "bias_constraint": null}, "name": "conv2d_8", "inbound_nodes": [[["tf.clip_by_value_5", 0, 0, {}]]]}, {"class_name": "BatchNormalization", "config": {"name": "batch_normalization_8", "trainable": true, "dtype": "float32", "axis": [3], "momentum": 0.9, "epsilon": 1e-05, "center": true, "scale": true, "beta_initializer": {"module": "keras.initializers", "class_name": "Zeros", "config": {}, "registered_name": null}, "gamma_initializer": {"module": "keras.initializers", "class_name": "Ones", "config": {}, "registered_name": null}, "moving_mean_initializer": {"module": "keras.initializers", "class_name": "Zeros", "config": {}, "registered_name": null}, "moving_variance_initializer": {"module": "keras.initializers", "class_name": "Ones", "config": {}, "registered_name": null}, "beta_regularizer": null, "gamma_regularizer": null, "beta_constraint": null, "gamma_constraint": null}, "name": "batch_normalization_8", "inbound_nodes": [[["conv2d_8", 0, 0, {}]]]}, {"class_name": "TFOpLambda", "config": {"name": "tf.__operators__.add", "trainable": true, "dtype": "float32", "function": "__operators__.add"}, "name": "tf.__operators__.add", "inbound_nodes": [["batch_normalization_5", 0, 0, {"y": ["batch_normalization_8", 0, 0], "name": null}]]}, {"class_name": "Conv2D", "config": {"name": "conv2d_9", "trainable": true, "dtype": "float32", "filters": 144, "kernel_size": [1, 1], "strides": [1, 1], "padding": "valid", "data_format": "channels_last", "dilation_rate": [1, 1], "groups": 1, "activation": "linear", "use_bias": false, "kernel_initializer": {"module": "keras.initializers", "class_name": "GlorotUniform", "config": {"seed": null}, "registered_name": null}, "bias_initializer": {"module": "keras.initializers", "class_name": "Zeros", "config": {}, "registered_name": null}, "kernel_regularizer": null, "bias_regularizer": null, "activity_regularizer": null, "kernel_constraint": null, "bias_constraint": null}, "name": "conv2d_9", "inbound_nodes": [[["tf.__operators__.add", 0, 0, {}]]]}, {"class_name": "BatchNormalization", "config": {"name": "batch_normalization_9", "trainable": true, "dtype": "float32", "axis": [3], "momentum": 0.9, "epsilon": 1e-05, "center": true, "scale": true, "beta_initializer": {"module": "keras.initializers", "class_name": "Zeros", "config": {}, "registered_name": null}, "gamma_initializer": {"module": "keras.initializers", "class_name": "Ones", "config": {}, "registered_name": null}, "moving_mean_initializer": {"module": "keras.initializers", "class_name": "Zeros", "config": {}, "registered_name": null}, "moving_variance_initializer": {"module": "keras.initializers", "class_name": "Ones", "config": {}, "registered_name": null}, "beta_regularizer": null, "gamma_regularizer": null, "beta_constraint": null, "gamma_constraint": null}, "name": "batch_normalization_9", "inbound_nodes": [[["conv2d_9", 0, 0, {}]]]}, {"class_name": "TFOpLambda", "config": {"name": "tf.clip_by_value_6", "trainable": true, "dtype": "float32", "function": "clip_by_value"}, "name": "tf.clip_by_value_6", "inbound_nodes": [["batch_normalization_9", 0, 0, {"clip_value_min": 0.0, "clip_value_max": 6.0}]]}, {"class_name": "ZeroPadding2D", "config": {"name": "zero_padding2d_4", "trainable": true, "dtype": "float32", "padding": [[1, 1], [1, 1]], "data_format": "channels_last"}, "name": "zero_padding2d_4", "inbound_nodes": [[["tf.clip_by_value_6", 0, 0, {}]]]}, {"class_name": "Conv2D", "config": {"name": "conv2d_10", "trainable": true, "dtype": "float32", "filters": 144, "kernel_size": [3, 3], "strides": [2, 2], "padding": "valid", "data_format": "channels_last", "dilation_rate": [1, 1], "groups": 144, "activation": "linear", "use_bias": false, "kernel_initializer": {"module": "keras.initializers", "class_name": "GlorotUniform", "config": {"seed": null}, "registered_name": null}, "bias_initializer": {"module": "keras.initializers", "class_name": "Zeros", "config": {}, "registered_name": null}, "kernel_regularizer": null, "bias_regularizer": null, "activity_regularizer": null, "kernel_constraint": null, "bias_constraint": null}, "name": "conv2d_10", "inbound_nodes": [[["zero_padding2d_4", 0, 0, {}]]]}, {"class_name": "BatchNormalization", "config": {"name": "batch_normalization_10", "trainable": true, "dtype": "float32", "axis": [3], "momentum": 0.9, "epsilon": 1e-05, "center": true, "scale": true, "beta_initializer": {"module": "keras.initializers", "class_name": "Zeros", "config": {}, "registered_name": null}, "gamma_initializer": {"module": "keras.initializers", "class_name": "Ones", "config": {}, "registered_name": null}, "moving_mean_initializer": {"module": "keras.initializers", "class_name": "Zeros", "config": {}, "registered_name": null}, "moving_variance_initializer": {"module": "keras.initializers", "class_name": "Ones", "config": {}, "registered_name": null}, "beta_regularizer": null, "gamma_regularizer": null, "beta_constraint": null, "gamma_constraint": null}, "name": "batch_normalization_10", "inbound_nodes": [[["conv2d_10", 0, 0, {}]]]}, {"class_name": "TFOpLambda", "config": {"name": "tf.clip_by_value_7", "trainable": true, "dtype": "float32", "function": "clip_by_value"}, "name": "tf.clip_by_value_7", "inbound_nodes": [["batch_normalization_10", 0, 0, {"clip_value_min": 0.0, "clip_value_max": 6.0}]]}, {"class_name": "Conv2D", "config": {"name": "conv2d_11", "trainable": true, "dtype": "float32", "filters": 32, "kernel_size": [1, 1], "strides": [1, 1], "padding": "valid", "data_format": "channels_last", "dilation_rate": [1, 1], "groups": 1, "activation": "linear", "use_bias": false, "kernel_initializer": {"module": "keras.initializers", "class_name": "GlorotUniform", "config": {"seed": null}, "registered_name": null}, "bias_initializer": {"module": "keras.initializers", "class_name": "Zeros", "config": {}, "registered_name": null}, "kernel_regularizer": null, "bias_regularizer": null, "activity_regularizer": null, "kernel_constraint": null, "bias_constraint": null}, "name": "conv2d_11", "inbound_nodes": [[["tf.clip_by_value_7", 0, 0, {}]]]}, {"class_name": "BatchNormalization", "config": {"name": "batch_normalization_11", "trainable": true, "dtype": "float32", "axis": [3], "momentum": 0.9, "epsilon": 1e-05, "center": true, "scale": true, "beta_initializer": {"module": "keras.initializers", "class_name": "Zeros", "config": {}, "registered_name": null}, "gamma_initializer": {"module": "keras.initializers", "class_name": "Ones", "config": {}, "registered_name": null}, "moving_mean_initializer": {"module": "keras.initializers", "class_name": "Zeros", "config": {}, "registered_name": null}, "moving_variance_initializer": {"module": "keras.initializers", "class_name": "Ones", "config": {}, "registered_name": null}, "beta_regularizer": null, "gamma_regularizer": null, "beta_constraint": null, "gamma_constraint": null}, "name": "batch_normalization_11", "inbound_nodes": [[["conv2d_11", 0, 0, {}]]]}, {"class_name": "Conv2D", "config": {"name": "conv2d_12", "trainable": true, "dtype": "float32", "filters": 192, "kernel_size": [1, 1], "strides": [1, 1], "padding": "valid", "data_format": "channels_last", "dilation_rate": [1, 1], "groups": 1, "activation": "linear", "use_bias": false, "kernel_initializer": {"module": "keras.initializers", "class_name": "GlorotUniform", "config": {"seed": null}, "registered_name": null}, "bias_initializer": {"module": "keras.initializers", "class_name": "Zeros", "config": {}, "registered_name": null}, "kernel_regularizer": null, "bias_regularizer": null, "activity_regularizer": null, "kernel_constraint": null, "bias_constraint": null}, "name": "conv2d_12", "inbound_nodes": [[["batch_normalization_11", 0, 0, {}]]]}, {"class_name": "BatchNormalization", "config": {"name": "batch_normalization_12", "trainable": true, "dtype": "float32", "axis": [3], "momentum": 0.9, "epsilon": 1e-05, "center": true, "scale": true, "beta_initializer": {"module": "keras.initializers", "class_name": "Zeros", "config": {}, "registered_name": null}, "gamma_initializer": {"module": "keras.initializers", "class_name": "Ones", "config": {}, "registered_name": null}, "moving_mean_initializer": {"module": "keras.initializers", "class_name": "Zeros", "config": {}, "registered_name": null}, "moving_variance_initializer": {"module": "keras.initializers", "class_name": "Ones", "config": {}, "registered_name": null}, "beta_regularizer": null, "gamma_regularizer": null, "beta_constraint": null, "gamma_constraint": null}, "name": "batch_normalization_12", "inbound_nodes": [[["conv2d_12", 0, 0, {}]]]}, {"class_name": "TFOpLambda", "config": {"name": "tf.clip_by_value_8", "trainable": true, "dtype": "float32", "function": "clip_by_value"}, "name": "tf.clip_by_value_8", "inbound_nodes": [["batch_normalization_12", 0, 0, {"clip_value_min": 0.0, "clip_value_max": 6.0}]]}, {"class_name": "ZeroPadding2D", "config": {"name": "zero_padding2d_5", "trainable": true, "dtype": "float32", "padding": [[1, 1], [1, 1]], "data_format": "channels_last"}, "name": "zero_padding2d_5", "inbound_nodes": [[["tf.clip_by_value_8", 0, 0, {}]]]}, {"class_name": "Conv2D", "config": {"name": "conv2d_13", "trainable": true, "dtype": "float32", "filters": 192, "kernel_size": [3, 3], "strides": [1, 1], "padding": "valid", "data_format": "channels_last", "dilation_rate": [1, 1], "groups": 192, "activation": "linear", "use_bias": false, "kernel_initializer": {"module": "keras.initializers", "class_name": "GlorotUniform", "config": {"seed": null}, "registered_name": null}, "bias_initializer": {"module": "keras.initializers", "class_name": "Zeros", "config": {}, "registered_name": null}, "kernel_regularizer": null, "bias_regularizer": null, "activity_regularizer": null, "kernel_constraint": null, "bias_constraint": null}, "name": "conv2d_13", "inbound_nodes": [[["zero_padding2d_5", 0, 0, {}]]]}, {"class_name": "BatchNormalization", "config": {"name": "batch_normalization_13", "trainable": true, "dtype": "float32", "axis": [3], "momentum": 0.9, "epsilon": 1e-05, "center": true, "scale": true, "beta_initializer": {"module": "keras.initializers", "class_name": "Zeros", "config": {}, "registered_name": null}, "gamma_initializer": {"module": "keras.initializers", "class_name": "Ones", "config": {}, "registered_name": null}, "moving_mean_initializer": {"module": "keras.initializers", "class_name": "Zeros", "config": {}, "registered_name": null}, "moving_variance_initializer": {"module": "keras.initializers", "class_name": "Ones", "config": {}, "registered_name": null}, "beta_regularizer": null, "gamma_regularizer": null, "beta_constraint": null, "gamma_constraint": null}, "name": "batch_normalization_13", "inbound_nodes": [[["conv2d_13", 0, 0, {}]]]}, {"class_name": "TFOpLambda", "config": {"name": "tf.clip_by_value_9", "trainable": true, "dtype": "float32", "function": "clip_by_value"}, "name": "tf.clip_by_value_9", "inbound_nodes": [["batch_normalization_13", 0, 0, {"clip_value_min": 0.0, "clip_value_max": 6.0}]]}, {"class_name": "Conv2D", "config": {"name": "conv2d_14", "trainable": true, "dtype": "float32", "filters": 32, "kernel_size": [1, 1], "strides": [1, 1], "padding": "valid", "data_format": "channels_last", "dilation_rate": [1, 1], "groups": 1, "activation": "linear", "use_bias": false, "kernel_initializer": {"module": "keras.initializers", "class_name": "GlorotUniform", "config": {"seed": null}, "registered_name": null}, "bias_initializer": {"module": "keras.initializers", "class_name": "Zeros", "config": {}, "registered_name": null}, "kernel_regularizer": null, "bias_regularizer": null, "activity_regularizer": null, "kernel_constraint": null, "bias_constraint": null}, "name": "conv2d_14", "inbound_nodes": [[["tf.clip_by_value_9", 0, 0, {}]]]}, {"class_name": "BatchNormalization", "config": {"name": "batch_normalization_14", "trainable": true, "dtype": "float32", "axis": [3], "momentum": 0.9, "epsilon": 1e-05, "center": true, "scale": true, "beta_initializer": {"module": "keras.initializers", "class_name": "Zeros", "config": {}, "registered_name": null}, "gamma_initializer": {"module": "keras.initializers", "class_name": "Ones", "config": {}, "registered_name": null}, "moving_mean_initializer": {"module": "keras.initializers", "class_name": "Zeros", "config": {}, "registered_name": null}, "moving_variance_initializer": {"module": "keras.initializers", "class_name": "Ones", "config": {}, "registered_name": null}, "beta_regularizer": null, "gamma_regularizer": null, "beta_constraint": null, "gamma_constraint": null}, "name": "batch_normalization_14", "inbound_nodes": [[["conv2d_14", 0, 0, {}]]]}, {"class_name": "TFOpLambda", "config": {"name": "tf.__operators__.add_1", "trainable": true, "dtype": "float32", "function": "__operators__.add"}, "name": "tf.__operators__.add_1", "inbound_nodes": [["batch_normalization_11", 0, 0, {"y": ["batch_normalization_14", 0, 0], "name": null}]]}, {"class_name": "Conv2D", "config": {"name": "conv2d_15", "trainable": true, "dtype": "float32", "filters": 192, "kernel_size": [1, 1], "strides": [1, 1], "padding": "valid", "data_format": "channels_last", "dilation_rate": [1, 1], "groups": 1, "activation": "linear", "use_bias": false, "kernel_initializer": {"module": "keras.initializers", "class_name": "GlorotUniform", "config": {"seed": null}, "registered_name": null}, "bias_initializer": {"module": "keras.initializers", "class_name": "Zeros", "config": {}, "registered_name": null}, "kernel_regularizer": null, "bias_regularizer": null, "activity_regularizer": null, "kernel_constraint": null, "bias_constraint": null}, "name": "conv2d_15", "inbound_nodes": [[["tf.__operators__.add_1", 0, 0, {}]]]}, {"class_name": "BatchNormalization", "config": {"name": "batch_normalization_15", "trainable": true, "dtype": "float32", "axis": [3], "momentum": 0.9, "epsilon": 1e-05, "center": true, "scale": true, "beta_initializer": {"module": "keras.initializers", "class_name": "Zeros", "config": {}, "registered_name": null}, "gamma_initializer": {"module": "keras.initializers", "class_name": "Ones", "config": {}, "registered_name": null}, "moving_mean_initializer": {"module": "keras.initializers", "class_name": "Zeros", "config": {}, "registered_name": null}, "moving_variance_initializer": {"module": "keras.initializers", "class_name": "Ones", "config": {}, "registered_name": null}, "beta_regularizer": null, "gamma_regularizer": null, "beta_constraint": null, "gamma_constraint": null}, "name": "batch_normalization_15", "inbound_nodes": [[["conv2d_15", 0, 0, {}]]]}, {"class_name": "TFOpLambda", "config": {"name": "tf.clip_by_value_10", "trainable": true, "dtype": "float32", "function": "clip_by_value"}, "name": "tf.clip_by_value_10", "inbound_nodes": [["batch_normalization_15", 0, 0, {"clip_value_min": 0.0, "clip_value_max": 6.0}]]}, {"class_name": "ZeroPadding2D", "config": {"name": "zero_padding2d_6", "trainable": true, "dtype": "float32", "padding": [[1, 1], [1, 1]], "data_format": "channels_last"}, "name": "zero_padding2d_6", "inbound_nodes": [[["tf.clip_by_value_10", 0, 0, {}]]]}, {"class_name": "Conv2D", "config": {"name": "conv2d_16", "trainable": true, "dtype": "float32", "filters": 192, "kernel_size": [3, 3], "strides": [1, 1], "padding": "valid", "data_format": "channels_last", "dilation_rate": [1, 1], "groups": 192, "activation": "linear", "use_bias": false, "kernel_initializer": {"module": "keras.initializers", "class_name": "GlorotUniform", "config": {"seed": null}, "registered_name": null}, "bias_initializer": {"module": "keras.initializers", "class_name": "Zeros", "config": {}, "registered_name": null}, "kernel_regularizer": null, "bias_regularizer": null, "activity_regularizer": null, "kernel_constraint": null, "bias_constraint": null}, "name": "conv2d_16", "inbound_nodes": [[["zero_padding2d_6", 0, 0, {}]]]}, {"class_name": "BatchNormalization", "config": {"name": "batch_normalization_16", "trainable": true, "dtype": "float32", "axis": [3], "momentum": 0.9, "epsilon": 1e-05, "center": true, "scale": true, "beta_initializer": {"module": "keras.initializers", "class_name": "Zeros", "config": {}, "registered_name": null}, "gamma_initializer": {"module": "keras.initializers", "class_name": "Ones", "config": {}, "registered_name": null}, "moving_mean_initializer": {"module": "keras.initializers", "class_name": "Zeros", "config": {}, "registered_name": null}, "moving_variance_initializer": {"module": "keras.initializers", "class_name": "Ones", "config": {}, "registered_name": null}, "beta_regularizer": null, "gamma_regularizer": null, "beta_constraint": null, "gamma_constraint": null}, "name": "batch_normalization_16", "inbound_nodes": [[["conv2d_16", 0, 0, {}]]]}, {"class_name": "TFOpLambda", "config": {"name": "tf.clip_by_value_11", "trainable": true, "dtype": "float32", "function": "clip_by_value"}, "name": "tf.clip_by_value_11", "inbound_nodes": [["batch_normalization_16", 0, 0, {"clip_value_min": 0.0, "clip_value_max": 6.0}]]}, {"class_name": "Conv2D", "config": {"name": "conv2d_17", "trainable": true, "dtype": "float32", "filters": 32, "kernel_size": [1, 1], "strides": [1, 1], "padding": "valid", "data_format": "channels_last", "dilation_rate": [1, 1], "groups": 1, "activation": "linear", "use_bias": false, "kernel_initializer": {"module": "keras.initializers", "class_name": "GlorotUniform", "config": {"seed": null}, "registered_name": null}, "bias_initializer": {"module": "keras.initializers", "class_name": "Zeros", "config": {}, "registered_name": null}, "kernel_regularizer": null, "bias_regularizer": null, "activity_regularizer": null, "kernel_constraint": null, "bias_constraint": null}, "name": "conv2d_17", "inbound_nodes": [[["tf.clip_by_value_11", 0, 0, {}]]]}, {"class_name": "BatchNormalization", "config": {"name": "batch_normalization_17", "trainable": true, "dtype": "float32", "axis": [3], "momentum": 0.9, "epsilon": 1e-05, "center": true, "scale": true, "beta_initializer": {"module": "keras.initializers", "class_name": "Zeros", "config": {}, "registered_name": null}, "gamma_initializer": {"module": "keras.initializers", "class_name": "Ones", "config": {}, "registered_name": null}, "moving_mean_initializer": {"module": "keras.initializers", "class_name": "Zeros", "config": {}, "registered_name": null}, "moving_variance_initializer": {"module": "keras.initializers", "class_name": "Ones", "config": {}, "registered_name": null}, "beta_regularizer": null, "gamma_regularizer": null, "beta_constraint": null, "gamma_constraint": null}, "name": "batch_normalization_17", "inbound_nodes": [[["conv2d_17", 0, 0, {}]]]}, {"class_name": "TFOpLambda", "config": {"name": "tf.__operators__.add_2", "trainable": true, "dtype": "float32", "function": "__operators__.add"}, "name": "tf.__operators__.add_2", "inbound_nodes": [["tf.__operators__.add_1", 0, 0, {"y": ["batch_normalization_17", 0, 0], "name": null}]]}, {"class_name": "Conv2D", "config": {"name": "conv2d_18", "trainable": true, "dtype": "float32", "filters": 192, "kernel_size": [1, 1], "strides": [1, 1], "padding": "valid", "data_format": "channels_last", "dilation_rate": [1, 1], "groups": 1, "activation": "linear", "use_bias": false, "kernel_initializer": {"module": "keras.initializers", "class_name": "GlorotUniform", "config": {"seed": null}, "registered_name": null}, "bias_initializer": {"module": "keras.initializers", "class_name": "Zeros", "config": {}, "registered_name": null}, "kernel_regularizer": null, "bias_regularizer": null, "activity_regularizer": null, "kernel_constraint": null, "bias_constraint": null}, "name": "conv2d_18", "inbound_nodes": [[["tf.__operators__.add_2", 0, 0, {}]]]}, {"class_name": "BatchNormalization", "config": {"name": "batch_normalization_18", "trainable": true, "dtype": "float32", "axis": [3], "momentum": 0.9, "epsilon": 1e-05, "center": true, "scale": true, "beta_initializer": {"module": "keras.initializers", "class_name": "Zeros", "config": {}, "registered_name": null}, "gamma_initializer": {"module": "keras.initializers", "class_name": "Ones", "config": {}, "registered_name": null}, "moving_mean_initializer": {"module": "keras.initializers", "class_name": "Zeros", "config": {}, "registered_name": null}, "moving_variance_initializer": {"module": "keras.initializers", "class_name": "Ones", "config": {}, "registered_name": null}, "beta_regularizer": null, "gamma_regularizer": null, "beta_constraint": null, "gamma_constraint": null}, "name": "batch_normalization_18", "inbound_nodes": [[["conv2d_18", 0, 0, {}]]]}, {"class_name": "TFOpLambda", "config": {"name": "tf.clip_by_value_12", "trainable": true, "dtype": "float32", "function": "clip_by_value"}, "name": "tf.clip_by_value_12", "inbound_nodes": [["batch_normalization_18", 0, 0, {"clip_value_min": 0.0, "clip_value_max": 6.0}]]}, {"class_name": "ZeroPadding2D", "config": {"name": "zero_padding2d_7", "trainable": true, "dtype": "float32", "padding": [[1, 1], [1, 1]], "data_format": "channels_last"}, "name": "zero_padding2d_7", "inbound_nodes": [[["tf.clip_by_value_12", 0, 0, {}]]]}, {"class_name": "Conv2D", "config": {"name": "conv2d_19", "trainable": true, "dtype": "float32", "filters": 192, "kernel_size": [3, 3], "strides": [2, 2], "padding": "valid", "data_format": "channels_last", "dilation_rate": [1, 1], "groups": 192, "activation": "linear", "use_bias": false, "kernel_initializer": {"module": "keras.initializers", "class_name": "GlorotUniform", "config": {"seed": null}, "registered_name": null}, "bias_initializer": {"module": "keras.initializers", "class_name": "Zeros", "config": {}, "registered_name": null}, "kernel_regularizer": null, "bias_regularizer": null, "activity_regularizer": null, "kernel_constraint": null, "bias_constraint": null}, "name": "conv2d_19", "inbound_nodes": [[["zero_padding2d_7", 0, 0, {}]]]}, {"class_name": "BatchNormalization", "config": {"name": "batch_normalization_19", "trainable": true, "dtype": "float32", "axis": [3], "momentum": 0.9, "epsilon": 1e-05, "center": true, "scale": true, "beta_initializer": {"module": "keras.initializers", "class_name": "Zeros", "config": {}, "registered_name": null}, "gamma_initializer": {"module": "keras.initializers", "class_name": "Ones", "config": {}, "registered_name": null}, "moving_mean_initializer": {"module": "keras.initializers", "class_name": "Zeros", "config": {}, "registered_name": null}, "moving_variance_initializer": {"module": "keras.initializers", "class_name": "Ones", "config": {}, "registered_name": null}, "beta_regularizer": null, "gamma_regularizer": null, "beta_constraint": null, "gamma_constraint": null}, "name": "batch_normalization_19", "inbound_nodes": [[["conv2d_19", 0, 0, {}]]]}, {"class_name": "TFOpLambda", "config": {"name": "tf.clip_by_value_13", "trainable": true, "dtype": "float32", "function": "clip_by_value"}, "name": "tf.clip_by_value_13", "inbound_nodes": [["batch_normalization_19", 0, 0, {"clip_value_min": 0.0, "clip_value_max": 6.0}]]}, {"class_name": "Conv2D", "config": {"name": "conv2d_20", "trainable": true, "dtype": "float32", "filters": 64, "kernel_size": [1, 1], "strides": [1, 1], "padding": "valid", "data_format": "channels_last", "dilation_rate": [1, 1], "groups": 1, "activation": "linear", "use_bias": false, "kernel_initializer": {"module": "keras.initializers", "class_name": "GlorotUniform", "config": {"seed": null}, "registered_name": null}, "bias_initializer": {"module": "keras.initializers", "class_name": "Zeros", "config": {}, "registered_name": null}, "kernel_regularizer": null, "bias_regularizer": null, "activity_regularizer": null, "kernel_constraint": null, "bias_constraint": null}, "name": "conv2d_20", "inbound_nodes": [[["tf.clip_by_value_13", 0, 0, {}]]]}, {"class_name": "BatchNormalization", "config": {"name": "batch_normalization_20", "trainable": true, "dtype": "float32", "axis": [3], "momentum": 0.9, "epsilon": 1e-05, "center": true, "scale": true, "beta_initializer": {"module": "keras.initializers", "class_name": "Zeros", "config": {}, "registered_name": null}, "gamma_initializer": {"module": "keras.initializers", "class_name": "Ones", "config": {}, "registered_name": null}, "moving_mean_initializer": {"module": "keras.initializers", "class_name": "Zeros", "config": {}, "registered_name": null}, "moving_variance_initializer": {"module": "keras.initializers", "class_name": "Ones", "config": {}, "registered_name": null}, "beta_regularizer": null, "gamma_regularizer": null, "beta_constraint": null, "gamma_constraint": null}, "name": "batch_normalization_20", "inbound_nodes": [[["conv2d_20", 0, 0, {}]]]}, {"class_name": "Conv2D", "config": {"name": "conv2d_21", "trainable": true, "dtype": "float32", "filters": 384, "kernel_size": [1, 1], "strides": [1, 1], "padding": "valid", "data_format": "channels_last", "dilation_rate": [1, 1], "groups": 1, "activation": "linear", "use_bias": false, "kernel_initializer": {"module": "keras.initializers", "class_name": "GlorotUniform", "config": {"seed": null}, "registered_name": null}, "bias_initializer": {"module": "keras.initializers", "class_name": "Zeros", "config": {}, "registered_name": null}, "kernel_regularizer": null, "bias_regularizer": null, "activity_regularizer": null, "kernel_constraint": null, "bias_constraint": null}, "name": "conv2d_21", "inbound_nodes": [[["batch_normalization_20", 0, 0, {}]]]}, {"class_name": "BatchNormalization", "config": {"name": "batch_normalization_21", "trainable": true, "dtype": "float32", "axis": [3], "momentum": 0.9, "epsilon": 1e-05, "center": true, "scale": true, "beta_initializer": {"module": "keras.initializers", "class_name": "Zeros", "config": {}, "registered_name": null}, "gamma_initializer": {"module": "keras.initializers", "class_name": "Ones", "config": {}, "registered_name": null}, "moving_mean_initializer": {"module": "keras.initializers", "class_name": "Zeros", "config": {}, "registered_name": null}, "moving_variance_initializer": {"module": "keras.initializers", "class_name": "Ones", "config": {}, "registered_name": null}, "beta_regularizer": null, "gamma_regularizer": null, "beta_constraint": null, "gamma_constraint": null}, "name": "batch_normalization_21", "inbound_nodes": [[["conv2d_21", 0, 0, {}]]]}, {"class_name": "TFOpLambda", "config": {"name": "tf.clip_by_value_14", "trainable": true, "dtype": "float32", "function": "clip_by_value"}, "name": "tf.clip_by_value_14", "inbound_nodes": [["batch_normalization_21", 0, 0, {"clip_value_min": 0.0, "clip_value_max": 6.0}]]}, {"class_name": "ZeroPadding2D", "config": {"name": "zero_padding2d_8", "trainable": true, "dtype": "float32", "padding": [[1, 1], [1, 1]], "data_format": "channels_last"}, "name": "zero_padding2d_8", "inbound_nodes": [[["tf.clip_by_value_14", 0, 0, {}]]]}, {"class_name": "Conv2D", "config": {"name": "conv2d_22", "trainable": true, "dtype": "float32", "filters": 384, "kernel_size": [3, 3], "strides": [1, 1], "padding": "valid", "data_format": "channels_last", "dilation_rate": [1, 1], "groups": 384, "activation": "linear", "use_bias": false, "kernel_initializer": {"module": "keras.initializers", "class_name": "GlorotUniform", "config": {"seed": null}, "registered_name": null}, "bias_initializer": {"module": "keras.initializers", "class_name": "Zeros", "config": {}, "registered_name": null}, "kernel_regularizer": null, "bias_regularizer": null, "activity_regularizer": null, "kernel_constraint": null, "bias_constraint": null}, "name": "conv2d_22", "inbound_nodes": [[["zero_padding2d_8", 0, 0, {}]]]}, {"class_name": "BatchNormalization", "config": {"name": "batch_normalization_22", "trainable": true, "dtype": "float32", "axis": [3], "momentum": 0.9, "epsilon": 1e-05, "center": true, "scale": true, "beta_initializer": {"module": "keras.initializers", "class_name": "Zeros", "config": {}, "registered_name": null}, "gamma_initializer": {"module": "keras.initializers", "class_name": "Ones", "config": {}, "registered_name": null}, "moving_mean_initializer": {"module": "keras.initializers", "class_name": "Zeros", "config": {}, "registered_name": null}, "moving_variance_initializer": {"module": "keras.initializers", "class_name": "Ones", "config": {}, "registered_name": null}, "beta_regularizer": null, "gamma_regularizer": null, "beta_constraint": null, "gamma_constraint": null}, "name": "batch_normalization_22", "inbound_nodes": [[["conv2d_22", 0, 0, {}]]]}, {"class_name": "TFOpLambda", "config": {"name": "tf.clip_by_value_15", "trainable": true, "dtype": "float32", "function": "clip_by_value"}, "name": "tf.clip_by_value_15", "inbound_nodes": [["batch_normalization_22", 0, 0, {"clip_value_min": 0.0, "clip_value_max": 6.0}]]}, {"class_name": "Conv2D", "config": {"name": "conv2d_23", "trainable": true, "dtype": "float32", "filters": 64, "kernel_size": [1, 1], "strides": [1, 1], "padding": "valid", "data_format": "channels_last", "dilation_rate": [1, 1], "groups": 1, "activation": "linear", "use_bias": false, "kernel_initializer": {"module": "keras.initializers", "class_name": "GlorotUniform", "config": {"seed": null}, "registered_name": null}, "bias_initializer": {"module": "keras.initializers", "class_name": "Zeros", "config": {}, "registered_name": null}, "kernel_regularizer": null, "bias_regularizer": null, "activity_regularizer": null, "kernel_constraint": null, "bias_constraint": null}, "name": "conv2d_23", "inbound_nodes": [[["tf.clip_by_value_15", 0, 0, {}]]]}, {"class_name": "BatchNormalization", "config": {"name": "batch_normalization_23", "trainable": true, "dtype": "float32", "axis": [3], "momentum": 0.9, "epsilon": 1e-05, "center": true, "scale": true, "beta_initializer": {"module": "keras.initializers", "class_name": "Zeros", "config": {}, "registered_name": null}, "gamma_initializer": {"module": "keras.initializers", "class_name": "Ones", "config": {}, "registered_name": null}, "moving_mean_initializer": {"module": "keras.initializers", "class_name": "Zeros", "config": {}, "registered_name": null}, "moving_variance_initializer": {"module": "keras.initializers", "class_name": "Ones", "config": {}, "registered_name": null}, "beta_regularizer": null, "gamma_regularizer": null, "beta_constraint": null, "gamma_constraint": null}, "name": "batch_normalization_23", "inbound_nodes": [[["conv2d_23", 0, 0, {}]]]}, {"class_name": "TFOpLambda", "config": {"name": "tf.__operators__.add_3", "trainable": true, "dtype": "float32", "function": "__operators__.add"}, "name": "tf.__operators__.add_3", "inbound_nodes": [["batch_normalization_20", 0, 0, {"y": ["batch_normalization_23", 0, 0], "name": null}]]}, {"class_name": "Conv2D", "config": {"name": "conv2d_24", "trainable": true, "dtype": "float32", "filters": 384, "kernel_size": [1, 1], "strides": [1, 1], "padding": "valid", "data_format": "channels_last", "dilation_rate": [1, 1], "groups": 1, "activation": "linear", "use_bias": false, "kernel_initializer": {"module": "keras.initializers", "class_name": "GlorotUniform", "config": {"seed": null}, "registered_name": null}, "bias_initializer": {"module": "keras.initializers", "class_name": "Zeros", "config": {}, "registered_name": null}, "kernel_regularizer": null, "bias_regularizer": null, "activity_regularizer": null, "kernel_constraint": null, "bias_constraint": null}, "name": "conv2d_24", "inbound_nodes": [[["tf.__operators__.add_3", 0, 0, {}]]]}, {"class_name": "BatchNormalization", "config": {"name": "batch_normalization_24", "trainable": true, "dtype": "float32", "axis": [3], "momentum": 0.9, "epsilon": 1e-05, "center": true, "scale": true, "beta_initializer": {"module": "keras.initializers", "class_name": "Zeros", "config": {}, "registered_name": null}, "gamma_initializer": {"module": "keras.initializers", "class_name": "Ones", "config": {}, "registered_name": null}, "moving_mean_initializer": {"module": "keras.initializers", "class_name": "Zeros", "config": {}, "registered_name": null}, "moving_variance_initializer": {"module": "keras.initializers", "class_name": "Ones", "config": {}, "registered_name": null}, "beta_regularizer": null, "gamma_regularizer": null, "beta_constraint": null, "gamma_constraint": null}, "name": "batch_normalization_24", "inbound_nodes": [[["conv2d_24", 0, 0, {}]]]}, {"class_name": "TFOpLambda", "config": {"name": "tf.clip_by_value_16", "trainable": true, "dtype": "float32", "function": "clip_by_value"}, "name": "tf.clip_by_value_16", "inbound_nodes": [["batch_normalization_24", 0, 0, {"clip_value_min": 0.0, "clip_value_max": 6.0}]]}, {"class_name": "ZeroPadding2D", "config": {"name": "zero_padding2d_9", "trainable": true, "dtype": "float32", "padding": [[1, 1], [1, 1]], "data_format": "channels_last"}, "name": "zero_padding2d_9", "inbound_nodes": [[["tf.clip_by_value_16", 0, 0, {}]]]}, {"class_name": "Conv2D", "config": {"name": "conv2d_25", "trainable": true, "dtype": "float32", "filters": 384, "kernel_size": [3, 3], "strides": [1, 1], "padding": "valid", "data_format": "channels_last", "dilation_rate": [1, 1], "groups": 384, "activation": "linear", "use_bias": false, "kernel_initializer": {"module": "keras.initializers", "class_name": "GlorotUniform", "config": {"seed": null}, "registered_name": null}, "bias_initializer": {"module": "keras.initializers", "class_name": "Zeros", "config": {}, "registered_name": null}, "kernel_regularizer": null, "bias_regularizer": null, "activity_regularizer": null, "kernel_constraint": null, "bias_constraint": null}, "name": "conv2d_25", "inbound_nodes": [[["zero_padding2d_9", 0, 0, {}]]]}, {"class_name": "BatchNormalization", "config": {"name": "batch_normalization_25", "trainable": true, "dtype": "float32", "axis": [3], "momentum": 0.9, "epsilon": 1e-05, "center": true, "scale": true, "beta_initializer": {"module": "keras.initializers", "class_name": "Zeros", "config": {}, "registered_name": null}, "gamma_initializer": {"module": "keras.initializers", "class_name": "Ones", "config": {}, "registered_name": null}, "moving_mean_initializer": {"module": "keras.initializers", "class_name": "Zeros", "config": {}, "registered_name": null}, "moving_variance_initializer": {"module": "keras.initializers", "class_name": "Ones", "config": {}, "registered_name": null}, "beta_regularizer": null, "gamma_regularizer": null, "beta_constraint": null, "gamma_constraint": null}, "name": "batch_normalization_25", "inbound_nodes": [[["conv2d_25", 0, 0, {}]]]}, {"class_name": "TFOpLambda", "config": {"name": "tf.clip_by_value_17", "trainable": true, "dtype": "float32", "function": "clip_by_value"}, "name": "tf.clip_by_value_17", "inbound_nodes": [["batch_normalization_25", 0, 0, {"clip_value_min": 0.0, "clip_value_max": 6.0}]]}, {"class_name": "Conv2D", "config": {"name": "conv2d_26", "trainable": true, "dtype": "float32", "filters": 64, "kernel_size": [1, 1], "strides": [1, 1], "padding": "valid", "data_format": "channels_last", "dilation_rate": [1, 1], "groups": 1, "activation": "linear", "use_bias": false, "kernel_initializer": {"module": "keras.initializers", "class_name": "GlorotUniform", "config": {"seed": null}, "registered_name": null}, "bias_initializer": {"module": "keras.initializers", "class_name": "Zeros", "config": {}, "registered_name": null}, "kernel_regularizer": null, "bias_regularizer": null, "activity_regularizer": null, "kernel_constraint": null, "bias_constraint": null}, "name": "conv2d_26", "inbound_nodes": [[["tf.clip_by_value_17", 0, 0, {}]]]}, {"class_name": "BatchNormalization", "config": {"name": "batch_normalization_26", "trainable": true, "dtype": "float32", "axis": [3], "momentum": 0.9, "epsilon": 1e-05, "center": true, "scale": true, "beta_initializer": {"module": "keras.initializers", "class_name": "Zeros", "config": {}, "registered_name": null}, "gamma_initializer": {"module": "keras.initializers", "class_name": "Ones", "config": {}, "registered_name": null}, "moving_mean_initializer": {"module": "keras.initializers", "class_name": "Zeros", "config": {}, "registered_name": null}, "moving_variance_initializer": {"module": "keras.initializers", "class_name": "Ones", "config": {}, "registered_name": null}, "beta_regularizer": null, "gamma_regularizer": null, "beta_constraint": null, "gamma_constraint": null}, "name": "batch_normalization_26", "inbound_nodes": [[["conv2d_26", 0, 0, {}]]]}, {"class_name": "TFOpLambda", "config": {"name": "tf.__operators__.add_4", "trainable": true, "dtype": "float32", "function": "__operators__.add"}, "name": "tf.__operators__.add_4", "inbound_nodes": [["tf.__operators__.add_3", 0, 0, {"y": ["batch_normalization_26", 0, 0], "name": null}]]}, {"class_name": "Conv2D", "config": {"name": "conv2d_27", "trainable": true, "dtype": "float32", "filters": 384, "kernel_size": [1, 1], "strides": [1, 1], "padding": "valid", "data_format": "channels_last", "dilation_rate": [1, 1], "groups": 1, "activation": "linear", "use_bias": false, "kernel_initializer": {"module": "keras.initializers", "class_name": "GlorotUniform", "config": {"seed": null}, "registered_name": null}, "bias_initializer": {"module": "keras.initializers", "class_name": "Zeros", "config": {}, "registered_name": null}, "kernel_regularizer": null, "bias_regularizer": null, "activity_regularizer": null, "kernel_constraint": null, "bias_constraint": null}, "name": "conv2d_27", "inbound_nodes": [[["tf.__operators__.add_4", 0, 0, {}]]]}, {"class_name": "BatchNormalization", "config": {"name": "batch_normalization_27", "trainable": true, "dtype": "float32", "axis": [3], "momentum": 0.9, "epsilon": 1e-05, "center": true, "scale": true, "beta_initializer": {"module": "keras.initializers", "class_name": "Zeros", "config": {}, "registered_name": null}, "gamma_initializer": {"module": "keras.initializers", "class_name": "Ones", "config": {}, "registered_name": null}, "moving_mean_initializer": {"module": "keras.initializers", "class_name": "Zeros", "config": {}, "registered_name": null}, "moving_variance_initializer": {"module": "keras.initializers", "class_name": "Ones", "config": {}, "registered_name": null}, "beta_regularizer": null, "gamma_regularizer": null, "beta_constraint": null, "gamma_constraint": null}, "name": "batch_normalization_27", "inbound_nodes": [[["conv2d_27", 0, 0, {}]]]}, {"class_name": "TFOpLambda", "config": {"name": "tf.clip_by_value_18", "trainable": true, "dtype": "float32", "function": "clip_by_value"}, "name": "tf.clip_by_value_18", "inbound_nodes": [["batch_normalization_27", 0, 0, {"clip_value_min": 0.0, "clip_value_max": 6.0}]]}, {"class_name": "ZeroPadding2D", "config": {"name": "zero_padding2d_10", "trainable": true, "dtype": "float32", "padding": [[1, 1], [1, 1]], "data_format": "channels_last"}, "name": "zero_padding2d_10", "inbound_nodes": [[["tf.clip_by_value_18", 0, 0, {}]]]}, {"class_name": "Conv2D", "config": {"name": "conv2d_28", "trainable": true, "dtype": "float32", "filters": 384, "kernel_size": [3, 3], "strides": [1, 1], "padding": "valid", "data_format": "channels_last", "dilation_rate": [1, 1], "groups": 384, "activation": "linear", "use_bias": false, "kernel_initializer": {"module": "keras.initializers", "class_name": "GlorotUniform", "config": {"seed": null}, "registered_name": null}, "bias_initializer": {"module": "keras.initializers", "class_name": "Zeros", "config": {}, "registered_name": null}, "kernel_regularizer": null, "bias_regularizer": null, "activity_regularizer": null, "kernel_constraint": null, "bias_constraint": null}, "name": "conv2d_28", "inbound_nodes": [[["zero_padding2d_10", 0, 0, {}]]]}, {"class_name": "BatchNormalization", "config": {"name": "batch_normalization_28", "trainable": true, "dtype": "float32", "axis": [3], "momentum": 0.9, "epsilon": 1e-05, "center": true, "scale": true, "beta_initializer": {"module": "keras.initializers", "class_name": "Zeros", "config": {}, "registered_name": null}, "gamma_initializer": {"module": "keras.initializers", "class_name": "Ones", "config": {}, "registered_name": null}, "moving_mean_initializer": {"module": "keras.initializers", "class_name": "Zeros", "config": {}, "registered_name": null}, "moving_variance_initializer": {"module": "keras.initializers", "class_name": "Ones", "config": {}, "registered_name": null}, "beta_regularizer": null, "gamma_regularizer": null, "beta_constraint": null, "gamma_constraint": null}, "name": "batch_normalization_28", "inbound_nodes": [[["conv2d_28", 0, 0, {}]]]}, {"class_name": "TFOpLambda", "config": {"name": "tf.clip_by_value_19", "trainable": true, "dtype": "float32", "function": "clip_by_value"}, "name": "tf.clip_by_value_19", "inbound_nodes": [["batch_normalization_28", 0, 0, {"clip_value_min": 0.0, "clip_value_max": 6.0}]]}, {"class_name": "Conv2D", "config": {"name": "conv2d_29", "trainable": true, "dtype": "float32", "filters": 64, "kernel_size": [1, 1], "strides": [1, 1], "padding": "valid", "data_format": "channels_last", "dilation_rate": [1, 1], "groups": 1, "activation": "linear", "use_bias": false, "kernel_initializer": {"module": "keras.initializers", "class_name": "GlorotUniform", "config": {"seed": null}, "registered_name": null}, "bias_initializer": {"module": "keras.initializers", "class_name": "Zeros", "config": {}, "registered_name": null}, "kernel_regularizer": null, "bias_regularizer": null, "activity_regularizer": null, "kernel_constraint": null, "bias_constraint": null}, "name": "conv2d_29", "inbound_nodes": [[["tf.clip_by_value_19", 0, 0, {}]]]}, {"class_name": "BatchNormalization", "config": {"name": "batch_normalization_29", "trainable": true, "dtype": "float32", "axis": [3], "momentum": 0.9, "epsilon": 1e-05, "center": true, "scale": true, "beta_initializer": {"module": "keras.initializers", "class_name": "Zeros", "config": {}, "registered_name": null}, "gamma_initializer": {"module": "keras.initializers", "class_name": "Ones", "config": {}, "registered_name": null}, "moving_mean_initializer": {"module": "keras.initializers", "class_name": "Zeros", "config": {}, "registered_name": null}, "moving_variance_initializer": {"module": "keras.initializers", "class_name": "Ones", "config": {}, "registered_name": null}, "beta_regularizer": null, "gamma_regularizer": null, "beta_constraint": null, "gamma_constraint": null}, "name": "batch_normalization_29", "inbound_nodes": [[["conv2d_29", 0, 0, {}]]]}, {"class_name": "TFOpLambda", "config": {"name": "tf.__operators__.add_5", "trainable": true, "dtype": "float32", "function": "__operators__.add"}, "name": "tf.__operators__.add_5", "inbound_nodes": [["tf.__operators__.add_4", 0, 0, {"y": ["batch_normalization_29", 0, 0], "name": null}]]}, {"class_name": "Conv2D", "config": {"name": "conv2d_30", "trainable": true, "dtype": "float32", "filters": 384, "kernel_size": [1, 1], "strides": [1, 1], "padding": "valid", "data_format": "channels_last", "dilation_rate": [1, 1], "groups": 1, "activation": "linear", "use_bias": false, "kernel_initializer": {"module": "keras.initializers", "class_name": "GlorotUniform", "config": {"seed": null}, "registered_name": null}, "bias_initializer": {"module": "keras.initializers", "class_name": "Zeros", "config": {}, "registered_name": null}, "kernel_regularizer": null, "bias_regularizer": null, "activity_regularizer": null, "kernel_constraint": null, "bias_constraint": null}, "name": "conv2d_30", "inbound_nodes": [[["tf.__operators__.add_5", 0, 0, {}]]]}, {"class_name": "BatchNormalization", "config": {"name": "batch_normalization_30", "trainable": true, "dtype": "float32", "axis": [3], "momentum": 0.9, "epsilon": 1e-05, "center": true, "scale": true, "beta_initializer": {"module": "keras.initializers", "class_name": "Zeros", "config": {}, "registered_name": null}, "gamma_initializer": {"module": "keras.initializers", "class_name": "Ones", "config": {}, "registered_name": null}, "moving_mean_initializer": {"module": "keras.initializers", "class_name": "Zeros", "config": {}, "registered_name": null}, "moving_variance_initializer": {"module": "keras.initializers", "class_name": "Ones", "config": {}, "registered_name": null}, "beta_regularizer": null, "gamma_regularizer": null, "beta_constraint": null, "gamma_constraint": null}, "name": "batch_normalization_30", "inbound_nodes": [[["conv2d_30", 0, 0, {}]]]}, {"class_name": "TFOpLambda", "config": {"name": "tf.clip_by_value_20", "trainable": true, "dtype": "float32", "function": "clip_by_value"}, "name": "tf.clip_by_value_20", "inbound_nodes": [["batch_normalization_30", 0, 0, {"clip_value_min": 0.0, "clip_value_max": 6.0}]]}, {"class_name": "ZeroPadding2D", "config": {"name": "zero_padding2d_11", "trainable": true, "dtype": "float32", "padding": [[1, 1], [1, 1]], "data_format": "channels_last"}, "name": "zero_padding2d_11", "inbound_nodes": [[["tf.clip_by_value_20", 0, 0, {}]]]}, {"class_name": "Conv2D", "config": {"name": "conv2d_31", "trainable": true, "dtype": "float32", "filters": 384, "kernel_size": [3, 3], "strides": [1, 1], "padding": "valid", "data_format": "channels_last", "dilation_rate": [1, 1], "groups": 384, "activation": "linear", "use_bias": false, "kernel_initializer": {"module": "keras.initializers", "class_name": "GlorotUniform", "config": {"seed": null}, "registered_name": null}, "bias_initializer": {"module": "keras.initializers", "class_name": "Zeros", "config": {}, "registered_name": null}, "kernel_regularizer": null, "bias_regularizer": null, "activity_regularizer": null, "kernel_constraint": null, "bias_constraint": null}, "name": "conv2d_31", "inbound_nodes": [[["zero_padding2d_11", 0, 0, {}]]]}, {"class_name": "BatchNormalization", "config": {"name": "batch_normalization_31", "trainable": true, "dtype": "float32", "axis": [3], "momentum": 0.9, "epsilon": 1e-05, "center": true, "scale": true, "beta_initializer": {"module": "keras.initializers", "class_name": "Zeros", "config": {}, "registered_name": null}, "gamma_initializer": {"module": "keras.initializers", "class_name": "Ones", "config": {}, "registered_name": null}, "moving_mean_initializer": {"module": "keras.initializers", "class_name": "Zeros", "config": {}, "registered_name": null}, "moving_variance_initializer": {"module": "keras.initializers", "class_name": "Ones", "config": {}, "registered_name": null}, "beta_regularizer": null, "gamma_regularizer": null, "beta_constraint": null, "gamma_constraint": null}, "name": "batch_normalization_31", "inbound_nodes": [[["conv2d_31", 0, 0, {}]]]}, {"class_name": "TFOpLambda", "config": {"name": "tf.clip_by_value_21", "trainable": true, "dtype": "float32", "function": "clip_by_value"}, "name": "tf.clip_by_value_21", "inbound_nodes": [["batch_normalization_31", 0, 0, {"clip_value_min": 0.0, "clip_value_max": 6.0}]]}, {"class_name": "Conv2D", "config": {"name": "conv2d_32", "trainable": true, "dtype": "float32", "filters": 96, "kernel_size": [1, 1], "strides": [1, 1], "padding": "valid", "data_format": "channels_last", "dilation_rate": [1, 1], "groups": 1, "activation": "linear", "use_bias": false, "kernel_initializer": {"module": "keras.initializers", "class_name": "GlorotUniform", "config": {"seed": null}, "registered_name": null}, "bias_initializer": {"module": "keras.initializers", "class_name": "Zeros", "config": {}, "registered_name": null}, "kernel_regularizer": null, "bias_regularizer": null, "activity_regularizer": null, "kernel_constraint": null, "bias_constraint": null}, "name": "conv2d_32", "inbound_nodes": [[["tf.clip_by_value_21", 0, 0, {}]]]}, {"class_name": "BatchNormalization", "config": {"name": "batch_normalization_32", "trainable": true, "dtype": "float32", "axis": [3], "momentum": 0.9, "epsilon": 1e-05, "center": true, "scale": true, "beta_initializer": {"module": "keras.initializers", "class_name": "Zeros", "config": {}, "registered_name": null}, "gamma_initializer": {"module": "keras.initializers", "class_name": "Ones", "config": {}, "registered_name": null}, "moving_mean_initializer": {"module": "keras.initializers", "class_name": "Zeros", "config": {}, "registered_name": null}, "moving_variance_initializer": {"module": "keras.initializers", "class_name": "Ones", "config": {}, "registered_name": null}, "beta_regularizer": null, "gamma_regularizer": null, "beta_constraint": null, "gamma_constraint": null}, "name": "batch_normalization_32", "inbound_nodes": [[["conv2d_32", 0, 0, {}]]]}, {"class_name": "Conv2D", "config": {"name": "conv2d_33", "trainable": true, "dtype": "float32", "filters": 576, "kernel_size": [1, 1], "strides": [1, 1], "padding": "valid", "data_format": "channels_last", "dilation_rate": [1, 1], "groups": 1, "activation": "linear", "use_bias": false, "kernel_initializer": {"module": "keras.initializers", "class_name": "GlorotUniform", "config": {"seed": null}, "registered_name": null}, "bias_initializer": {"module": "keras.initializers", "class_name": "Zeros", "config": {}, "registered_name": null}, "kernel_regularizer": null, "bias_regularizer": null, "activity_regularizer": null, "kernel_constraint": null, "bias_constraint": null}, "name": "conv2d_33", "inbound_nodes": [[["batch_normalization_32", 0, 0, {}]]]}, {"class_name": "BatchNormalization", "config": {"name": "batch_normalization_33", "trainable": true, "dtype": "float32", "axis": [3], "momentum": 0.9, "epsilon": 1e-05, "center": true, "scale": true, "beta_initializer": {"module": "keras.initializers", "class_name": "Zeros", "config": {}, "registered_name": null}, "gamma_initializer": {"module": "keras.initializers", "class_name": "Ones", "config": {}, "registered_name": null}, "moving_mean_initializer": {"module": "keras.initializers", "class_name": "Zeros", "config": {}, "registered_name": null}, "moving_variance_initializer": {"module": "keras.initializers", "class_name": "Ones", "config": {}, "registered_name": null}, "beta_regularizer": null, "gamma_regularizer": null, "beta_constraint": null, "gamma_constraint": null}, "name": "batch_normalization_33", "inbound_nodes": [[["conv2d_33", 0, 0, {}]]]}, {"class_name": "TFOpLambda", "config": {"name": "tf.clip_by_value_22", "trainable": true, "dtype": "float32", "function": "clip_by_value"}, "name": "tf.clip_by_value_22", "inbound_nodes": [["batch_normalization_33", 0, 0, {"clip_value_min": 0.0, "clip_value_max": 6.0}]]}, {"class_name": "ZeroPadding2D", "config": {"name": "zero_padding2d_12", "trainable": true, "dtype": "float32", "padding": [[1, 1], [1, 1]], "data_format": "channels_last"}, "name": "zero_padding2d_12", "inbound_nodes": [[["tf.clip_by_value_22", 0, 0, {}]]]}, {"class_name": "Conv2D", "config": {"name": "conv2d_34", "trainable": true, "dtype": "float32", "filters": 576, "kernel_size": [3, 3], "strides": [1, 1], "padding": "valid", "data_format": "channels_last", "dilation_rate": [1, 1], "groups": 576, "activation": "linear", "use_bias": false, "kernel_initializer": {"module": "keras.initializers", "class_name": "GlorotUniform", "config": {"seed": null}, "registered_name": null}, "bias_initializer": {"module": "keras.initializers", "class_name": "Zeros", "config": {}, "registered_name": null}, "kernel_regularizer": null, "bias_regularizer": null, "activity_regularizer": null, "kernel_constraint": null, "bias_constraint": null}, "name": "conv2d_34", "inbound_nodes": [[["zero_padding2d_12", 0, 0, {}]]]}, {"class_name": "BatchNormalization", "config": {"name": "batch_normalization_34", "trainable": true, "dtype": "float32", "axis": [3], "momentum": 0.9, "epsilon": 1e-05, "center": true, "scale": true, "beta_initializer": {"module": "keras.initializers", "class_name": "Zeros", "config": {}, "registered_name": null}, "gamma_initializer": {"module": "keras.initializers", "class_name": "Ones", "config": {}, "registered_name": null}, "moving_mean_initializer": {"module": "keras.initializers", "class_name": "Zeros", "config": {}, "registered_name": null}, "moving_variance_initializer": {"module": "keras.initializers", "class_name": "Ones", "config": {}, "registered_name": null}, "beta_regularizer": null, "gamma_regularizer": null, "beta_constraint": null, "gamma_constraint": null}, "name": "batch_normalization_34", "inbound_nodes": [[["conv2d_34", 0, 0, {}]]]}, {"class_name": "TFOpLambda", "config": {"name": "tf.clip_by_value_23", "trainable": true, "dtype": "float32", "function": "clip_by_value"}, "name": "tf.clip_by_value_23", "inbound_nodes": [["batch_normalization_34", 0, 0, {"clip_value_min": 0.0, "clip_value_max": 6.0}]]}, {"class_name": "Conv2D", "config": {"name": "conv2d_35", "trainable": true, "dtype": "float32", "filters": 96, "kernel_size": [1, 1], "strides": [1, 1], "padding": "valid", "data_format": "channels_last", "dilation_rate": [1, 1], "groups": 1, "activation": "linear", "use_bias": false, "kernel_initializer": {"module": "keras.initializers", "class_name": "GlorotUniform", "config": {"seed": null}, "registered_name": null}, "bias_initializer": {"module": "keras.initializers", "class_name": "Zeros", "config": {}, "registered_name": null}, "kernel_regularizer": null, "bias_regularizer": null, "activity_regularizer": null, "kernel_constraint": null, "bias_constraint": null}, "name": "conv2d_35", "inbound_nodes": [[["tf.clip_by_value_23", 0, 0, {}]]]}, {"class_name": "BatchNormalization", "config": {"name": "batch_normalization_35", "trainable": true, "dtype": "float32", "axis": [3], "momentum": 0.9, "epsilon": 1e-05, "center": true, "scale": true, "beta_initializer": {"module": "keras.initializers", "class_name": "Zeros", "config": {}, "registered_name": null}, "gamma_initializer": {"module": "keras.initializers", "class_name": "Ones", "config": {}, "registered_name": null}, "moving_mean_initializer": {"module": "keras.initializers", "class_name": "Zeros", "config": {}, "registered_name": null}, "moving_variance_initializer": {"module": "keras.initializers", "class_name": "Ones", "config": {}, "registered_name": null}, "beta_regularizer": null, "gamma_regularizer": null, "beta_constraint": null, "gamma_constraint": null}, "name": "batch_normalization_35", "inbound_nodes": [[["conv2d_35", 0, 0, {}]]]}, {"class_name": "TFOpLambda", "config": {"name": "tf.__operators__.add_6", "trainable": true, "dtype": "float32", "function": "__operators__.add"}, "name": "tf.__operators__.add_6", "inbound_nodes": [["batch_normalization_32", 0, 0, {"y": ["batch_normalization_35", 0, 0], "name": null}]]}, {"class_name": "Conv2D", "config": {"name": "conv2d_36", "trainable": true, "dtype": "float32", "filters": 576, "kernel_size": [1, 1], "strides": [1, 1], "padding": "valid", "data_format": "channels_last", "dilation_rate": [1, 1], "groups": 1, "activation": "linear", "use_bias": false, "kernel_initializer": {"module": "keras.initializers", "class_name": "GlorotUniform", "config": {"seed": null}, "registered_name": null}, "bias_initializer": {"module": "keras.initializers", "class_name": "Zeros", "config": {}, "registered_name": null}, "kernel_regularizer": null, "bias_regularizer": null, "activity_regularizer": null, "kernel_constraint": null, "bias_constraint": null}, "name": "conv2d_36", "inbound_nodes": [[["tf.__operators__.add_6", 0, 0, {}]]]}, {"class_name": "BatchNormalization", "config": {"name": "batch_normalization_36", "trainable": true, "dtype": "float32", "axis": [3], "momentum": 0.9, "epsilon": 1e-05, "center": true, "scale": true, "beta_initializer": {"module": "keras.initializers", "class_name": "Zeros", "config": {}, "registered_name": null}, "gamma_initializer": {"module": "keras.initializers", "class_name": "Ones", "config": {}, "registered_name": null}, "moving_mean_initializer": {"module": "keras.initializers", "class_name": "Zeros", "config": {}, "registered_name": null}, "moving_variance_initializer": {"module": "keras.initializers", "class_name": "Ones", "config": {}, "registered_name": null}, "beta_regularizer": null, "gamma_regularizer": null, "beta_constraint": null, "gamma_constraint": null}, "name": "batch_normalization_36", "inbound_nodes": [[["conv2d_36", 0, 0, {}]]]}, {"class_name": "TFOpLambda", "config": {"name": "tf.clip_by_value_24", "trainable": true, "dtype": "float32", "function": "clip_by_value"}, "name": "tf.clip_by_value_24", "inbound_nodes": [["batch_normalization_36", 0, 0, {"clip_value_min": 0.0, "clip_value_max": 6.0}]]}, {"class_name": "ZeroPadding2D", "config": {"name": "zero_padding2d_13", "trainable": true, "dtype": "float32", "padding": [[1, 1], [1, 1]], "data_format": "channels_last"}, "name": "zero_padding2d_13", "inbound_nodes": [[["tf.clip_by_value_24", 0, 0, {}]]]}, {"class_name": "Conv2D", "config": {"name": "conv2d_37", "trainable": true, "dtype": "float32", "filters": 576, "kernel_size": [3, 3], "strides": [1, 1], "padding": "valid", "data_format": "channels_last", "dilation_rate": [1, 1], "groups": 576, "activation": "linear", "use_bias": false, "kernel_initializer": {"module": "keras.initializers", "class_name": "GlorotUniform", "config": {"seed": null}, "registered_name": null}, "bias_initializer": {"module": "keras.initializers", "class_name": "Zeros", "config": {}, "registered_name": null}, "kernel_regularizer": null, "bias_regularizer": null, "activity_regularizer": null, "kernel_constraint": null, "bias_constraint": null}, "name": "conv2d_37", "inbound_nodes": [[["zero_padding2d_13", 0, 0, {}]]]}, {"class_name": "BatchNormalization", "config": {"name": "batch_normalization_37", "trainable": true, "dtype": "float32", "axis": [3], "momentum": 0.9, "epsilon": 1e-05, "center": true, "scale": true, "beta_initializer": {"module": "keras.initializers", "class_name": "Zeros", "config": {}, "registered_name": null}, "gamma_initializer": {"module": "keras.initializers", "class_name": "Ones", "config": {}, "registered_name": null}, "moving_mean_initializer": {"module": "keras.initializers", "class_name": "Zeros", "config": {}, "registered_name": null}, "moving_variance_initializer": {"module": "keras.initializers", "class_name": "Ones", "config": {}, "registered_name": null}, "beta_regularizer": null, "gamma_regularizer": null, "beta_constraint": null, "gamma_constraint": null}, "name": "batch_normalization_37", "inbound_nodes": [[["conv2d_37", 0, 0, {}]]]}, {"class_name": "TFOpLambda", "config": {"name": "tf.clip_by_value_25", "trainable": true, "dtype": "float32", "function": "clip_by_value"}, "name": "tf.clip_by_value_25", "inbound_nodes": [["batch_normalization_37", 0, 0, {"clip_value_min": 0.0, "clip_value_max": 6.0}]]}, {"class_name": "Conv2D", "config": {"name": "conv2d_38", "trainable": true, "dtype": "float32", "filters": 96, "kernel_size": [1, 1], "strides": [1, 1], "padding": "valid", "data_format": "channels_last", "dilation_rate": [1, 1], "groups": 1, "activation": "linear", "use_bias": false, "kernel_initializer": {"module": "keras.initializers", "class_name": "GlorotUniform", "config": {"seed": null}, "registered_name": null}, "bias_initializer": {"module": "keras.initializers", "class_name": "Zeros", "config": {}, "registered_name": null}, "kernel_regularizer": null, "bias_regularizer": null, "activity_regularizer": null, "kernel_constraint": null, "bias_constraint": null}, "name": "conv2d_38", "inbound_nodes": [[["tf.clip_by_value_25", 0, 0, {}]]]}, {"class_name": "BatchNormalization", "config": {"name": "batch_normalization_38", "trainable": true, "dtype": "float32", "axis": [3], "momentum": 0.9, "epsilon": 1e-05, "center": true, "scale": true, "beta_initializer": {"module": "keras.initializers", "class_name": "Zeros", "config": {}, "registered_name": null}, "gamma_initializer": {"module": "keras.initializers", "class_name": "Ones", "config": {}, "registered_name": null}, "moving_mean_initializer": {"module": "keras.initializers", "class_name": "Zeros", "config": {}, "registered_name": null}, "moving_variance_initializer": {"module": "keras.initializers", "class_name": "Ones", "config": {}, "registered_name": null}, "beta_regularizer": null, "gamma_regularizer": null, "beta_constraint": null, "gamma_constraint": null}, "name": "batch_normalization_38", "inbound_nodes": [[["conv2d_38", 0, 0, {}]]]}, {"class_name": "TFOpLambda", "config": {"name": "tf.__operators__.add_7", "trainable": true, "dtype": "float32", "function": "__operators__.add"}, "name": "tf.__operators__.add_7", "inbound_nodes": [["tf.__operators__.add_6", 0, 0, {"y": ["batch_normalization_38", 0, 0], "name": null}]]}, {"class_name": "Conv2D", "config": {"name": "conv2d_39", "trainable": true, "dtype": "float32", "filters": 576, "kernel_size": [1, 1], "strides": [1, 1], "padding": "valid", "data_format": "channels_last", "dilation_rate": [1, 1], "groups": 1, "activation": "linear", "use_bias": false, "kernel_initializer": {"module": "keras.initializers", "class_name": "GlorotUniform", "config": {"seed": null}, "registered_name": null}, "bias_initializer": {"module": "keras.initializers", "class_name": "Zeros", "config": {}, "registered_name": null}, "kernel_regularizer": null, "bias_regularizer": null, "activity_regularizer": null, "kernel_constraint": null, "bias_constraint": null}, "name": "conv2d_39", "inbound_nodes": [[["tf.__operators__.add_7", 0, 0, {}]]]}, {"class_name": "BatchNormalization", "config": {"name": "batch_normalization_39", "trainable": true, "dtype": "float32", "axis": [3], "momentum": 0.9, "epsilon": 1e-05, "center": true, "scale": true, "beta_initializer": {"module": "keras.initializers", "class_name": "Zeros", "config": {}, "registered_name": null}, "gamma_initializer": {"module": "keras.initializers", "class_name": "Ones", "config": {}, "registered_name": null}, "moving_mean_initializer": {"module": "keras.initializers", "class_name": "Zeros", "config": {}, "registered_name": null}, "moving_variance_initializer": {"module": "keras.initializers", "class_name": "Ones", "config": {}, "registered_name": null}, "beta_regularizer": null, "gamma_regularizer": null, "beta_constraint": null, "gamma_constraint": null}, "name": "batch_normalization_39", "inbound_nodes": [[["conv2d_39", 0, 0, {}]]]}, {"class_name": "TFOpLambda", "config": {"name": "tf.clip_by_value_26", "trainable": true, "dtype": "float32", "function": "clip_by_value"}, "name": "tf.clip_by_value_26", "inbound_nodes": [["batch_normalization_39", 0, 0, {"clip_value_min": 0.0, "clip_value_max": 6.0}]]}, {"class_name": "ZeroPadding2D", "config": {"name": "zero_padding2d_14", "trainable": true, "dtype": "float32", "padding": [[1, 1], [1, 1]], "data_format": "channels_last"}, "name": "zero_padding2d_14", "inbound_nodes": [[["tf.clip_by_value_26", 0, 0, {}]]]}, {"class_name": "Conv2D", "config": {"name": "conv2d_40", "trainable": true, "dtype": "float32", "filters": 576, "kernel_size": [3, 3], "strides": [2, 2], "padding": "valid", "data_format": "channels_last", "dilation_rate": [1, 1], "groups": 576, "activation": "linear", "use_bias": false, "kernel_initializer": {"module": "keras.initializers", "class_name": "GlorotUniform", "config": {"seed": null}, "registered_name": null}, "bias_initializer": {"module": "keras.initializers", "class_name": "Zeros", "config": {}, "registered_name": null}, "kernel_regularizer": null, "bias_regularizer": null, "activity_regularizer": null, "kernel_constraint": null, "bias_constraint": null}, "name": "conv2d_40", "inbound_nodes": [[["zero_padding2d_14", 0, 0, {}]]]}, {"class_name": "BatchNormalization", "config": {"name": "batch_normalization_40", "trainable": true, "dtype": "float32", "axis": [3], "momentum": 0.9, "epsilon": 1e-05, "center": true, "scale": true, "beta_initializer": {"module": "keras.initializers", "class_name": "Zeros", "config": {}, "registered_name": null}, "gamma_initializer": {"module": "keras.initializers", "class_name": "Ones", "config": {}, "registered_name": null}, "moving_mean_initializer": {"module": "keras.initializers", "class_name": "Zeros", "config": {}, "registered_name": null}, "moving_variance_initializer": {"module": "keras.initializers", "class_name": "Ones", "config": {}, "registered_name": null}, "beta_regularizer": null, "gamma_regularizer": null, "beta_constraint": null, "gamma_constraint": null}, "name": "batch_normalization_40", "inbound_nodes": [[["conv2d_40", 0, 0, {}]]]}, {"class_name": "TFOpLambda", "config": {"name": "tf.clip_by_value_27", "trainable": true, "dtype": "float32", "function": "clip_by_value"}, "name": "tf.clip_by_value_27", "inbound_nodes": [["batch_normalization_40", 0, 0, {"clip_value_min": 0.0, "clip_value_max": 6.0}]]}, {"class_name": "Conv2D", "config": {"name": "conv2d_41", "trainable": true, "dtype": "float32", "filters": 160, "kernel_size": [1, 1], "strides": [1, 1], "padding": "valid", "data_format": "channels_last", "dilation_rate": [1, 1], "groups": 1, "activation": "linear", "use_bias": false, "kernel_initializer": {"module": "keras.initializers", "class_name": "GlorotUniform", "config": {"seed": null}, "registered_name": null}, "bias_initializer": {"module": "keras.initializers", "class_name": "Zeros", "config": {}, "registered_name": null}, "kernel_regularizer": null, "bias_regularizer": null, "activity_regularizer": null, "kernel_constraint": null, "bias_constraint": null}, "name": "conv2d_41", "inbound_nodes": [[["tf.clip_by_value_27", 0, 0, {}]]]}, {"class_name": "BatchNormalization", "config": {"name": "batch_normalization_41", "trainable": true, "dtype": "float32", "axis": [3], "momentum": 0.9, "epsilon": 1e-05, "center": true, "scale": true, "beta_initializer": {"module": "keras.initializers", "class_name": "Zeros", "config": {}, "registered_name": null}, "gamma_initializer": {"module": "keras.initializers", "class_name": "Ones", "config": {}, "registered_name": null}, "moving_mean_initializer": {"module": "keras.initializers", "class_name": "Zeros", "config": {}, "registered_name": null}, "moving_variance_initializer": {"module": "keras.initializers", "class_name": "Ones", "config": {}, "registered_name": null}, "beta_regularizer": null, "gamma_regularizer": null, "beta_constraint": null, "gamma_constraint": null}, "name": "batch_normalization_41", "inbound_nodes": [[["conv2d_41", 0, 0, {}]]]}, {"class_name": "Conv2D", "config": {"name": "conv2d_42", "trainable": true, "dtype": "float32", "filters": 960, "kernel_size": [1, 1], "strides": [1, 1], "padding": "valid", "data_format": "channels_last", "dilation_rate": [1, 1], "groups": 1, "activation": "linear", "use_bias": false, "kernel_initializer": {"module": "keras.initializers", "class_name": "GlorotUniform", "config": {"seed": null}, "registered_name": null}, "bias_initializer": {"module": "keras.initializers", "class_name": "Zeros", "config": {}, "registered_name": null}, "kernel_regularizer": null, "bias_regularizer": null, "activity_regularizer": null, "kernel_constraint": null, "bias_constraint": null}, "name": "conv2d_42", "inbound_nodes": [[["batch_normalization_41", 0, 0, {}]]]}, {"class_name": "BatchNormalization", "config": {"name": "batch_normalization_42", "trainable": true, "dtype": "float32", "axis": [3], "momentum": 0.9, "epsilon": 1e-05, "center": true, "scale": true, "beta_initializer": {"module": "keras.initializers", "class_name": "Zeros", "config": {}, "registered_name": null}, "gamma_initializer": {"module": "keras.initializers", "class_name": "Ones", "config": {}, "registered_name": null}, "moving_mean_initializer": {"module": "keras.initializers", "class_name": "Zeros", "config": {}, "registered_name": null}, "moving_variance_initializer": {"module": "keras.initializers", "class_name": "Ones", "config": {}, "registered_name": null}, "beta_regularizer": null, "gamma_regularizer": null, "beta_constraint": null, "gamma_constraint": null}, "name": "batch_normalization_42", "inbound_nodes": [[["conv2d_42", 0, 0, {}]]]}, {"class_name": "TFOpLambda", "config": {"name": "tf.clip_by_value_28", "trainable": true, "dtype": "float32", "function": "clip_by_value"}, "name": "tf.clip_by_value_28", "inbound_nodes": [["batch_normalization_42", 0, 0, {"clip_value_min": 0.0, "clip_value_max": 6.0}]]}, {"class_name": "ZeroPadding2D", "config": {"name": "zero_padding2d_15", "trainable": true, "dtype": "float32", "padding": [[1, 1], [1, 1]], "data_format": "channels_last"}, "name": "zero_padding2d_15", "inbound_nodes": [[["tf.clip_by_value_28", 0, 0, {}]]]}, {"class_name": "Conv2D", "config": {"name": "conv2d_43", "trainable": true, "dtype": "float32", "filters": 960, "kernel_size": [3, 3], "strides": [1, 1], "padding": "valid", "data_format": "channels_last", "dilation_rate": [1, 1], "groups": 960, "activation": "linear", "use_bias": false, "kernel_initializer": {"module": "keras.initializers", "class_name": "GlorotUniform", "config": {"seed": null}, "registered_name": null}, "bias_initializer": {"module": "keras.initializers", "class_name": "Zeros", "config": {}, "registered_name": null}, "kernel_regularizer": null, "bias_regularizer": null, "activity_regularizer": null, "kernel_constraint": null, "bias_constraint": null}, "name": "conv2d_43", "inbound_nodes": [[["zero_padding2d_15", 0, 0, {}]]]}, {"class_name": "BatchNormalization", "config": {"name": "batch_normalization_43", "trainable": true, "dtype": "float32", "axis": [3], "momentum": 0.9, "epsilon": 1e-05, "center": true, "scale": true, "beta_initializer": {"module": "keras.initializers", "class_name": "Zeros", "config": {}, "registered_name": null}, "gamma_initializer": {"module": "keras.initializers", "class_name": "Ones", "config": {}, "registered_name": null}, "moving_mean_initializer": {"module": "keras.initializers", "class_name": "Zeros", "config": {}, "registered_name": null}, "moving_variance_initializer": {"module": "keras.initializers", "class_name": "Ones", "config": {}, "registered_name": null}, "beta_regularizer": null, "gamma_regularizer": null, "beta_constraint": null, "gamma_constraint": null}, "name": "batch_normalization_43", "inbound_nodes": [[["conv2d_43", 0, 0, {}]]]}, {"class_name": "TFOpLambda", "config": {"name": "tf.clip_by_value_29", "trainable": true, "dtype": "float32", "function": "clip_by_value"}, "name": "tf.clip_by_value_29", "inbound_nodes": [["batch_normalization_43", 0, 0, {"clip_value_min": 0.0, "clip_value_max": 6.0}]]}, {"class_name": "Conv2D", "config": {"name": "conv2d_44", "trainable": true, "dtype": "float32", "filters": 160, "kernel_size": [1, 1], "strides": [1, 1], "padding": "valid", "data_format": "channels_last", "dilation_rate": [1, 1], "groups": 1, "activation": "linear", "use_bias": false, "kernel_initializer": {"module": "keras.initializers", "class_name": "GlorotUniform", "config": {"seed": null}, "registered_name": null}, "bias_initializer": {"module": "keras.initializers", "class_name": "Zeros", "config": {}, "registered_name": null}, "kernel_regularizer": null, "bias_regularizer": null, "activity_regularizer": null, "kernel_constraint": null, "bias_constraint": null}, "name": "conv2d_44", "inbound_nodes": [[["tf.clip_by_value_29", 0, 0, {}]]]}, {"class_name": "BatchNormalization", "config": {"name": "batch_normalization_44", "trainable": true, "dtype": "float32", "axis": [3], "momentum": 0.9, "epsilon": 1e-05, "center": true, "scale": true, "beta_initializer": {"module": "keras.initializers", "class_name": "Zeros", "config": {}, "registered_name": null}, "gamma_initializer": {"module": "keras.initializers", "class_name": "Ones", "config": {}, "registered_name": null}, "moving_mean_initializer": {"module": "keras.initializers", "class_name": "Zeros", "config": {}, "registered_name": null}, "moving_variance_initializer": {"module": "keras.initializers", "class_name": "Ones", "config": {}, "registered_name": null}, "beta_regularizer": null, "gamma_regularizer": null, "beta_constraint": null, "gamma_constraint": null}, "name": "batch_normalization_44", "inbound_nodes": [[["conv2d_44", 0, 0, {}]]]}, {"class_name": "TFOpLambda", "config": {"name": "tf.__operators__.add_8", "trainable": true, "dtype": "float32", "function": "__operators__.add"}, "name": "tf.__operators__.add_8", "inbound_nodes": [["batch_normalization_41", 0, 0, {"y": ["batch_normalization_44", 0, 0], "name": null}]]}, {"class_name": "Conv2D", "config": {"name": "conv2d_45", "trainable": true, "dtype": "float32", "filters": 960, "kernel_size": [1, 1], "strides": [1, 1], "padding": "valid", "data_format": "channels_last", "dilation_rate": [1, 1], "groups": 1, "activation": "linear", "use_bias": false, "kernel_initializer": {"module": "keras.initializers", "class_name": "GlorotUniform", "config": {"seed": null}, "registered_name": null}, "bias_initializer": {"module": "keras.initializers", "class_name": "Zeros", "config": {}, "registered_name": null}, "kernel_regularizer": null, "bias_regularizer": null, "activity_regularizer": null, "kernel_constraint": null, "bias_constraint": null}, "name": "conv2d_45", "inbound_nodes": [[["tf.__operators__.add_8", 0, 0, {}]]]}, {"class_name": "BatchNormalization", "config": {"name": "batch_normalization_45", "trainable": true, "dtype": "float32", "axis": [3], "momentum": 0.9, "epsilon": 1e-05, "center": true, "scale": true, "beta_initializer": {"module": "keras.initializers", "class_name": "Zeros", "config": {}, "registered_name": null}, "gamma_initializer": {"module": "keras.initializers", "class_name": "Ones", "config": {}, "registered_name": null}, "moving_mean_initializer": {"module": "keras.initializers", "class_name": "Zeros", "config": {}, "registered_name": null}, "moving_variance_initializer": {"module": "keras.initializers", "class_name": "Ones", "config": {}, "registered_name": null}, "beta_regularizer": null, "gamma_regularizer": null, "beta_constraint": null, "gamma_constraint": null}, "name": "batch_normalization_45", "inbound_nodes": [[["conv2d_45", 0, 0, {}]]]}, {"class_name": "TFOpLambda", "config": {"name": "tf.clip_by_value_30", "trainable": true, "dtype": "float32", "function": "clip_by_value"}, "name": "tf.clip_by_value_30", "inbound_nodes": [["batch_normalization_45", 0, 0, {"clip_value_min": 0.0, "clip_value_max": 6.0}]]}, {"class_name": "ZeroPadding2D", "config": {"name": "zero_padding2d_16", "trainable": true, "dtype": "float32", "padding": [[1, 1], [1, 1]], "data_format": "channels_last"}, "name": "zero_padding2d_16", "inbound_nodes": [[["tf.clip_by_value_30", 0, 0, {}]]]}, {"class_name": "Conv2D", "config": {"name": "conv2d_46", "trainable": true, "dtype": "float32", "filters": 960, "kernel_size": [3, 3], "strides": [1, 1], "padding": "valid", "data_format": "channels_last", "dilation_rate": [1, 1], "groups": 960, "activation": "linear", "use_bias": false, "kernel_initializer": {"module": "keras.initializers", "class_name": "GlorotUniform", "config": {"seed": null}, "registered_name": null}, "bias_initializer": {"module": "keras.initializers", "class_name": "Zeros", "config": {}, "registered_name": null}, "kernel_regularizer": null, "bias_regularizer": null, "activity_regularizer": null, "kernel_constraint": null, "bias_constraint": null}, "name": "conv2d_46", "inbound_nodes": [[["zero_padding2d_16", 0, 0, {}]]]}, {"class_name": "BatchNormalization", "config": {"name": "batch_normalization_46", "trainable": true, "dtype": "float32", "axis": [3], "momentum": 0.9, "epsilon": 1e-05, "center": true, "scale": true, "beta_initializer": {"module": "keras.initializers", "class_name": "Zeros", "config": {}, "registered_name": null}, "gamma_initializer": {"module": "keras.initializers", "class_name": "Ones", "config": {}, "registered_name": null}, "moving_mean_initializer": {"module": "keras.initializers", "class_name": "Zeros", "config": {}, "registered_name": null}, "moving_variance_initializer": {"module": "keras.initializers", "class_name": "Ones", "config": {}, "registered_name": null}, "beta_regularizer": null, "gamma_regularizer": null, "beta_constraint": null, "gamma_constraint": null}, "name": "batch_normalization_46", "inbound_nodes": [[["conv2d_46", 0, 0, {}]]]}, {"class_name": "TFOpLambda", "config": {"name": "tf.clip_by_value_31", "trainable": true, "dtype": "float32", "function": "clip_by_value"}, "name": "tf.clip_by_value_31", "inbound_nodes": [["batch_normalization_46", 0, 0, {"clip_value_min": 0.0, "clip_value_max": 6.0}]]}, {"class_name": "Conv2D", "config": {"name": "conv2d_47", "trainable": true, "dtype": "float32", "filters": 160, "kernel_size": [1, 1], "strides": [1, 1], "padding": "valid", "data_format": "channels_last", "dilation_rate": [1, 1], "groups": 1, "activation": "linear", "use_bias": false, "kernel_initializer": {"module": "keras.initializers", "class_name": "GlorotUniform", "config": {"seed": null}, "registered_name": null}, "bias_initializer": {"module": "keras.initializers", "class_name": "Zeros", "config": {}, "registered_name": null}, "kernel_regularizer": null, "bias_regularizer": null, "activity_regularizer": null, "kernel_constraint": null, "bias_constraint": null}, "name": "conv2d_47", "inbound_nodes": [[["tf.clip_by_value_31", 0, 0, {}]]]}, {"class_name": "BatchNormalization", "config": {"name": "batch_normalization_47", "trainable": true, "dtype": "float32", "axis": [3], "momentum": 0.9, "epsilon": 1e-05, "center": true, "scale": true, "beta_initializer": {"module": "keras.initializers", "class_name": "Zeros", "config": {}, "registered_name": null}, "gamma_initializer": {"module": "keras.initializers", "class_name": "Ones", "config": {}, "registered_name": null}, "moving_mean_initializer": {"module": "keras.initializers", "class_name": "Zeros", "config": {}, "registered_name": null}, "moving_variance_initializer": {"module": "keras.initializers", "class_name": "Ones", "config": {}, "registered_name": null}, "beta_regularizer": null, "gamma_regularizer": null, "beta_constraint": null, "gamma_constraint": null}, "name": "batch_normalization_47", "inbound_nodes": [[["conv2d_47", 0, 0, {}]]]}, {"class_name": "TFOpLambda", "config": {"name": "tf.__operators__.add_9", "trainable": true, "dtype": "float32", "function": "__operators__.add"}, "name": "tf.__operators__.add_9", "inbound_nodes": [["tf.__operators__.add_8", 0, 0, {"y": ["batch_normalization_47", 0, 0], "name": null}]]}, {"class_name": "Conv2D", "config": {"name": "conv2d_48", "trainable": true, "dtype": "float32", "filters": 960, "kernel_size": [1, 1], "strides": [1, 1], "padding": "valid", "data_format": "channels_last", "dilation_rate": [1, 1], "groups": 1, "activation": "linear", "use_bias": false, "kernel_initializer": {"module": "keras.initializers", "class_name": "GlorotUniform", "config": {"seed": null}, "registered_name": null}, "bias_initializer": {"module": "keras.initializers", "class_name": "Zeros", "config": {}, "registered_name": null}, "kernel_regularizer": null, "bias_regularizer": null, "activity_regularizer": null, "kernel_constraint": null, "bias_constraint": null}, "name": "conv2d_48", "inbound_nodes": [[["tf.__operators__.add_9", 0, 0, {}]]]}, {"class_name": "BatchNormalization", "config": {"name": "batch_normalization_48", "trainable": true, "dtype": "float32", "axis": [3], "momentum": 0.9, "epsilon": 1e-05, "center": true, "scale": true, "beta_initializer": {"module": "keras.initializers", "class_name": "Zeros", "config": {}, "registered_name": null}, "gamma_initializer": {"module": "keras.initializers", "class_name": "Ones", "config": {}, "registered_name": null}, "moving_mean_initializer": {"module": "keras.initializers", "class_name": "Zeros", "config": {}, "registered_name": null}, "moving_variance_initializer": {"module": "keras.initializers", "class_name": "Ones", "config": {}, "registered_name": null}, "beta_regularizer": null, "gamma_regularizer": null, "beta_constraint": null, "gamma_constraint": null}, "name": "batch_normalization_48", "inbound_nodes": [[["conv2d_48", 0, 0, {}]]]}, {"class_name": "TFOpLambda", "config": {"name": "tf.clip_by_value_32", "trainable": true, "dtype": "float32", "function": "clip_by_value"}, "name": "tf.clip_by_value_32", "inbound_nodes": [["batch_normalization_48", 0, 0, {"clip_value_min": 0.0, "clip_value_max": 6.0}]]}, {"class_name": "ZeroPadding2D", "config": {"name": "zero_padding2d_17", "trainable": true, "dtype": "float32", "padding": [[1, 1], [1, 1]], "data_format": "channels_last"}, "name": "zero_padding2d_17", "inbound_nodes": [[["tf.clip_by_value_32", 0, 0, {}]]]}, {"class_name": "Conv2D", "config": {"name": "conv2d_49", "trainable": true, "dtype": "float32", "filters": 960, "kernel_size": [3, 3], "strides": [1, 1], "padding": "valid", "data_format": "channels_last", "dilation_rate": [1, 1], "groups": 960, "activation": "linear", "use_bias": false, "kernel_initializer": {"module": "keras.initializers", "class_name": "GlorotUniform", "config": {"seed": null}, "registered_name": null}, "bias_initializer": {"module": "keras.initializers", "class_name": "Zeros", "config": {}, "registered_name": null}, "kernel_regularizer": null, "bias_regularizer": null, "activity_regularizer": null, "kernel_constraint": null, "bias_constraint": null}, "name": "conv2d_49", "inbound_nodes": [[["zero_padding2d_17", 0, 0, {}]]]}, {"class_name": "BatchNormalization", "config": {"name": "batch_normalization_49", "trainable": true, "dtype": "float32", "axis": [3], "momentum": 0.9, "epsilon": 1e-05, "center": true, "scale": true, "beta_initializer": {"module": "keras.initializers", "class_name": "Zeros", "config": {}, "registered_name": null}, "gamma_initializer": {"module": "keras.initializers", "class_name": "Ones", "config": {}, "registered_name": null}, "moving_mean_initializer": {"module": "keras.initializers", "class_name": "Zeros", "config": {}, "registered_name": null}, "moving_variance_initializer": {"module": "keras.initializers", "class_name": "Ones", "config": {}, "registered_name": null}, "beta_regularizer": null, "gamma_regularizer": null, "beta_constraint": null, "gamma_constraint": null}, "name": "batch_normalization_49", "inbound_nodes": [[["conv2d_49", 0, 0, {}]]]}, {"class_name": "TFOpLambda", "config": {"name": "tf.clip_by_value_33", "trainable": true, "dtype": "float32", "function": "clip_by_value"}, "name": "tf.clip_by_value_33", "inbound_nodes": [["batch_normalization_49", 0, 0, {"clip_value_min": 0.0, "clip_value_max": 6.0}]]}, {"class_name": "Conv2D", "config": {"name": "conv2d_50", "trainable": true, "dtype": "float32", "filters": 320, "kernel_size": [1, 1], "strides": [1, 1], "padding": "valid", "data_format": "channels_last", "dilation_rate": [1, 1], "groups": 1, "activation": "linear", "use_bias": false, "kernel_initializer": {"module": "keras.initializers", "class_name": "GlorotUniform", "config": {"seed": null}, "registered_name": null}, "bias_initializer": {"module": "keras.initializers", "class_name": "Zeros", "config": {}, "registered_name": null}, "kernel_regularizer": null, "bias_regularizer": null, "activity_regularizer": null, "kernel_constraint": null, "bias_constraint": null}, "name": "conv2d_50", "inbound_nodes": [[["tf.clip_by_value_33", 0, 0, {}]]]}, {"class_name": "BatchNormalization", "config": {"name": "batch_normalization_50", "trainable": true, "dtype": "float32", "axis": [3], "momentum": 0.9, "epsilon": 1e-05, "center": true, "scale": true, "beta_initializer": {"module": "keras.initializers", "class_name": "Zeros", "config": {}, "registered_name": null}, "gamma_initializer": {"module": "keras.initializers", "class_name": "Ones", "config": {}, "registered_name": null}, "moving_mean_initializer": {"module": "keras.initializers", "class_name": "Zeros", "config": {}, "registered_name": null}, "moving_variance_initializer": {"module": "keras.initializers", "class_name": "Ones", "config": {}, "registered_name": null}, "beta_regularizer": null, "gamma_regularizer": null, "beta_constraint": null, "gamma_constraint": null}, "name": "batch_normalization_50", "inbound_nodes": [[["conv2d_50", 0, 0, {}]]]}, {"class_name": "Conv2D", "config": {"name": "conv2d_51", "trainable": true, "dtype": "float32", "filters": 1280, "kernel_size": [1, 1], "strides": [1, 1], "padding": "valid", "data_format": "channels_last", "dilation_rate": [1, 1], "groups": 1, "activation": "linear", "use_bias": false, "kernel_initializer": {"module": "keras.initializers", "class_name": "GlorotUniform", "config": {"seed": null}, "registered_name": null}, "bias_initializer": {"module": "keras.initializers", "class_name": "Zeros", "config": {}, "registered_name": null}, "kernel_regularizer": null, "bias_regularizer": null, "activity_regularizer": null, "kernel_constraint": null, "bias_constraint": null}, "name": "conv2d_51", "inbound_nodes": [[["batch_normalization_50", 0, 0, {}]]]}, {"class_name": "BatchNormalization", "config": {"name": "batch_normalization_51", "trainable": true, "dtype": "float32", "axis": [3], "momentum": 0.9, "epsilon": 1e-05, "center": true, "scale": true, "beta_initializer": {"module": "keras.initializers", "class_name": "Zeros", "config": {}, "registered_name": null}, "gamma_initializer": {"module": "keras.initializers", "class_name": "Ones", "config": {}, "registered_name": null}, "moving_mean_initializer": {"module": "keras.initializers", "class_name": "Zeros", "config": {}, "registered_name": null}, "moving_variance_initializer": {"module": "keras.initializers", "class_name": "Ones", "config": {}, "registered_name": null}, "beta_regularizer": null, "gamma_regularizer": null, "beta_constraint": null, "gamma_constraint": null}, "name": "batch_normalization_51", "inbound_nodes": [[["conv2d_51", 0, 0, {}]]]}, {"class_name": "TFOpLambda", "config": {"name": "tf.clip_by_value_34", "trainable": true, "dtype": "float32", "function": "clip_by_value"}, "name": "tf.clip_by_value_34", "inbound_nodes": [["batch_normalization_51", 0, 0, {"clip_value_min": 0.0, "clip_value_max": 6.0}]]}, {"class_name": "Conv2D", "config": {"name": "conv2d_52", "trainable": true, "dtype": "float32", "filters": 256, "kernel_size": [1, 1], "strides": [1, 1], "padding": "valid", "data_format": "channels_last", "dilation_rate": [1, 1], "groups": 1, "activation": "linear", "use_bias": true, "kernel_initializer": {"module": "keras.initializers", "class_name": "GlorotUniform", "config": {"seed": null}, "registered_name": null}, "bias_initializer": {"module": "keras.initializers", "class_name": "Zeros", "config": {}, "registered_name": null}, "kernel_regularizer": null, "bias_regularizer": null, "activity_regularizer": null, "kernel_constraint": null, "bias_constraint": null}, "name": "conv2d_52", "inbound_nodes": [[["tf.clip_by_value_34", 0, 0, {}]]]}, {"class_name": "ZeroPadding2D", "config": {"name": "zero_padding2d_18", "trainable": true, "dtype": "float32", "padding": [[1, 1], [1, 1]], "data_format": "channels_last"}, "name": "zero_padding2d_18", "inbound_nodes": [[["conv2d_52", 0, 0, {}]]]}, {"class_name": "Conv2D", "config": {"name": "conv2d_56", "trainable": true, "dtype": "float32", "filters": 128, "kernel_size": [3, 3], "strides": [1, 1], "padding": "valid", "data_format": "channels_last", "dilation_rate": [1, 1], "groups": 1, "activation": "linear", "use_bias": false, "kernel_initializer": {"module": "keras.initializers", "class_name": "GlorotUniform", "config": {"seed": null}, "registered_name": null}, "bias_initializer": {"module": "keras.initializers", "class_name": "Zeros", "config": {}, "registered_name": null}, "kernel_regularizer": null, "bias_regularizer": null, "activity_regularizer": null, "kernel_constraint": null, "bias_constraint": null}, "name": "conv2d_56", "inbound_nodes": [[["zero_padding2d_18", 0, 0, {}]]]}, {"class_name": "GroupNormalization", "config": {"name": "group_normalization", "trainable": true, "dtype": "float32", "groups": 32, "axis": -1, "epsilon": 1e-05, "center": true, "scale": true, "beta_initializer": {"module": "keras.initializers", "class_name": "Zeros", "config": {}, "registered_name": null}, "gamma_initializer": {"module": "keras.initializers", "class_name": "Ones", "config": {}, "registered_name": null}, "beta_regularizer": null, "gamma_regularizer": null, "beta_constraint": null, "gamma_constraint": null}, "name": "group_normalization", "inbound_nodes": [[["conv2d_56", 0, 0, {}]]]}, {"class_name": "ReLU", "config": {"name": "re_lu", "trainable": true, "dtype": "float32", "max_value": null, "negative_slope": 0.0, "threshold": 0.0}, "name": "re_lu", "inbound_nodes": [[["group_normalization", 0, 0, {}]]]}, {"class_name": "TFOpLambda", "config": {"name": "tf.compat.v1.image.resize_images", "trainable": true, "dtype": "float32", "function": "compat.v1.image.resize_images"}, "name": "tf.compat.v1.image.resize_images", "inbound_nodes": [["re_lu", 0, 0, {"size": [32, 32], "method": "bilinear", "align_corners": true}]]}, {"class_name": "TFOpLambda", "config": {"name": "tf.image.resize", "trainable": true, "dtype": "float32", "function": "image.resize"}, "name": "tf.image.resize", "inbound_nodes": [["conv2d_52", 0, 0, {"size": [32, 32], "method": "nearest", "antialias": false}]]}, {"class_name": "Conv2D", "config": {"name": "conv2d_53", "trainable": true, "dtype": "float32", "filters": 256, "kernel_size": [1, 1], "strides": [1, 1], "padding": "valid", "data_format": "channels_last", "dilation_rate": [1, 1], "groups": 1, "activation": "linear", "use_bias": true, "kernel_initializer": {"module": "keras.initializers", "class_name": "GlorotUniform", "config": {"seed": null}, "registered_name": null}, "bias_initializer": {"module": "keras.initializers", "class_name": "Zeros", "config": {}, "registered_name": null}, "kernel_regularizer": null, "bias_regularizer": null, "activity_regularizer": null, "kernel_constraint": null, "bias_constraint": null}, "name": "conv2d_53", "inbound_nodes": [[["tf.__operators__.add_7", 0, 0, {}]]]}, {"class_name": "ZeroPadding2D", "config": {"name": "zero_padding2d_19", "trainable": true, "dtype": "float32", "padding": [[1, 1], [1, 1]], "data_format": "channels_last"}, "name": "zero_padding2d_19", "inbound_nodes": [[["tf.compat.v1.image.resize_images", 0, 0, {}]]]}, {"class_name": "TFOpLambda", "config": {"name": "tf.__operators__.add_10", "trainable": true, "dtype": "float32", "function": "__operators__.add"}, "name": "tf.__operators__.add_10", "inbound_nodes": [["tf.image.resize", 0, 0, {"y": ["conv2d_53", 0, 0], "name": null}]]}, {"class_name": "Conv2D", "config": {"name": "conv2d_57", "trainable": true, "dtype": "float32", "filters": 128, "kernel_size": [3, 3], "strides": [1, 1], "padding": "valid", "data_format": "channels_last", "dilation_rate": [1, 1], "groups": 1, "activation": "linear", "use_bias": false, "kernel_initializer": {"module": "keras.initializers", "class_name": "GlorotUniform", "config": {"seed": null}, "registered_name": null}, "bias_initializer": {"module": "keras.initializers", "class_name": "Zeros", "config": {}, "registered_name": null}, "kernel_regularizer": null, "bias_regularizer": null, "activity_regularizer": null, "kernel_constraint": null, "bias_constraint": null}, "name": "conv2d_57", "inbound_nodes": [[["zero_padding2d_19", 0, 0, {}]]]}, {"class_name": "ZeroPadding2D", "config": {"name": "zero_padding2d_21", "trainable": true, "dtype": "float32", "padding": [[1, 1], [1, 1]], "data_format": "channels_last"}, "name": "zero_padding2d_21", "inbound_nodes": [[["tf.__operators__.add_10", 0, 0, {}]]]}, {"class_name": "GroupNormalization", "config": {"name": "group_normalization_1", "trainable": true, "dtype": "float32", "groups": 32, "axis": -1, "epsilon": 1e-05, "center": true, "scale": true, "beta_initializer": {"module": "keras.initializers", "class_name": "Zeros", "config": {}, "registered_name": null}, "gamma_initializer": {"module": "keras.initializers", "class_name": "Ones", "config": {}, "registered_name": null}, "beta_regularizer": null, "gamma_regularizer": null, "beta_constraint": null, "gamma_constraint": null}, "name": "group_normalization_1", "inbound_nodes": [[["conv2d_57", 0, 0, {}]]]}, {"class_name": "Conv2D", "config": {"name": "conv2d_59", "trainable": true, "dtype": "float32", "filters": 128, "kernel_size": [3, 3], "strides": [1, 1], "padding": "valid", "data_format": "channels_last", "dilation_rate": [1, 1], "groups": 1, "activation": "linear", "use_bias": false, "kernel_initializer": {"module": "keras.initializers", "class_name": "GlorotUniform", "config": {"seed": null}, "registered_name": null}, "bias_initializer": {"module": "keras.initializers", "class_name": "Zeros", "config": {}, "registered_name": null}, "kernel_regularizer": null, "bias_regularizer": null, "activity_regularizer": null, "kernel_constraint": null, "bias_constraint": null}, "name": "conv2d_59", "inbound_nodes": [[["zero_padding2d_21", 0, 0, {}]]]}, {"class_name": "ReLU", "config": {"name": "re_lu_1", "trainable": true, "dtype": "float32", "max_value": null, "negative_slope": 0.0, "threshold": 0.0}, "name": "re_lu_1", "inbound_nodes": [[["group_normalization_1", 0, 0, {}]]]}, {"class_name": "GroupNormalization", "config": {"name": "group_normalization_3", "trainable": true, "dtype": "float32", "groups": 32, "axis": -1, "epsilon": 1e-05, "center": true, "scale": true, "beta_initializer": {"module": "keras.initializers", "class_name": "Zeros", "config": {}, "registered_name": null}, "gamma_initializer": {"module": "keras.initializers", "class_name": "Ones", "config": {}, "registered_name": null}, "beta_regularizer": null, "gamma_regularizer": null, "beta_constraint": null, "gamma_constraint": null}, "name": "group_normalization_3", "inbound_nodes": [[["conv2d_59", 0, 0, {}]]]}, {"class_name": "TFOpLambda", "config": {"name": "tf.compat.v1.image.resize_images_1", "trainable": true, "dtype": "float32", "function": "compat.v1.image.resize_images"}, "name": "tf.compat.v1.image.resize_images_1", "inbound_nodes": [["re_lu_1", 0, 0, {"size": [64, 64], "method": "bilinear", "align_corners": true}]]}, {"class_name": "ReLU", "config": {"name": "re_lu_3", "trainable": true, "dtype": "float32", "max_value": null, "negative_slope": 0.0, "threshold": 0.0}, "name": "re_lu_3", "inbound_nodes": [[["group_normalization_3", 0, 0, {}]]]}, {"class_name": "ZeroPadding2D", "config": {"name": "zero_padding2d_20", "trainable": true, "dtype": "float32", "padding": [[1, 1], [1, 1]], "data_format": "channels_last"}, "name": "zero_padding2d_20", "inbound_nodes": [[["tf.compat.v1.image.resize_images_1", 0, 0, {}]]]}, {"class_name": "TFOpLambda", "config": {"name": "tf.compat.v1.image.resize_images_3", "trainable": true, "dtype": "float32", "function": "compat.v1.image.resize_images"}, "name": "tf.compat.v1.image.resize_images_3", "inbound_nodes": [["re_lu_3", 0, 0, {"size": [64, 64], "method": "bilinear", "align_corners": true}]]}, {"class_name": "TFOpLambda", "config": {"name": "tf.image.resize_1", "trainable": true, "dtype": "float32", "function": "image.resize"}, "name": "tf.image.resize_1", "inbound_nodes": [["tf.__operators__.add_10", 0, 0, {"size": [64, 64], "method": "nearest", "antialias": false}]]}, {"class_name": "Conv2D", "config": {"name": "conv2d_54", "trainable": true, "dtype": "float32", "filters": 256, "kernel_size": [1, 1], "strides": [1, 1], "padding": "valid", "data_format": "channels_last", "dilation_rate": [1, 1], "groups": 1, "activation": "linear", "use_bias": true, "kernel_initializer": {"module": "keras.initializers", "class_name": "GlorotUniform", "config": {"seed": null}, "registered_name": null}, "bias_initializer": {"module": "keras.initializers", "class_name": "Zeros", "config": {}, "registered_name": null}, "kernel_regularizer": null, "bias_regularizer": null, "activity_regularizer": null, "kernel_constraint": null, "bias_constraint": null}, "name": "conv2d_54", "inbound_nodes": [[["tf.__operators__.add_2", 0, 0, {}]]]}, {"class_name": "Conv2D", "config": {"name": "conv2d_58", "trainable": true, "dtype": "float32", "filters": 128, "kernel_size": [3, 3], "strides": [1, 1], "padding": "valid", "data_format": "channels_last", "dilation_rate": [1, 1], "groups": 1, "activation": "linear", "use_bias": false, "kernel_initializer": {"module": "keras.initializers", "class_name": "GlorotUniform", "config": {"seed": null}, "registered_name": null}, "bias_initializer": {"module": "keras.initializers", "class_name": "Zeros", "config": {}, "registered_name": null}, "kernel_regularizer": null, "bias_regularizer": null, "activity_regularizer": null, "kernel_constraint": null, "bias_constraint": null}, "name": "conv2d_58", "inbound_nodes": [[["zero_padding2d_20", 0, 0, {}]]]}, {"class_name": "ZeroPadding2D", "config": {"name": "zero_padding2d_22", "trainable": true, "dtype": "float32", "padding": [[1, 1], [1, 1]], "data_format": "channels_last"}, "name": "zero_padding2d_22", "inbound_nodes": [[["tf.compat.v1.image.resize_images_3", 0, 0, {}]]]}, {"class_name": "TFOpLambda", "config": {"name": "tf.__operators__.add_11", "trainable": true, "dtype": "float32", "function": "__operators__.add"}, "name": "tf.__operators__.add_11", "inbound_nodes": [["tf.image.resize_1", 0, 0, {"y": ["conv2d_54", 0, 0], "name": null}]]}, {"class_name": "GroupNormalization", "config": {"name": "group_normalization_2", "trainable": true, "dtype": "float32", "groups": 32, "axis": -1, "epsilon": 1e-05, "center": true, "scale": true, "beta_initializer": {"module": "keras.initializers", "class_name": "Zeros", "config": {}, "registered_name": null}, "gamma_initializer": {"module": "keras.initializers", "class_name": "Ones", "config": {}, "registered_name": null}, "beta_regularizer": null, "gamma_regularizer": null, "beta_constraint": null, "gamma_constraint": null}, "name": "group_normalization_2", "inbound_nodes": [[["conv2d_58", 0, 0, {}]]]}, {"class_name": "Conv2D", "config": {"name": "conv2d_60", "trainable": true, "dtype": "float32", "filters": 128, "kernel_size": [3, 3], "strides": [1, 1], "padding": "valid", "data_format": "channels_last", "dilation_rate": [1, 1], "groups": 1, "activation": "linear", "use_bias": false, "kernel_initializer": {"module": "keras.initializers", "class_name": "GlorotUniform", "config": {"seed": null}, "registered_name": null}, "bias_initializer": {"module": "keras.initializers", "class_name": "Zeros", "config": {}, "registered_name": null}, "kernel_regularizer": null, "bias_regularizer": null, "activity_regularizer": null, "kernel_constraint": null, "bias_constraint": null}, "name": "conv2d_60", "inbound_nodes": [[["zero_padding2d_22", 0, 0, {}]]]}, {"class_name": "ZeroPadding2D", "config": {"name": "zero_padding2d_23", "trainable": true, "dtype": "float32", "padding": [[1, 1], [1, 1]], "data_format": "channels_last"}, "name": "zero_padding2d_23", "inbound_nodes": [[["tf.__operators__.add_11", 0, 0, {}]]]}, {"class_name": "TFOpLambda", "config": {"name": "tf.image.resize_2", "trainable": true, "dtype": "float32", "function": "image.resize"}, "name": "tf.image.resize_2", "inbound_nodes": [["tf.__operators__.add_11", 0, 0, {"size": [128, 128], "method": "nearest", "antialias": false}]]}, {"class_name": "Conv2D", "config": {"name": "conv2d_55", "trainable": true, "dtype": "float32", "filters": 256, "kernel_size": [1, 1], "strides": [1, 1], "padding": "valid", "data_format": "channels_last", "dilation_rate": [1, 1], "groups": 1, "activation": "linear", "use_bias": true, "kernel_initializer": {"module": "keras.initializers", "class_name": "GlorotUniform", "config": {"seed": null}, "registered_name": null}, "bias_initializer": {"module": "keras.initializers", "class_name": "Zeros", "config": {}, "registered_name": null}, "kernel_regularizer": null, "bias_regularizer": null, "activity_regularizer": null, "kernel_constraint": null, "bias_constraint": null}, "name": "conv2d_55", "inbound_nodes": [[["tf.__operators__.add", 0, 0, {}]]]}, {"class_name": "ReLU", "config": {"name": "re_lu_2", "trainable": true, "dtype": "float32", "max_value": null, "negative_slope": 0.0, "threshold": 0.0}, "name": "re_lu_2", "inbound_nodes": [[["group_normalization_2", 0, 0, {}]]]}, {"class_name": "GroupNormalization", "config": {"name": "group_normalization_4", "trainable": true, "dtype": "float32", "groups": 32, "axis": -1, "epsilon": 1e-05, "center": true, "scale": true, "beta_initializer": {"module": "keras.initializers", "class_name": "Zeros", "config": {}, "registered_name": null}, "gamma_initializer": {"module": "keras.initializers", "class_name": "Ones", "config": {}, "registered_name": null}, "beta_regularizer": null, "gamma_regularizer": null, "beta_constraint": null, "gamma_constraint": null}, "name": "group_normalization_4", "inbound_nodes": [[["conv2d_60", 0, 0, {}]]]}, {"class_name": "Conv2D", "config": {"name": "conv2d_61", "trainable": true, "dtype": "float32", "filters": 128, "kernel_size": [3, 3], "strides": [1, 1], "padding": "valid", "data_format": "channels_last", "dilation_rate": [1, 1], "groups": 1, "activation": "linear", "use_bias": false, "kernel_initializer": {"module": "keras.initializers", "class_name": "GlorotUniform", "config": {"seed": null}, "registered_name": null}, "bias_initializer": {"module": "keras.initializers", "class_name": "Zeros", "config": {}, "registered_name": null}, "kernel_regularizer": null, "bias_regularizer": null, "activity_regularizer": null, "kernel_constraint": null, "bias_constraint": null}, "name": "conv2d_61", "inbound_nodes": [[["zero_padding2d_23", 0, 0, {}]]]}, {"class_name": "TFOpLambda", "config": {"name": "tf.__operators__.add_12", "trainable": true, "dtype": "float32", "function": "__operators__.add"}, "name": "tf.__operators__.add_12", "inbound_nodes": [["tf.image.resize_2", 0, 0, {"y": ["conv2d_55", 0, 0], "name": null}]]}, {"class_name": "TFOpLambda", "config": {"name": "tf.compat.v1.image.resize_images_2", "trainable": true, "dtype": "float32", "function": "compat.v1.image.resize_images"}, "name": "tf.compat.v1.image.resize_images_2", "inbound_nodes": [["re_lu_2", 0, 0, {"size": [128, 128], "method": "bilinear", "align_corners": true}]]}, {"class_name": "ReLU", "config": {"name": "re_lu_4", "trainable": true, "dtype": "float32", "max_value": null, "negative_slope": 0.0, "threshold": 0.0}, "name": "re_lu_4", "inbound_nodes": [[["group_normalization_4", 0, 0, {}]]]}, {"class_name": "GroupNormalization", "config": {"name": "group_normalization_5", "trainable": true, "dtype": "float32", "groups": 32, "axis": -1, "epsilon": 1e-05, "center": true, "scale": true, "beta_initializer": {"module": "keras.initializers", "class_name": "Zeros", "config": {}, "registered_name": null}, "gamma_initializer": {"module": "keras.initializers", "class_name": "Ones", "config": {}, "registered_name": null}, "beta_regularizer": null, "gamma_regularizer": null, "beta_constraint": null, "gamma_constraint": null}, "name": "group_normalization_5", "inbound_nodes": [[["conv2d_61", 0, 0, {}]]]}, {"class_name": "ZeroPadding2D", "config": {"name": "zero_padding2d_24", "trainable": true, "dtype": "float32", "padding": [[1, 1], [1, 1]], "data_format": "channels_last"}, "name": "zero_padding2d_24", "inbound_nodes": [[["tf.__operators__.add_12", 0, 0, {}]]]}, {"class_name": "TFOpLambda", "config": {"name": "tf.math.add", "trainable": true, "dtype": "float32", "function": "math.add"}, "name": "tf.math.add", "inbound_nodes": [["tf.compat.v1.image.resize_images_2", 0, 0, {"y": 0.0, "name": null}]]}, {"class_name": "TFOpLambda", "config": {"name": "tf.compat.v1.image.resize_images_4", "trainable": true, "dtype": "float32", "function": "compat.v1.image.resize_images"}, "name": "tf.compat.v1.image.resize_images_4", "inbound_nodes": [["re_lu_4", 0, 0, {"size": [128, 128], "method": "bilinear", "align_corners": true}]]}, {"class_name": "ReLU", "config": {"name": "re_lu_5", "trainable": true, "dtype": "float32", "max_value": null, "negative_slope": 0.0, "threshold": 0.0}, "name": "re_lu_5", "inbound_nodes": [[["group_normalization_5", 0, 0, {}]]]}, {"class_name": "Conv2D", "config": {"name": "conv2d_62", "trainable": true, "dtype": "float32", "filters": 128, "kernel_size": [3, 3], "strides": [1, 1], "padding": "valid", "data_format": "channels_last", "dilation_rate": [1, 1], "groups": 1, "activation": "linear", "use_bias": false, "kernel_initializer": {"module": "keras.initializers", "class_name": "GlorotUniform", "config": {"seed": null}, "registered_name": null}, "bias_initializer": {"module": "keras.initializers", "class_name": "Zeros", "config": {}, "registered_name": null}, "kernel_regularizer": null, "bias_regularizer": null, "activity_regularizer": null, "kernel_constraint": null, "bias_constraint": null}, "name": "conv2d_62", "inbound_nodes": [[["zero_padding2d_24", 0, 0, {}]]]}, {"class_name": "TFOpLambda", "config": {"name": "tf.__operators__.add_13", "trainable": true, "dtype": "float32", "function": "__operators__.add"}, "name": "tf.__operators__.add_13", "inbound_nodes": [["tf.math.add", 0, 0, {"y": ["tf.compat.v1.image.resize_images_4", 0, 0], "name": null}]]}, {"class_name": "TFOpLambda", "config": {"name": "tf.compat.v1.image.resize_images_5", "trainable": true, "dtype": "float32", "function": "compat.v1.image.resize_images"}, "name": "tf.compat.v1.image.resize_images_5", "inbound_nodes": [["re_lu_5", 0, 0, {"size": [128, 128], "method": "bilinear", "align_corners": true}]]}, {"class_name": "GroupNormalization", "config": {"name": "group_normalization_6", "trainable": true, "dtype": "float32", "groups": 32, "axis": -1, "epsilon": 1e-05, "center": true, "scale": true, "beta_initializer": {"module": "keras.initializers", "class_name": "Zeros", "config": {}, "registered_name": null}, "gamma_initializer": {"module": "keras.initializers", "class_name": "Ones", "config": {}, "registered_name": null}, "beta_regularizer": null, "gamma_regularizer": null, "beta_constraint": null, "gamma_constraint": null}, "name": "group_normalization_6", "inbound_nodes": [[["conv2d_62", 0, 0, {}]]]}, {"class_name": "TFOpLambda", "config": {"name": "tf.__operators__.add_14", "trainable": true, "dtype": "float32", "function": "__operators__.add"}, "name": "tf.__operators__.add_14", "inbound_nodes": [["tf.__operators__.add_13", 0, 0, {"y": ["tf.compat.v1.image.resize_images_5", 0, 0], "name": null}]]}, {"class_name": "ReLU", "config": {"name": "re_lu_6", "trainable": true, "dtype": "float32", "max_value": null, "negative_slope": 0.0, "threshold": 0.0}, "name": "re_lu_6", "inbound_nodes": [[["group_normalization_6", 0, 0, {}]]]}, {"class_name": "TFOpLambda", "config": {"name": "tf.__operators__.add_15", "trainable": true, "dtype": "float32", "function": "__operators__.add"}, "name": "tf.__operators__.add_15", "inbound_nodes": [["tf.__operators__.add_14", 0, 0, {"y": ["re_lu_6", 0, 0], "name": null}]]}, {"class_name": "SpatialDropout2D", "config": {"name": "spatial_dropout2d", "trainable": true, "dtype": "float32", "rate": 0.2, "noise_shape": null, "seed": null}, "name": "spatial_dropout2d", "inbound_nodes": [[["tf.__operators__.add_15", 0, 0, {}]]]}, {"class_name": "Conv2D", "config": {"name": "conv2d_63", "trainable": true, "dtype": "float32", "filters": 1, "kernel_size": [1, 1], "strides": [1, 1], "padding": "valid", "data_format": "channels_last", "dilation_rate": [1, 1], "groups": 1, "activation": "linear", "use_bias": true, "kernel_initializer": {"module": "keras.initializers", "class_name": "GlorotUniform", "config": {"seed": null}, "registered_name": null}, "bias_initializer": {"module": "keras.initializers", "class_name": "Zeros", "config": {}, "registered_name": null}, "kernel_regularizer": null, "bias_regularizer": null, "activity_regularizer": null, "kernel_constraint": null, "bias_constraint": null}, "name": "conv2d_63", "inbound_nodes": [[["spatial_dropout2d", 0, 0, {}]]]}, {"class_name": "TFOpLambda", "config": {"name": "tf.compat.v1.image.resize_images_6", "trainable": true, "dtype": "float32", "function": "compat.v1.image.resize_images"}, "name": "tf.compat.v1.image.resize_images_6", "inbound_nodes": [["conv2d_63", 0, 0, {"size": [512, 512], "method": "bilinear", "align_corners": true}]]}, {"class_name": "Activation", "config": {"name": "activation_5", "trainable": true, "dtype": "float32", "activation": "sigmoid"}, "name": "activation_5", "inbound_nodes": [[["tf.compat.v1.image.resize_images_6", 0, 0, {}]]]}, {"class_name": "TFOpLambda", "config": {"name": "tf.identity", "trainable": true, "dtype": "float32", "function": "identity"}, "name": "tf.identity", "inbound_nodes": [["activation_5", 0, 0, {}]]}], "input_layers": [["input_1", 0, 0]], "output_layers": [["tf.identity", 0, 0]]}}}, "weightsManifest": [{"paths": ["group1-shard1of5.bin", "group1-shard2of5.bin", "group1-shard3of5.bin", "group1-shard4of5.bin", "group1-shard5of5.bin"], "weights": [{"name": "batch_normalization/gamma", "shape": [32], "dtype": "float32"}, {"name": "batch_normalization/beta", "shape": [32], "dtype": "float32"}, {"name": "batch_normalization/moving_mean", "shape": [32], "dtype": "float32"}, {"name": "batch_normalization/moving_variance", "shape": [32], "dtype": "float32"}, {"name": "batch_normalization_1/gamma", "shape": [32], "dtype": "float32"}, {"name": "batch_normalization_1/beta", "shape": [32], "dtype": "float32"}, {"name": "batch_normalization_1/moving_mean", "shape": [32], "dtype": "float32"}, {"name": "batch_normalization_1/moving_variance", "shape": [32], "dtype": "float32"}, {"name": "batch_normalization_10/gamma", "shape": [144], "dtype": "float32"}, {"name": "batch_normalization_10/beta", "shape": [144], "dtype": "float32"}, {"name": "batch_normalization_10/moving_mean", "shape": [144], "dtype": "float32"}, {"name": "batch_normalization_10/moving_variance", "shape": [144], "dtype": "float32"}, {"name": "batch_normalization_11/gamma", "shape": [32], "dtype": "float32"}, {"name": "batch_normalization_11/beta", "shape": [32], "dtype": "float32"}, {"name": "batch_normalization_11/moving_mean", "shape": [32], "dtype": "float32"}, {"name": "batch_normalization_11/moving_variance", "shape": [32], "dtype": "float32"}, {"name": "batch_normalization_12/gamma", "shape": [192], "dtype": "float32"}, {"name": "batch_normalization_12/beta", "shape": [192], "dtype": "float32"}, {"name": "batch_normalization_12/moving_mean", "shape": [192], "dtype": "float32"}, {"name": "batch_normalization_12/moving_variance", "shape": [192], "dtype": "float32"}, {"name": "batch_normalization_13/gamma", "shape": [192], "dtype": "float32"}, {"name": "batch_normalization_13/beta", "shape": [192], "dtype": "float32"}, {"name": "batch_normalization_13/moving_mean", "shape": [192], "dtype": "float32"}, {"name": "batch_normalization_13/moving_variance", "shape": [192], "dtype": "float32"}, {"name": "batch_normalization_14/gamma", "shape": [32], "dtype": "float32"}, {"name": "batch_normalization_14/beta", "shape": [32], "dtype": "float32"}, {"name": "batch_normalization_14/moving_mean", "shape": [32], "dtype": "float32"}, {"name": "batch_normalization_14/moving_variance", "shape": [32], "dtype": "float32"}, {"name": "batch_normalization_15/gamma", "shape": [192], "dtype": "float32"}, {"name": "batch_normalization_15/beta", "shape": [192], "dtype": "float32"}, {"name": "batch_normalization_15/moving_mean", "shape": [192], "dtype": "float32"}, {"name": "batch_normalization_15/moving_variance", "shape": [192], "dtype": "float32"}, {"name": "batch_normalization_16/gamma", "shape": [192], "dtype": "float32"}, {"name": "batch_normalization_16/beta", "shape": [192], "dtype": "float32"}, {"name": "batch_normalization_16/moving_mean", "shape": [192], "dtype": "float32"}, {"name": "batch_normalization_16/moving_variance", "shape": [192], "dtype": "float32"}, {"name": "batch_normalization_17/gamma", "shape": [32], "dtype": "float32"}, {"name": "batch_normalization_17/beta", "shape": [32], "dtype": "float32"}, {"name": "batch_normalization_17/moving_mean", "shape": [32], "dtype": "float32"}, {"name": "batch_normalization_17/moving_variance", "shape": [32], "dtype": "float32"}, {"name": "batch_normalization_18/gamma", "shape": [192], "dtype": "float32"}, {"name": "batch_normalization_18/beta", "shape": [192], "dtype": "float32"}, {"name": "batch_normalization_18/moving_mean", "shape": [192], "dtype": "float32"}, {"name": "batch_normalization_18/moving_variance", "shape": [192], "dtype": "float32"}, {"name": "batch_normalization_19/gamma", "shape": [192], "dtype": "float32"}, {"name": "batch_normalization_19/beta", "shape": [192], "dtype": "float32"}, {"name": "batch_normalization_19/moving_mean", "shape": [192], "dtype": "float32"}, {"name": "batch_normalization_19/moving_variance", "shape": [192], "dtype": "float32"}, {"name": "batch_normalization_2/gamma", "shape": [16], "dtype": "float32"}, {"name": "batch_normalization_2/beta", "shape": [16], "dtype": "float32"}, {"name": "batch_normalization_2/moving_mean", "shape": [16], "dtype": "float32"}, {"name": "batch_normalization_2/moving_variance", "shape": [16], "dtype": "float32"}, {"name": "batch_normalization_20/gamma", "shape": [64], "dtype": "float32"}, {"name": "batch_normalization_20/beta", "shape": [64], "dtype": "float32"}, {"name": "batch_normalization_20/moving_mean", "shape": [64], "dtype": "float32"}, {"name": "batch_normalization_20/moving_variance", "shape": [64], "dtype": "float32"}, {"name": "batch_normalization_21/gamma", "shape": [384], "dtype": "float32"}, {"name": "batch_normalization_21/beta", "shape": [384], "dtype": "float32"}, {"name": "batch_normalization_21/moving_mean", "shape": [384], "dtype": "float32"}, {"name": "batch_normalization_21/moving_variance", "shape": [384], "dtype": "float32"}, {"name": "batch_normalization_22/gamma", "shape": [384], "dtype": "float32"}, {"name": "batch_normalization_22/beta", "shape": [384], "dtype": "float32"}, {"name": "batch_normalization_22/moving_mean", "shape": [384], "dtype": "float32"}, {"name": "batch_normalization_22/moving_variance", "shape": [384], "dtype": "float32"}, {"name": "batch_normalization_23/gamma", "shape": [64], "dtype": "float32"}, {"name": "batch_normalization_23/beta", "shape": [64], "dtype": "float32"}, {"name": "batch_normalization_23/moving_mean", "shape": [64], "dtype": "float32"}, {"name": "batch_normalization_23/moving_variance", "shape": [64], "dtype": "float32"}, {"name": "batch_normalization_24/gamma", "shape": [384], "dtype": "float32"}, {"name": "batch_normalization_24/beta", "shape": [384], "dtype": "float32"}, {"name": "batch_normalization_24/moving_mean", "shape": [384], "dtype": "float32"}, {"name": "batch_normalization_24/moving_variance", "shape": [384], "dtype": "float32"}, {"name": "batch_normalization_25/gamma", "shape": [384], "dtype": "float32"}, {"name": "batch_normalization_25/beta", "shape": [384], "dtype": "float32"}, {"name": "batch_normalization_25/moving_mean", "shape": [384], "dtype": "float32"}, {"name": "batch_normalization_25/moving_variance", "shape": [384], "dtype": "float32"}, {"name": "batch_normalization_26/gamma", "shape": [64], "dtype": "float32"}, {"name": "batch_normalization_26/beta", "shape": [64], "dtype": "float32"}, {"name": "batch_normalization_26/moving_mean", "shape": [64], "dtype": "float32"}, {"name": "batch_normalization_26/moving_variance", "shape": [64], "dtype": "float32"}, {"name": "batch_normalization_27/gamma", "shape": [384], "dtype": "float32"}, {"name": "batch_normalization_27/beta", "shape": [384], "dtype": "float32"}, {"name": "batch_normalization_27/moving_mean", "shape": [384], "dtype": "float32"}, {"name": "batch_normalization_27/moving_variance", "shape": [384], "dtype": "float32"}, {"name": "batch_normalization_28/gamma", "shape": [384], "dtype": "float32"}, {"name": "batch_normalization_28/beta", "shape": [384], "dtype": "float32"}, {"name": "batch_normalization_28/moving_mean", "shape": [384], "dtype": "float32"}, {"name": "batch_normalization_28/moving_variance", "shape": [384], "dtype": "float32"}, {"name": "batch_normalization_29/gamma", "shape": [64], "dtype": "float32"}, {"name": "batch_normalization_29/beta", "shape": [64], "dtype": "float32"}, {"name": "batch_normalization_29/moving_mean", "shape": [64], "dtype": "float32"}, {"name": "batch_normalization_29/moving_variance", "shape": [64], "dtype": "float32"}, {"name": "batch_normalization_3/gamma", "shape": [96], "dtype": "float32"}, {"name": "batch_normalization_3/beta", "shape": [96], "dtype": "float32"}, {"name": "batch_normalization_3/moving_mean", "shape": [96], "dtype": "float32"}, {"name": "batch_normalization_3/moving_variance", "shape": [96], "dtype": "float32"}, {"name": "batch_normalization_30/gamma", "shape": [384], "dtype": "float32"}, {"name": "batch_normalization_30/beta", "shape": [384], "dtype": "float32"}, {"name": "batch_normalization_30/moving_mean", "shape": [384], "dtype": "float32"}, {"name": "batch_normalization_30/moving_variance", "shape": [384], "dtype": "float32"}, {"name": "batch_normalization_31/gamma", "shape": [384], "dtype": "float32"}, {"name": "batch_normalization_31/beta", "shape": [384], "dtype": "float32"}, {"name": "batch_normalization_31/moving_mean", "shape": [384], "dtype": "float32"}, {"name": "batch_normalization_31/moving_variance", "shape": [384], "dtype": "float32"}, {"name": "batch_normalization_32/gamma", "shape": [96], "dtype": "float32"}, {"name": "batch_normalization_32/beta", "shape": [96], "dtype": "float32"}, {"name": "batch_normalization_32/moving_mean", "shape": [96], "dtype": "float32"}, {"name": "batch_normalization_32/moving_variance", "shape": [96], "dtype": "float32"}, {"name": "batch_normalization_33/gamma", "shape": [576], "dtype": "float32"}, {"name": "batch_normalization_33/beta", "shape": [576], "dtype": "float32"}, {"name": "batch_normalization_33/moving_mean", "shape": [576], "dtype": "float32"}, {"name": "batch_normalization_33/moving_variance", "shape": [576], "dtype": "float32"}, {"name": "batch_normalization_34/gamma", "shape": [576], "dtype": "float32"}, {"name": "batch_normalization_34/beta", "shape": [576], "dtype": "float32"}, {"name": "batch_normalization_34/moving_mean", "shape": [576], "dtype": "float32"}, {"name": "batch_normalization_34/moving_variance", "shape": [576], "dtype": "float32"}, {"name": "batch_normalization_35/gamma", "shape": [96], "dtype": "float32"}, {"name": "batch_normalization_35/beta", "shape": [96], "dtype": "float32"}, {"name": "batch_normalization_35/moving_mean", "shape": [96], "dtype": "float32"}, {"name": "batch_normalization_35/moving_variance", "shape": [96], "dtype": "float32"}, {"name": "batch_normalization_36/gamma", "shape": [576], "dtype": "float32"}, {"name": "batch_normalization_36/beta", "shape": [576], "dtype": "float32"}, {"name": "batch_normalization_36/moving_mean", "shape": [576], "dtype": "float32"}, {"name": "batch_normalization_36/moving_variance", "shape": [576], "dtype": "float32"}, {"name": "batch_normalization_37/gamma", "shape": [576], "dtype": "float32"}, {"name": "batch_normalization_37/beta", "shape": [576], "dtype": "float32"}, {"name": "batch_normalization_37/moving_mean", "shape": [576], "dtype": "float32"}, {"name": "batch_normalization_37/moving_variance", "shape": [576], "dtype": "float32"}, {"name": "batch_normalization_38/gamma", "shape": [96], "dtype": "float32"}, {"name": "batch_normalization_38/beta", "shape": [96], "dtype": "float32"}, {"name": "batch_normalization_38/moving_mean", "shape": [96], "dtype": "float32"}, {"name": "batch_normalization_38/moving_variance", "shape": [96], "dtype": "float32"}, {"name": "batch_normalization_39/gamma", "shape": [576], "dtype": "float32"}, {"name": "batch_normalization_39/beta", "shape": [576], "dtype": "float32"}, {"name": "batch_normalization_39/moving_mean", "shape": [576], "dtype": "float32"}, {"name": "batch_normalization_39/moving_variance", "shape": [576], "dtype": "float32"}, {"name": "batch_normalization_4/gamma", "shape": [96], "dtype": "float32"}, {"name": "batch_normalization_4/beta", "shape": [96], "dtype": "float32"}, {"name": "batch_normalization_4/moving_mean", "shape": [96], "dtype": "float32"}, {"name": "batch_normalization_4/moving_variance", "shape": [96], "dtype": "float32"}, {"name": "batch_normalization_40/gamma", "shape": [576], "dtype": "float32"}, {"name": "batch_normalization_40/beta", "shape": [576], "dtype": "float32"}, {"name": "batch_normalization_40/moving_mean", "shape": [576], "dtype": "float32"}, {"name": "batch_normalization_40/moving_variance", "shape": [576], "dtype": "float32"}, {"name": "batch_normalization_41/gamma", "shape": [160], "dtype": "float32"}, {"name": "batch_normalization_41/beta", "shape": [160], "dtype": "float32"}, {"name": "batch_normalization_41/moving_mean", "shape": [160], "dtype": "float32"}, {"name": "batch_normalization_41/moving_variance", "shape": [160], "dtype": "float32"}, {"name": "batch_normalization_42/gamma", "shape": [960], "dtype": "float32"}, {"name": "batch_normalization_42/beta", "shape": [960], "dtype": "float32"}, {"name": "batch_normalization_42/moving_mean", "shape": [960], "dtype": "float32"}, {"name": "batch_normalization_42/moving_variance", "shape": [960], "dtype": "float32"}, {"name": "batch_normalization_43/gamma", "shape": [960], "dtype": "float32"}, {"name": "batch_normalization_43/beta", "shape": [960], "dtype": "float32"}, {"name": "batch_normalization_43/moving_mean", "shape": [960], "dtype": "float32"}, {"name": "batch_normalization_43/moving_variance", "shape": [960], "dtype": "float32"}, {"name": "batch_normalization_44/gamma", "shape": [160], "dtype": "float32"}, {"name": "batch_normalization_44/beta", "shape": [160], "dtype": "float32"}, {"name": "batch_normalization_44/moving_mean", "shape": [160], "dtype": "float32"}, {"name": "batch_normalization_44/moving_variance", "shape": [160], "dtype": "float32"}, {"name": "batch_normalization_45/gamma", "shape": [960], "dtype": "float32"}, {"name": "batch_normalization_45/beta", "shape": [960], "dtype": "float32"}, {"name": "batch_normalization_45/moving_mean", "shape": [960], "dtype": "float32"}, {"name": "batch_normalization_45/moving_variance", "shape": [960], "dtype": "float32"}, {"name": "batch_normalization_46/gamma", "shape": [960], "dtype": "float32"}, {"name": "batch_normalization_46/beta", "shape": [960], "dtype": "float32"}, {"name": "batch_normalization_46/moving_mean", "shape": [960], "dtype": "float32"}, {"name": "batch_normalization_46/moving_variance", "shape": [960], "dtype": "float32"}, {"name": "batch_normalization_47/gamma", "shape": [160], "dtype": "float32"}, {"name": "batch_normalization_47/beta", "shape": [160], "dtype": "float32"}, {"name": "batch_normalization_47/moving_mean", "shape": [160], "dtype": "float32"}, {"name": "batch_normalization_47/moving_variance", "shape": [160], "dtype": "float32"}, {"name": "batch_normalization_48/gamma", "shape": [960], "dtype": "float32"}, {"name": "batch_normalization_48/beta", "shape": [960], "dtype": "float32"}, {"name": "batch_normalization_48/moving_mean", "shape": [960], "dtype": "float32"}, {"name": "batch_normalization_48/moving_variance", "shape": [960], "dtype": "float32"}, {"name": "batch_normalization_49/gamma", "shape": [960], "dtype": "float32"}, {"name": "batch_normalization_49/beta", "shape": [960], "dtype": "float32"}, {"name": "batch_normalization_49/moving_mean", "shape": [960], "dtype": "float32"}, {"name": "batch_normalization_49/moving_variance", "shape": [960], "dtype": "float32"}, {"name": "batch_normalization_5/gamma", "shape": [24], "dtype": "float32"}, {"name": "batch_normalization_5/beta", "shape": [24], "dtype": "float32"}, {"name": "batch_normalization_5/moving_mean", "shape": [24], "dtype": "float32"}, {"name": "batch_normalization_5/moving_variance", "shape": [24], "dtype": "float32"}, {"name": "batch_normalization_50/gamma", "shape": [320], "dtype": "float32"}, {"name": "batch_normalization_50/beta", "shape": [320], "dtype": "float32"}, {"name": "batch_normalization_50/moving_mean", "shape": [320], "dtype": "float32"}, {"name": "batch_normalization_50/moving_variance", "shape": [320], "dtype": "float32"}, {"name": "batch_normalization_51/gamma", "shape": [1280], "dtype": "float32"}, {"name": "batch_normalization_51/beta", "shape": [1280], "dtype": "float32"}, {"name": "batch_normalization_51/moving_mean", "shape": [1280], "dtype": "float32"}, {"name": "batch_normalization_51/moving_variance", "shape": [1280], "dtype": "float32"}, {"name": "batch_normalization_6/gamma", "shape": [144], "dtype": "float32"}, {"name": "batch_normalization_6/beta", "shape": [144], "dtype": "float32"}, {"name": "batch_normalization_6/moving_mean", "shape": [144], "dtype": "float32"}, {"name": "batch_normalization_6/moving_variance", "shape": [144], "dtype": "float32"}, {"name": "batch_normalization_7/gamma", "shape": [144], "dtype": "float32"}, {"name": "batch_normalization_7/beta", "shape": [144], "dtype": "float32"}, {"name": "batch_normalization_7/moving_mean", "shape": [144], "dtype": "float32"}, {"name": "batch_normalization_7/moving_variance", "shape": [144], "dtype": "float32"}, {"name": "batch_normalization_8/gamma", "shape": [24], "dtype": "float32"}, {"name": "batch_normalization_8/beta", "shape": [24], "dtype": "float32"}, {"name": "batch_normalization_8/moving_mean", "shape": [24], "dtype": "float32"}, {"name": "batch_normalization_8/moving_variance", "shape": [24], "dtype": "float32"}, {"name": "batch_normalization_9/gamma", "shape": [144], "dtype": "float32"}, {"name": "batch_normalization_9/beta", "shape": [144], "dtype": "float32"}, {"name": "batch_normalization_9/moving_mean", "shape": [144], "dtype": "float32"}, {"name": "batch_normalization_9/moving_variance", "shape": [144], "dtype": "float32"}, {"name": "conv2d/kernel", "shape": [3, 3, 1, 32], "dtype": "float32"}, {"name": "conv2d_1/kernel", "shape": [3, 3, 1, 32], "dtype": "float32"}, {"name": "conv2d_10/kernel", "shape": [3, 3, 1, 144], "dtype": "float32"}, {"name": "conv2d_11/kernel", "shape": [1, 1, 144, 32], "dtype": "float32"}, {"name": "conv2d_12/kernel", "shape": [1, 1, 32, 192], "dtype": "float32"}, {"name": "conv2d_13/kernel", "shape": [3, 3, 1, 192], "dtype": "float32"}, {"name": "conv2d_14/kernel", "shape": [1, 1, 192, 32], "dtype": "float32"}, {"name": "conv2d_15/kernel", "shape": [1, 1, 32, 192], "dtype": "float32"}, {"name": "conv2d_16/kernel", "shape": [3, 3, 1, 192], "dtype": "float32"}, {"name": "conv2d_17/kernel", "shape": [1, 1, 192, 32], "dtype": "float32"}, {"name": "conv2d_18/kernel", "shape": [1, 1, 32, 192], "dtype": "float32"}, {"name": "conv2d_19/kernel", "shape": [3, 3, 1, 192], "dtype": "float32"}, {"name": "conv2d_2/kernel", "shape": [1, 1, 32, 16], "dtype": "float32"}, {"name": "conv2d_20/kernel", "shape": [1, 1, 192, 64], "dtype": "float32"}, {"name": "conv2d_21/kernel", "shape": [1, 1, 64, 384], "dtype": "float32"}, {"name": "conv2d_22/kernel", "shape": [3, 3, 1, 384], "dtype": "float32"}, {"name": "conv2d_23/kernel", "shape": [1, 1, 384, 64], "dtype": "float32"}, {"name": "conv2d_24/kernel", "shape": [1, 1, 64, 384], "dtype": "float32"}, {"name": "conv2d_25/kernel", "shape": [3, 3, 1, 384], "dtype": "float32"}, {"name": "conv2d_26/kernel", "shape": [1, 1, 384, 64], "dtype": "float32"}, {"name": "conv2d_27/kernel", "shape": [1, 1, 64, 384], "dtype": "float32"}, {"name": "conv2d_28/kernel", "shape": [3, 3, 1, 384], "dtype": "float32"}, {"name": "conv2d_29/kernel", "shape": [1, 1, 384, 64], "dtype": "float32"}, {"name": "conv2d_3/kernel", "shape": [1, 1, 16, 96], "dtype": "float32"}, {"name": "conv2d_30/kernel", "shape": [1, 1, 64, 384], "dtype": "float32"}, {"name": "conv2d_31/kernel", "shape": [3, 3, 1, 384], "dtype": "float32"}, {"name": "conv2d_32/kernel", "shape": [1, 1, 384, 96], "dtype": "float32"}, {"name": "conv2d_33/kernel", "shape": [1, 1, 96, 576], "dtype": "float32"}, {"name": "conv2d_34/kernel", "shape": [3, 3, 1, 576], "dtype": "float32"}, {"name": "conv2d_35/kernel", "shape": [1, 1, 576, 96], "dtype": "float32"}, {"name": "conv2d_36/kernel", "shape": [1, 1, 96, 576], "dtype": "float32"}, {"name": "conv2d_37/kernel", "shape": [3, 3, 1, 576], "dtype": "float32"}, {"name": "conv2d_38/kernel", "shape": [1, 1, 576, 96], "dtype": "float32"}, {"name": "conv2d_39/kernel", "shape": [1, 1, 96, 576], "dtype": "float32"}, {"name": "conv2d_4/kernel", "shape": [3, 3, 1, 96], "dtype": "float32"}, {"name": "conv2d_40/kernel", "shape": [3, 3, 1, 576], "dtype": "float32"}, {"name": "conv2d_41/kernel", "shape": [1, 1, 576, 160], "dtype": "float32"}, {"name": "conv2d_42/kernel", "shape": [1, 1, 160, 960], "dtype": "float32"}, {"name": "conv2d_43/kernel", "shape": [3, 3, 1, 960], "dtype": "float32"}, {"name": "conv2d_44/kernel", "shape": [1, 1, 960, 160], "dtype": "float32"}, {"name": "conv2d_45/kernel", "shape": [1, 1, 160, 960], "dtype": "float32"}, {"name": "conv2d_46/kernel", "shape": [3, 3, 1, 960], "dtype": "float32"}, {"name": "conv2d_47/kernel", "shape": [1, 1, 960, 160], "dtype": "float32"}, {"name": "conv2d_48/kernel", "shape": [1, 1, 160, 960], "dtype": "float32"}, {"name": "conv2d_49/kernel", "shape": [3, 3, 1, 960], "dtype": "float32"}, {"name": "conv2d_5/kernel", "shape": [1, 1, 96, 24], "dtype": "float32"}, {"name": "conv2d_50/kernel", "shape": [1, 1, 960, 320], "dtype": "float32"}, {"name": "conv2d_51/kernel", "shape": [1, 1, 320, 1280], "dtype": "float32"}, {"name": "conv2d_52/kernel", "shape": [1, 1, 1280, 256], "dtype": "float32"}, {"name": "conv2d_52/bias", "shape": [256], "dtype": "float32"}, {"name": "conv2d_53/kernel", "shape": [1, 1, 96, 256], "dtype": "float32"}, {"name": "conv2d_53/bias", "shape": [256], "dtype": "float32"}, {"name": "conv2d_54/kernel", "shape": [1, 1, 32, 256], "dtype": "float32"}, {"name": "conv2d_54/bias", "shape": [256], "dtype": "float32"}, {"name": "conv2d_55/kernel", "shape": [1, 1, 24, 256], "dtype": "float32"}, {"name": "conv2d_55/bias", "shape": [256], "dtype": "float32"}, {"name": "conv2d_56/kernel", "shape": [3, 3, 256, 128], "dtype": "float32"}, {"name": "conv2d_57/kernel", "shape": [3, 3, 128, 128], "dtype": "float32"}, {"name": "conv2d_58/kernel", "shape": [3, 3, 128, 128], "dtype": "float32"}, {"name": "conv2d_59/kernel", "shape": [3, 3, 256, 128], "dtype": "float32"}, {"name": "conv2d_6/kernel", "shape": [1, 1, 24, 144], "dtype": "float32"}, {"name": "conv2d_60/kernel", "shape": [3, 3, 128, 128], "dtype": "float32"}, {"name": "conv2d_61/kernel", "shape": [3, 3, 256, 128], "dtype": "float32"}, {"name": "conv2d_62/kernel", "shape": [3, 3, 256, 128], "dtype": "float32"}, {"name": "conv2d_63/kernel", "shape": [1, 1, 128, 1], "dtype": "float32"}, {"name": "conv2d_63/bias", "shape": [1], "dtype": "float32"}, {"name": "conv2d_7/kernel", "shape": [3, 3, 1, 144], "dtype": "float32"}, {"name": "conv2d_8/kernel", "shape": [1, 1, 144, 24], "dtype": "float32"}, {"name": "conv2d_9/kernel", "shape": [1, 1, 24, 144], "dtype": "float32"}, {"name": "group_normalization/gamma", "shape": [128], "dtype": "float32"}, {"name": "group_normalization/beta", "shape": [128], "dtype": "float32"}, {"name": "group_normalization_1/gamma", "shape": [128], "dtype": "float32"}, {"name": "group_normalization_1/beta", "shape": [128], "dtype": "float32"}, {"name": "group_normalization_2/gamma", "shape": [128], "dtype": "float32"}, {"name": "group_normalization_2/beta", "shape": [128], "dtype": "float32"}, {"name": "group_normalization_3/gamma", "shape": [128], "dtype": "float32"}, {"name": "group_normalization_3/beta", "shape": [128], "dtype": "float32"}, {"name": "group_normalization_4/gamma", "shape": [128], "dtype": "float32"}, {"name": "group_normalization_4/beta", "shape": [128], "dtype": "float32"}, {"name": "group_normalization_5/gamma", "shape": [128], "dtype": "float32"}, {"name": "group_normalization_5/beta", "shape": [128], "dtype": "float32"}, {"name": "group_normalization_6/gamma", "shape": [128], "dtype": "float32"}, {"name": "group_normalization_6/beta", "shape": [128], "dtype": "float32"}]}]}