{"format": "layers-model", "generatedBy": "keras v2.14.0", "convertedBy": "TensorFlow.js Converter v4.12.0", "modelTopology": {"keras_version": "2.14.0", "backend": "tensorflow", "model_config": {"class_name": "Functional", "config": {"name": "model_1", "trainable": true, "layers": [{"class_name": "InputLayer", "config": {"batch_input_shape": [1, 512, 512, 1], "dtype": "float32", "sparse": false, "ragged": false, "name": "input_2"}, "name": "input_2", "inbound_nodes": []}, {"class_name": "ZeroPadding2D", "config": {"name": "zero_padding2d_25", "trainable": true, "dtype": "float32", "padding": [[1, 1], [1, 1]], "data_format": "channels_last"}, "name": "zero_padding2d_25", "inbound_nodes": [[["input_2", 0, 0, {}]]]}, {"class_name": "Conv2D", "config": {"name": "conv2d_64", "trainable": true, "dtype": "float32", "filters": 32, "kernel_size": [3, 3], "strides": [2, 2], "padding": "valid", "data_format": "channels_last", "dilation_rate": [1, 1], "groups": 1, "activation": "linear", "use_bias": false, "kernel_initializer": {"module": "keras.initializers", "class_name": "GlorotUniform", "config": {"seed": null}, "registered_name": null}, "bias_initializer": {"module": "keras.initializers", "class_name": "Zeros", "config": {}, "registered_name": null}, "kernel_regularizer": null, "bias_regularizer": null, "activity_regularizer": null, "kernel_constraint": null, "bias_constraint": null}, "name": "conv2d_64", "inbound_nodes": [[["zero_padding2d_25", 0, 0, {}]]]}, {"class_name": "BatchNormalization", "config": {"name": "batch_normalization_52", "trainable": true, "dtype": "float32", "axis": [3], "momentum": 0.9, "epsilon": 1e-05, "center": true, "scale": true, "beta_initializer": {"module": "keras.initializers", "class_name": "Zeros", "config": {}, "registered_name": null}, "gamma_initializer": {"module": "keras.initializers", "class_name": "Ones", "config": {}, "registered_name": null}, "moving_mean_initializer": {"module": "keras.initializers", "class_name": "Zeros", "config": {}, "registered_name": null}, "moving_variance_initializer": {"module": "keras.initializers", "class_name": "Ones", "config": {}, "registered_name": null}, "beta_regularizer": null, "gamma_regularizer": null, "beta_constraint": null, "gamma_constraint": null}, "name": "batch_normalization_52", "inbound_nodes": [[["conv2d_64", 0, 0, {}]]]}, {"class_name": "TFOpLambda", "config": {"name": "tf.clip_by_value_35", "trainable": true, "dtype": "float32", "function": "clip_by_value"}, "name": "tf.clip_by_value_35", "inbound_nodes": [["batch_normalization_52", 0, 0, {"clip_value_min": 0.0, "clip_value_max": 6.0}]]}, {"class_name": "ZeroPadding2D", "config": {"name": "zero_padding2d_26", "trainable": true, "dtype": "float32", "padding": [[1, 1], [1, 1]], "data_format": "channels_last"}, "name": "zero_padding2d_26", "inbound_nodes": [[["tf.clip_by_value_35", 0, 0, {}]]]}, {"class_name": "Conv2D", "config": {"name": "conv2d_65", "trainable": true, "dtype": "float32", "filters": 32, "kernel_size": [3, 3], "strides": [1, 1], "padding": "valid", "data_format": "channels_last", "dilation_rate": [1, 1], "groups": 32, "activation": "linear", "use_bias": false, "kernel_initializer": {"module": "keras.initializers", "class_name": "GlorotUniform", "config": {"seed": null}, "registered_name": null}, "bias_initializer": {"module": "keras.initializers", "class_name": "Zeros", "config": {}, "registered_name": null}, "kernel_regularizer": null, "bias_regularizer": null, "activity_regularizer": null, "kernel_constraint": null, "bias_constraint": null}, "name": "conv2d_65", "inbound_nodes": [[["zero_padding2d_26", 0, 0, {}]]]}, {"class_name": "BatchNormalization", "config": {"name": "batch_normalization_53", "trainable": true, "dtype": "float32", "axis": [3], "momentum": 0.9, "epsilon": 1e-05, "center": true, "scale": true, "beta_initializer": {"module": "keras.initializers", "class_name": "Zeros", "config": {}, "registered_name": null}, "gamma_initializer": {"module": "keras.initializers", "class_name": "Ones", "config": {}, "registered_name": null}, "moving_mean_initializer": {"module": "keras.initializers", "class_name": "Zeros", "config": {}, "registered_name": null}, "moving_variance_initializer": {"module": "keras.initializers", "class_name": "Ones", "config": {}, "registered_name": null}, "beta_regularizer": null, "gamma_regularizer": null, "beta_constraint": null, "gamma_constraint": null}, "name": "batch_normalization_53", "inbound_nodes": [[["conv2d_65", 0, 0, {}]]]}, {"class_name": "TFOpLambda", "config": {"name": "tf.clip_by_value_36", "trainable": true, "dtype": "float32", "function": "clip_by_value"}, "name": "tf.clip_by_value_36", "inbound_nodes": [["batch_normalization_53", 0, 0, {"clip_value_min": 0.0, "clip_value_max": 6.0}]]}, {"class_name": "Conv2D", "config": {"name": "conv2d_66", "trainable": true, "dtype": "float32", "filters": 16, "kernel_size": [1, 1], "strides": [1, 1], "padding": "valid", "data_format": "channels_last", "dilation_rate": [1, 1], "groups": 1, "activation": "linear", "use_bias": false, "kernel_initializer": {"module": "keras.initializers", "class_name": "GlorotUniform", "config": {"seed": null}, "registered_name": null}, "bias_initializer": {"module": "keras.initializers", "class_name": "Zeros", "config": {}, "registered_name": null}, "kernel_regularizer": null, "bias_regularizer": null, "activity_regularizer": null, "kernel_constraint": null, "bias_constraint": null}, "name": "conv2d_66", "inbound_nodes": [[["tf.clip_by_value_36", 0, 0, {}]]]}, {"class_name": "BatchNormalization", "config": {"name": "batch_normalization_54", "trainable": true, "dtype": "float32", "axis": [3], "momentum": 0.9, "epsilon": 1e-05, "center": true, "scale": true, "beta_initializer": {"module": "keras.initializers", "class_name": "Zeros", "config": {}, "registered_name": null}, "gamma_initializer": {"module": "keras.initializers", "class_name": "Ones", "config": {}, "registered_name": null}, "moving_mean_initializer": {"module": "keras.initializers", "class_name": "Zeros", "config": {}, "registered_name": null}, "moving_variance_initializer": {"module": "keras.initializers", "class_name": "Ones", "config": {}, "registered_name": null}, "beta_regularizer": null, "gamma_regularizer": null, "beta_constraint": null, "gamma_constraint": null}, "name": "batch_normalization_54", "inbound_nodes": [[["conv2d_66", 0, 0, {}]]]}, {"class_name": "Conv2D", "config": {"name": "conv2d_67", "trainable": true, "dtype": "float32", "filters": 96, "kernel_size": [1, 1], "strides": [1, 1], "padding": "valid", "data_format": "channels_last", "dilation_rate": [1, 1], "groups": 1, "activation": "linear", "use_bias": false, "kernel_initializer": {"module": "keras.initializers", "class_name": "GlorotUniform", "config": {"seed": null}, "registered_name": null}, "bias_initializer": {"module": "keras.initializers", "class_name": "Zeros", "config": {}, "registered_name": null}, "kernel_regularizer": null, "bias_regularizer": null, "activity_regularizer": null, "kernel_constraint": null, "bias_constraint": null}, "name": "conv2d_67", "inbound_nodes": [[["batch_normalization_54", 0, 0, {}]]]}, {"class_name": "BatchNormalization", "config": {"name": "batch_normalization_55", "trainable": true, "dtype": "float32", "axis": [3], "momentum": 0.9, "epsilon": 1e-05, "center": true, "scale": true, "beta_initializer": {"module": "keras.initializers", "class_name": "Zeros", "config": {}, "registered_name": null}, "gamma_initializer": {"module": "keras.initializers", "class_name": "Ones", "config": {}, "registered_name": null}, "moving_mean_initializer": {"module": "keras.initializers", "class_name": "Zeros", "config": {}, "registered_name": null}, "moving_variance_initializer": {"module": "keras.initializers", "class_name": "Ones", "config": {}, "registered_name": null}, "beta_regularizer": null, "gamma_regularizer": null, "beta_constraint": null, "gamma_constraint": null}, "name": "batch_normalization_55", "inbound_nodes": [[["conv2d_67", 0, 0, {}]]]}, {"class_name": "TFOpLambda", "config": {"name": "tf.clip_by_value_37", "trainable": true, "dtype": "float32", "function": "clip_by_value"}, "name": "tf.clip_by_value_37", "inbound_nodes": [["batch_normalization_55", 0, 0, {"clip_value_min": 0.0, "clip_value_max": 6.0}]]}, {"class_name": "ZeroPadding2D", "config": {"name": "zero_padding2d_27", "trainable": true, "dtype": "float32", "padding": [[1, 1], [1, 1]], "data_format": "channels_last"}, "name": "zero_padding2d_27", "inbound_nodes": [[["tf.clip_by_value_37", 0, 0, {}]]]}, {"class_name": "Conv2D", "config": {"name": "conv2d_68", "trainable": true, "dtype": "float32", "filters": 96, "kernel_size": [3, 3], "strides": [2, 2], "padding": "valid", "data_format": "channels_last", "dilation_rate": [1, 1], "groups": 96, "activation": "linear", "use_bias": false, "kernel_initializer": {"module": "keras.initializers", "class_name": "GlorotUniform", "config": {"seed": null}, "registered_name": null}, "bias_initializer": {"module": "keras.initializers", "class_name": "Zeros", "config": {}, "registered_name": null}, "kernel_regularizer": null, "bias_regularizer": null, "activity_regularizer": null, "kernel_constraint": null, "bias_constraint": null}, "name": "conv2d_68", "inbound_nodes": [[["zero_padding2d_27", 0, 0, {}]]]}, {"class_name": "BatchNormalization", "config": {"name": "batch_normalization_56", "trainable": true, "dtype": "float32", "axis": [3], "momentum": 0.9, "epsilon": 1e-05, "center": true, "scale": true, "beta_initializer": {"module": "keras.initializers", "class_name": "Zeros", "config": {}, "registered_name": null}, "gamma_initializer": {"module": "keras.initializers", "class_name": "Ones", "config": {}, "registered_name": null}, "moving_mean_initializer": {"module": "keras.initializers", "class_name": "Zeros", "config": {}, "registered_name": null}, "moving_variance_initializer": {"module": "keras.initializers", "class_name": "Ones", "config": {}, "registered_name": null}, "beta_regularizer": null, "gamma_regularizer": null, "beta_constraint": null, "gamma_constraint": null}, "name": "batch_normalization_56", "inbound_nodes": [[["conv2d_68", 0, 0, {}]]]}, {"class_name": "TFOpLambda", "config": {"name": "tf.clip_by_value_38", "trainable": true, "dtype": "float32", "function": "clip_by_value"}, "name": "tf.clip_by_value_38", "inbound_nodes": [["batch_normalization_56", 0, 0, {"clip_value_min": 0.0, "clip_value_max": 6.0}]]}, {"class_name": "Conv2D", "config": {"name": "conv2d_69", "trainable": true, "dtype": "float32", "filters": 24, "kernel_size": [1, 1], "strides": [1, 1], "padding": "valid", "data_format": "channels_last", "dilation_rate": [1, 1], "groups": 1, "activation": "linear", "use_bias": false, "kernel_initializer": {"module": "keras.initializers", "class_name": "GlorotUniform", "config": {"seed": null}, "registered_name": null}, "bias_initializer": {"module": "keras.initializers", "class_name": "Zeros", "config": {}, "registered_name": null}, "kernel_regularizer": null, "bias_regularizer": null, "activity_regularizer": null, "kernel_constraint": null, "bias_constraint": null}, "name": "conv2d_69", "inbound_nodes": [[["tf.clip_by_value_38", 0, 0, {}]]]}, {"class_name": "BatchNormalization", "config": {"name": "batch_normalization_57", "trainable": true, "dtype": "float32", "axis": [3], "momentum": 0.9, "epsilon": 1e-05, "center": true, "scale": true, "beta_initializer": {"module": "keras.initializers", "class_name": "Zeros", "config": {}, "registered_name": null}, "gamma_initializer": {"module": "keras.initializers", "class_name": "Ones", "config": {}, "registered_name": null}, "moving_mean_initializer": {"module": "keras.initializers", "class_name": "Zeros", "config": {}, "registered_name": null}, "moving_variance_initializer": {"module": "keras.initializers", "class_name": "Ones", "config": {}, "registered_name": null}, "beta_regularizer": null, "gamma_regularizer": null, "beta_constraint": null, "gamma_constraint": null}, "name": "batch_normalization_57", "inbound_nodes": [[["conv2d_69", 0, 0, {}]]]}, {"class_name": "Conv2D", "config": {"name": "conv2d_70", "trainable": true, "dtype": "float32", "filters": 144, "kernel_size": [1, 1], "strides": [1, 1], "padding": "valid", "data_format": "channels_last", "dilation_rate": [1, 1], "groups": 1, "activation": "linear", "use_bias": false, "kernel_initializer": {"module": "keras.initializers", "class_name": "GlorotUniform", "config": {"seed": null}, "registered_name": null}, "bias_initializer": {"module": "keras.initializers", "class_name": "Zeros", "config": {}, "registered_name": null}, "kernel_regularizer": null, "bias_regularizer": null, "activity_regularizer": null, "kernel_constraint": null, "bias_constraint": null}, "name": "conv2d_70", "inbound_nodes": [[["batch_normalization_57", 0, 0, {}]]]}, {"class_name": "BatchNormalization", "config": {"name": "batch_normalization_58", "trainable": true, "dtype": "float32", "axis": [3], "momentum": 0.9, "epsilon": 1e-05, "center": true, "scale": true, "beta_initializer": {"module": "keras.initializers", "class_name": "Zeros", "config": {}, "registered_name": null}, "gamma_initializer": {"module": "keras.initializers", "class_name": "Ones", "config": {}, "registered_name": null}, "moving_mean_initializer": {"module": "keras.initializers", "class_name": "Zeros", "config": {}, "registered_name": null}, "moving_variance_initializer": {"module": "keras.initializers", "class_name": "Ones", "config": {}, "registered_name": null}, "beta_regularizer": null, "gamma_regularizer": null, "beta_constraint": null, "gamma_constraint": null}, "name": "batch_normalization_58", "inbound_nodes": [[["conv2d_70", 0, 0, {}]]]}, {"class_name": "TFOpLambda", "config": {"name": "tf.clip_by_value_39", "trainable": true, "dtype": "float32", "function": "clip_by_value"}, "name": "tf.clip_by_value_39", "inbound_nodes": [["batch_normalization_58", 0, 0, {"clip_value_min": 0.0, "clip_value_max": 6.0}]]}, {"class_name": "ZeroPadding2D", "config": {"name": "zero_padding2d_28", "trainable": true, "dtype": "float32", "padding": [[1, 1], [1, 1]], "data_format": "channels_last"}, "name": "zero_padding2d_28", "inbound_nodes": [[["tf.clip_by_value_39", 0, 0, {}]]]}, {"class_name": "Conv2D", "config": {"name": "conv2d_71", "trainable": true, "dtype": "float32", "filters": 144, "kernel_size": [3, 3], "strides": [1, 1], "padding": "valid", "data_format": "channels_last", "dilation_rate": [1, 1], "groups": 144, "activation": "linear", "use_bias": false, "kernel_initializer": {"module": "keras.initializers", "class_name": "GlorotUniform", "config": {"seed": null}, "registered_name": null}, "bias_initializer": {"module": "keras.initializers", "class_name": "Zeros", "config": {}, "registered_name": null}, "kernel_regularizer": null, "bias_regularizer": null, "activity_regularizer": null, "kernel_constraint": null, "bias_constraint": null}, "name": "conv2d_71", "inbound_nodes": [[["zero_padding2d_28", 0, 0, {}]]]}, {"class_name": "BatchNormalization", "config": {"name": "batch_normalization_59", "trainable": true, "dtype": "float32", "axis": [3], "momentum": 0.9, "epsilon": 1e-05, "center": true, "scale": true, "beta_initializer": {"module": "keras.initializers", "class_name": "Zeros", "config": {}, "registered_name": null}, "gamma_initializer": {"module": "keras.initializers", "class_name": "Ones", "config": {}, "registered_name": null}, "moving_mean_initializer": {"module": "keras.initializers", "class_name": "Zeros", "config": {}, "registered_name": null}, "moving_variance_initializer": {"module": "keras.initializers", "class_name": "Ones", "config": {}, "registered_name": null}, "beta_regularizer": null, "gamma_regularizer": null, "beta_constraint": null, "gamma_constraint": null}, "name": "batch_normalization_59", "inbound_nodes": [[["conv2d_71", 0, 0, {}]]]}, {"class_name": "TFOpLambda", "config": {"name": "tf.clip_by_value_40", "trainable": true, "dtype": "float32", "function": "clip_by_value"}, "name": "tf.clip_by_value_40", "inbound_nodes": [["batch_normalization_59", 0, 0, {"clip_value_min": 0.0, "clip_value_max": 6.0}]]}, {"class_name": "Conv2D", "config": {"name": "conv2d_72", "trainable": true, "dtype": "float32", "filters": 24, "kernel_size": [1, 1], "strides": [1, 1], "padding": "valid", "data_format": "channels_last", "dilation_rate": [1, 1], "groups": 1, "activation": "linear", "use_bias": false, "kernel_initializer": {"module": "keras.initializers", "class_name": "GlorotUniform", "config": {"seed": null}, "registered_name": null}, "bias_initializer": {"module": "keras.initializers", "class_name": "Zeros", "config": {}, "registered_name": null}, "kernel_regularizer": null, "bias_regularizer": null, "activity_regularizer": null, "kernel_constraint": null, "bias_constraint": null}, "name": "conv2d_72", "inbound_nodes": [[["tf.clip_by_value_40", 0, 0, {}]]]}, {"class_name": "BatchNormalization", "config": {"name": "batch_normalization_60", "trainable": true, "dtype": "float32", "axis": [3], "momentum": 0.9, "epsilon": 1e-05, "center": true, "scale": true, "beta_initializer": {"module": "keras.initializers", "class_name": "Zeros", "config": {}, "registered_name": null}, "gamma_initializer": {"module": "keras.initializers", "class_name": "Ones", "config": {}, "registered_name": null}, "moving_mean_initializer": {"module": "keras.initializers", "class_name": "Zeros", "config": {}, "registered_name": null}, "moving_variance_initializer": {"module": "keras.initializers", "class_name": "Ones", "config": {}, "registered_name": null}, "beta_regularizer": null, "gamma_regularizer": null, "beta_constraint": null, "gamma_constraint": null}, "name": "batch_normalization_60", "inbound_nodes": [[["conv2d_72", 0, 0, {}]]]}, {"class_name": "TFOpLambda", "config": {"name": "tf.__operators__.add_16", "trainable": true, "dtype": "float32", "function": "__operators__.add"}, "name": "tf.__operators__.add_16", "inbound_nodes": [["batch_normalization_57", 0, 0, {"y": ["batch_normalization_60", 0, 0], "name": null}]]}, {"class_name": "Conv2D", "config": {"name": "conv2d_73", "trainable": true, "dtype": "float32", "filters": 144, "kernel_size": [1, 1], "strides": [1, 1], "padding": "valid", "data_format": "channels_last", "dilation_rate": [1, 1], "groups": 1, "activation": "linear", "use_bias": false, "kernel_initializer": {"module": "keras.initializers", "class_name": "GlorotUniform", "config": {"seed": null}, "registered_name": null}, "bias_initializer": {"module": "keras.initializers", "class_name": "Zeros", "config": {}, "registered_name": null}, "kernel_regularizer": null, "bias_regularizer": null, "activity_regularizer": null, "kernel_constraint": null, "bias_constraint": null}, "name": "conv2d_73", "inbound_nodes": [[["tf.__operators__.add_16", 0, 0, {}]]]}, {"class_name": "BatchNormalization", "config": {"name": "batch_normalization_61", "trainable": true, "dtype": "float32", "axis": [3], "momentum": 0.9, "epsilon": 1e-05, "center": true, "scale": true, "beta_initializer": {"module": "keras.initializers", "class_name": "Zeros", "config": {}, "registered_name": null}, "gamma_initializer": {"module": "keras.initializers", "class_name": "Ones", "config": {}, "registered_name": null}, "moving_mean_initializer": {"module": "keras.initializers", "class_name": "Zeros", "config": {}, "registered_name": null}, "moving_variance_initializer": {"module": "keras.initializers", "class_name": "Ones", "config": {}, "registered_name": null}, "beta_regularizer": null, "gamma_regularizer": null, "beta_constraint": null, "gamma_constraint": null}, "name": "batch_normalization_61", "inbound_nodes": [[["conv2d_73", 0, 0, {}]]]}, {"class_name": "TFOpLambda", "config": {"name": "tf.clip_by_value_41", "trainable": true, "dtype": "float32", "function": "clip_by_value"}, "name": "tf.clip_by_value_41", "inbound_nodes": [["batch_normalization_61", 0, 0, {"clip_value_min": 0.0, "clip_value_max": 6.0}]]}, {"class_name": "ZeroPadding2D", "config": {"name": "zero_padding2d_29", "trainable": true, "dtype": "float32", "padding": [[1, 1], [1, 1]], "data_format": "channels_last"}, "name": "zero_padding2d_29", "inbound_nodes": [[["tf.clip_by_value_41", 0, 0, {}]]]}, {"class_name": "Conv2D", "config": {"name": "conv2d_74", "trainable": true, "dtype": "float32", "filters": 144, "kernel_size": [3, 3], "strides": [2, 2], "padding": "valid", "data_format": "channels_last", "dilation_rate": [1, 1], "groups": 144, "activation": "linear", "use_bias": false, "kernel_initializer": {"module": "keras.initializers", "class_name": "GlorotUniform", "config": {"seed": null}, "registered_name": null}, "bias_initializer": {"module": "keras.initializers", "class_name": "Zeros", "config": {}, "registered_name": null}, "kernel_regularizer": null, "bias_regularizer": null, "activity_regularizer": null, "kernel_constraint": null, "bias_constraint": null}, "name": "conv2d_74", "inbound_nodes": [[["zero_padding2d_29", 0, 0, {}]]]}, {"class_name": "BatchNormalization", "config": {"name": "batch_normalization_62", "trainable": true, "dtype": "float32", "axis": [3], "momentum": 0.9, "epsilon": 1e-05, "center": true, "scale": true, "beta_initializer": {"module": "keras.initializers", "class_name": "Zeros", "config": {}, "registered_name": null}, "gamma_initializer": {"module": "keras.initializers", "class_name": "Ones", "config": {}, "registered_name": null}, "moving_mean_initializer": {"module": "keras.initializers", "class_name": "Zeros", "config": {}, "registered_name": null}, "moving_variance_initializer": {"module": "keras.initializers", "class_name": "Ones", "config": {}, "registered_name": null}, "beta_regularizer": null, "gamma_regularizer": null, "beta_constraint": null, "gamma_constraint": null}, "name": "batch_normalization_62", "inbound_nodes": [[["conv2d_74", 0, 0, {}]]]}, {"class_name": "TFOpLambda", "config": {"name": "tf.clip_by_value_42", "trainable": true, "dtype": "float32", "function": "clip_by_value"}, "name": "tf.clip_by_value_42", "inbound_nodes": [["batch_normalization_62", 0, 0, {"clip_value_min": 0.0, "clip_value_max": 6.0}]]}, {"class_name": "Conv2D", "config": {"name": "conv2d_75", "trainable": true, "dtype": "float32", "filters": 32, "kernel_size": [1, 1], "strides": [1, 1], "padding": "valid", "data_format": "channels_last", "dilation_rate": [1, 1], "groups": 1, "activation": "linear", "use_bias": false, "kernel_initializer": {"module": "keras.initializers", "class_name": "GlorotUniform", "config": {"seed": null}, "registered_name": null}, "bias_initializer": {"module": "keras.initializers", "class_name": "Zeros", "config": {}, "registered_name": null}, "kernel_regularizer": null, "bias_regularizer": null, "activity_regularizer": null, "kernel_constraint": null, "bias_constraint": null}, "name": "conv2d_75", "inbound_nodes": [[["tf.clip_by_value_42", 0, 0, {}]]]}, {"class_name": "BatchNormalization", "config": {"name": "batch_normalization_63", "trainable": true, "dtype": "float32", "axis": [3], "momentum": 0.9, "epsilon": 1e-05, "center": true, "scale": true, "beta_initializer": {"module": "keras.initializers", "class_name": "Zeros", "config": {}, "registered_name": null}, "gamma_initializer": {"module": "keras.initializers", "class_name": "Ones", "config": {}, "registered_name": null}, "moving_mean_initializer": {"module": "keras.initializers", "class_name": "Zeros", "config": {}, "registered_name": null}, "moving_variance_initializer": {"module": "keras.initializers", "class_name": "Ones", "config": {}, "registered_name": null}, "beta_regularizer": null, "gamma_regularizer": null, "beta_constraint": null, "gamma_constraint": null}, "name": "batch_normalization_63", "inbound_nodes": [[["conv2d_75", 0, 0, {}]]]}, {"class_name": "Conv2D", "config": {"name": "conv2d_76", "trainable": true, "dtype": "float32", "filters": 192, "kernel_size": [1, 1], "strides": [1, 1], "padding": "valid", "data_format": "channels_last", "dilation_rate": [1, 1], "groups": 1, "activation": "linear", "use_bias": false, "kernel_initializer": {"module": "keras.initializers", "class_name": "GlorotUniform", "config": {"seed": null}, "registered_name": null}, "bias_initializer": {"module": "keras.initializers", "class_name": "Zeros", "config": {}, "registered_name": null}, "kernel_regularizer": null, "bias_regularizer": null, "activity_regularizer": null, "kernel_constraint": null, "bias_constraint": null}, "name": "conv2d_76", "inbound_nodes": [[["batch_normalization_63", 0, 0, {}]]]}, {"class_name": "BatchNormalization", "config": {"name": "batch_normalization_64", "trainable": true, "dtype": "float32", "axis": [3], "momentum": 0.9, "epsilon": 1e-05, "center": true, "scale": true, "beta_initializer": {"module": "keras.initializers", "class_name": "Zeros", "config": {}, "registered_name": null}, "gamma_initializer": {"module": "keras.initializers", "class_name": "Ones", "config": {}, "registered_name": null}, "moving_mean_initializer": {"module": "keras.initializers", "class_name": "Zeros", "config": {}, "registered_name": null}, "moving_variance_initializer": {"module": "keras.initializers", "class_name": "Ones", "config": {}, "registered_name": null}, "beta_regularizer": null, "gamma_regularizer": null, "beta_constraint": null, "gamma_constraint": null}, "name": "batch_normalization_64", "inbound_nodes": [[["conv2d_76", 0, 0, {}]]]}, {"class_name": "TFOpLambda", "config": {"name": "tf.clip_by_value_43", "trainable": true, "dtype": "float32", "function": "clip_by_value"}, "name": "tf.clip_by_value_43", "inbound_nodes": [["batch_normalization_64", 0, 0, {"clip_value_min": 0.0, "clip_value_max": 6.0}]]}, {"class_name": "ZeroPadding2D", "config": {"name": "zero_padding2d_30", "trainable": true, "dtype": "float32", "padding": [[1, 1], [1, 1]], "data_format": "channels_last"}, "name": "zero_padding2d_30", "inbound_nodes": [[["tf.clip_by_value_43", 0, 0, {}]]]}, {"class_name": "Conv2D", "config": {"name": "conv2d_77", "trainable": true, "dtype": "float32", "filters": 192, "kernel_size": [3, 3], "strides": [1, 1], "padding": "valid", "data_format": "channels_last", "dilation_rate": [1, 1], "groups": 192, "activation": "linear", "use_bias": false, "kernel_initializer": {"module": "keras.initializers", "class_name": "GlorotUniform", "config": {"seed": null}, "registered_name": null}, "bias_initializer": {"module": "keras.initializers", "class_name": "Zeros", "config": {}, "registered_name": null}, "kernel_regularizer": null, "bias_regularizer": null, "activity_regularizer": null, "kernel_constraint": null, "bias_constraint": null}, "name": "conv2d_77", "inbound_nodes": [[["zero_padding2d_30", 0, 0, {}]]]}, {"class_name": "BatchNormalization", "config": {"name": "batch_normalization_65", "trainable": true, "dtype": "float32", "axis": [3], "momentum": 0.9, "epsilon": 1e-05, "center": true, "scale": true, "beta_initializer": {"module": "keras.initializers", "class_name": "Zeros", "config": {}, "registered_name": null}, "gamma_initializer": {"module": "keras.initializers", "class_name": "Ones", "config": {}, "registered_name": null}, "moving_mean_initializer": {"module": "keras.initializers", "class_name": "Zeros", "config": {}, "registered_name": null}, "moving_variance_initializer": {"module": "keras.initializers", "class_name": "Ones", "config": {}, "registered_name": null}, "beta_regularizer": null, "gamma_regularizer": null, "beta_constraint": null, "gamma_constraint": null}, "name": "batch_normalization_65", "inbound_nodes": [[["conv2d_77", 0, 0, {}]]]}, {"class_name": "TFOpLambda", "config": {"name": "tf.clip_by_value_44", "trainable": true, "dtype": "float32", "function": "clip_by_value"}, "name": "tf.clip_by_value_44", "inbound_nodes": [["batch_normalization_65", 0, 0, {"clip_value_min": 0.0, "clip_value_max": 6.0}]]}, {"class_name": "Conv2D", "config": {"name": "conv2d_78", "trainable": true, "dtype": "float32", "filters": 32, "kernel_size": [1, 1], "strides": [1, 1], "padding": "valid", "data_format": "channels_last", "dilation_rate": [1, 1], "groups": 1, "activation": "linear", "use_bias": false, "kernel_initializer": {"module": "keras.initializers", "class_name": "GlorotUniform", "config": {"seed": null}, "registered_name": null}, "bias_initializer": {"module": "keras.initializers", "class_name": "Zeros", "config": {}, "registered_name": null}, "kernel_regularizer": null, "bias_regularizer": null, "activity_regularizer": null, "kernel_constraint": null, "bias_constraint": null}, "name": "conv2d_78", "inbound_nodes": [[["tf.clip_by_value_44", 0, 0, {}]]]}, {"class_name": "BatchNormalization", "config": {"name": "batch_normalization_66", "trainable": true, "dtype": "float32", "axis": [3], "momentum": 0.9, "epsilon": 1e-05, "center": true, "scale": true, "beta_initializer": {"module": "keras.initializers", "class_name": "Zeros", "config": {}, "registered_name": null}, "gamma_initializer": {"module": "keras.initializers", "class_name": "Ones", "config": {}, "registered_name": null}, "moving_mean_initializer": {"module": "keras.initializers", "class_name": "Zeros", "config": {}, "registered_name": null}, "moving_variance_initializer": {"module": "keras.initializers", "class_name": "Ones", "config": {}, "registered_name": null}, "beta_regularizer": null, "gamma_regularizer": null, "beta_constraint": null, "gamma_constraint": null}, "name": "batch_normalization_66", "inbound_nodes": [[["conv2d_78", 0, 0, {}]]]}, {"class_name": "TFOpLambda", "config": {"name": "tf.__operators__.add_17", "trainable": true, "dtype": "float32", "function": "__operators__.add"}, "name": "tf.__operators__.add_17", "inbound_nodes": [["batch_normalization_63", 0, 0, {"y": ["batch_normalization_66", 0, 0], "name": null}]]}, {"class_name": "Conv2D", "config": {"name": "conv2d_79", "trainable": true, "dtype": "float32", "filters": 192, "kernel_size": [1, 1], "strides": [1, 1], "padding": "valid", "data_format": "channels_last", "dilation_rate": [1, 1], "groups": 1, "activation": "linear", "use_bias": false, "kernel_initializer": {"module": "keras.initializers", "class_name": "GlorotUniform", "config": {"seed": null}, "registered_name": null}, "bias_initializer": {"module": "keras.initializers", "class_name": "Zeros", "config": {}, "registered_name": null}, "kernel_regularizer": null, "bias_regularizer": null, "activity_regularizer": null, "kernel_constraint": null, "bias_constraint": null}, "name": "conv2d_79", "inbound_nodes": [[["tf.__operators__.add_17", 0, 0, {}]]]}, {"class_name": "BatchNormalization", "config": {"name": "batch_normalization_67", "trainable": true, "dtype": "float32", "axis": [3], "momentum": 0.9, "epsilon": 1e-05, "center": true, "scale": true, "beta_initializer": {"module": "keras.initializers", "class_name": "Zeros", "config": {}, "registered_name": null}, "gamma_initializer": {"module": "keras.initializers", "class_name": "Ones", "config": {}, "registered_name": null}, "moving_mean_initializer": {"module": "keras.initializers", "class_name": "Zeros", "config": {}, "registered_name": null}, "moving_variance_initializer": {"module": "keras.initializers", "class_name": "Ones", "config": {}, "registered_name": null}, "beta_regularizer": null, "gamma_regularizer": null, "beta_constraint": null, "gamma_constraint": null}, "name": "batch_normalization_67", "inbound_nodes": [[["conv2d_79", 0, 0, {}]]]}, {"class_name": "TFOpLambda", "config": {"name": "tf.clip_by_value_45", "trainable": true, "dtype": "float32", "function": "clip_by_value"}, "name": "tf.clip_by_value_45", "inbound_nodes": [["batch_normalization_67", 0, 0, {"clip_value_min": 0.0, "clip_value_max": 6.0}]]}, {"class_name": "ZeroPadding2D", "config": {"name": "zero_padding2d_31", "trainable": true, "dtype": "float32", "padding": [[1, 1], [1, 1]], "data_format": "channels_last"}, "name": "zero_padding2d_31", "inbound_nodes": [[["tf.clip_by_value_45", 0, 0, {}]]]}, {"class_name": "Conv2D", "config": {"name": "conv2d_80", "trainable": true, "dtype": "float32", "filters": 192, "kernel_size": [3, 3], "strides": [1, 1], "padding": "valid", "data_format": "channels_last", "dilation_rate": [1, 1], "groups": 192, "activation": "linear", "use_bias": false, "kernel_initializer": {"module": "keras.initializers", "class_name": "GlorotUniform", "config": {"seed": null}, "registered_name": null}, "bias_initializer": {"module": "keras.initializers", "class_name": "Zeros", "config": {}, "registered_name": null}, "kernel_regularizer": null, "bias_regularizer": null, "activity_regularizer": null, "kernel_constraint": null, "bias_constraint": null}, "name": "conv2d_80", "inbound_nodes": [[["zero_padding2d_31", 0, 0, {}]]]}, {"class_name": "BatchNormalization", "config": {"name": "batch_normalization_68", "trainable": true, "dtype": "float32", "axis": [3], "momentum": 0.9, "epsilon": 1e-05, "center": true, "scale": true, "beta_initializer": {"module": "keras.initializers", "class_name": "Zeros", "config": {}, "registered_name": null}, "gamma_initializer": {"module": "keras.initializers", "class_name": "Ones", "config": {}, "registered_name": null}, "moving_mean_initializer": {"module": "keras.initializers", "class_name": "Zeros", "config": {}, "registered_name": null}, "moving_variance_initializer": {"module": "keras.initializers", "class_name": "Ones", "config": {}, "registered_name": null}, "beta_regularizer": null, "gamma_regularizer": null, "beta_constraint": null, "gamma_constraint": null}, "name": "batch_normalization_68", "inbound_nodes": [[["conv2d_80", 0, 0, {}]]]}, {"class_name": "TFOpLambda", "config": {"name": "tf.clip_by_value_46", "trainable": true, "dtype": "float32", "function": "clip_by_value"}, "name": "tf.clip_by_value_46", "inbound_nodes": [["batch_normalization_68", 0, 0, {"clip_value_min": 0.0, "clip_value_max": 6.0}]]}, {"class_name": "Conv2D", "config": {"name": "conv2d_81", "trainable": true, "dtype": "float32", "filters": 32, "kernel_size": [1, 1], "strides": [1, 1], "padding": "valid", "data_format": "channels_last", "dilation_rate": [1, 1], "groups": 1, "activation": "linear", "use_bias": false, "kernel_initializer": {"module": "keras.initializers", "class_name": "GlorotUniform", "config": {"seed": null}, "registered_name": null}, "bias_initializer": {"module": "keras.initializers", "class_name": "Zeros", "config": {}, "registered_name": null}, "kernel_regularizer": null, "bias_regularizer": null, "activity_regularizer": null, "kernel_constraint": null, "bias_constraint": null}, "name": "conv2d_81", "inbound_nodes": [[["tf.clip_by_value_46", 0, 0, {}]]]}, {"class_name": "BatchNormalization", "config": {"name": "batch_normalization_69", "trainable": true, "dtype": "float32", "axis": [3], "momentum": 0.9, "epsilon": 1e-05, "center": true, "scale": true, "beta_initializer": {"module": "keras.initializers", "class_name": "Zeros", "config": {}, "registered_name": null}, "gamma_initializer": {"module": "keras.initializers", "class_name": "Ones", "config": {}, "registered_name": null}, "moving_mean_initializer": {"module": "keras.initializers", "class_name": "Zeros", "config": {}, "registered_name": null}, "moving_variance_initializer": {"module": "keras.initializers", "class_name": "Ones", "config": {}, "registered_name": null}, "beta_regularizer": null, "gamma_regularizer": null, "beta_constraint": null, "gamma_constraint": null}, "name": "batch_normalization_69", "inbound_nodes": [[["conv2d_81", 0, 0, {}]]]}, {"class_name": "TFOpLambda", "config": {"name": "tf.__operators__.add_18", "trainable": true, "dtype": "float32", "function": "__operators__.add"}, "name": "tf.__operators__.add_18", "inbound_nodes": [["tf.__operators__.add_17", 0, 0, {"y": ["batch_normalization_69", 0, 0], "name": null}]]}, {"class_name": "Conv2D", "config": {"name": "conv2d_82", "trainable": true, "dtype": "float32", "filters": 192, "kernel_size": [1, 1], "strides": [1, 1], "padding": "valid", "data_format": "channels_last", "dilation_rate": [1, 1], "groups": 1, "activation": "linear", "use_bias": false, "kernel_initializer": {"module": "keras.initializers", "class_name": "GlorotUniform", "config": {"seed": null}, "registered_name": null}, "bias_initializer": {"module": "keras.initializers", "class_name": "Zeros", "config": {}, "registered_name": null}, "kernel_regularizer": null, "bias_regularizer": null, "activity_regularizer": null, "kernel_constraint": null, "bias_constraint": null}, "name": "conv2d_82", "inbound_nodes": [[["tf.__operators__.add_18", 0, 0, {}]]]}, {"class_name": "BatchNormalization", "config": {"name": "batch_normalization_70", "trainable": true, "dtype": "float32", "axis": [3], "momentum": 0.9, "epsilon": 1e-05, "center": true, "scale": true, "beta_initializer": {"module": "keras.initializers", "class_name": "Zeros", "config": {}, "registered_name": null}, "gamma_initializer": {"module": "keras.initializers", "class_name": "Ones", "config": {}, "registered_name": null}, "moving_mean_initializer": {"module": "keras.initializers", "class_name": "Zeros", "config": {}, "registered_name": null}, "moving_variance_initializer": {"module": "keras.initializers", "class_name": "Ones", "config": {}, "registered_name": null}, "beta_regularizer": null, "gamma_regularizer": null, "beta_constraint": null, "gamma_constraint": null}, "name": "batch_normalization_70", "inbound_nodes": [[["conv2d_82", 0, 0, {}]]]}, {"class_name": "TFOpLambda", "config": {"name": "tf.clip_by_value_47", "trainable": true, "dtype": "float32", "function": "clip_by_value"}, "name": "tf.clip_by_value_47", "inbound_nodes": [["batch_normalization_70", 0, 0, {"clip_value_min": 0.0, "clip_value_max": 6.0}]]}, {"class_name": "ZeroPadding2D", "config": {"name": "zero_padding2d_32", "trainable": true, "dtype": "float32", "padding": [[1, 1], [1, 1]], "data_format": "channels_last"}, "name": "zero_padding2d_32", "inbound_nodes": [[["tf.clip_by_value_47", 0, 0, {}]]]}, {"class_name": "Conv2D", "config": {"name": "conv2d_83", "trainable": true, "dtype": "float32", "filters": 192, "kernel_size": [3, 3], "strides": [2, 2], "padding": "valid", "data_format": "channels_last", "dilation_rate": [1, 1], "groups": 192, "activation": "linear", "use_bias": false, "kernel_initializer": {"module": "keras.initializers", "class_name": "GlorotUniform", "config": {"seed": null}, "registered_name": null}, "bias_initializer": {"module": "keras.initializers", "class_name": "Zeros", "config": {}, "registered_name": null}, "kernel_regularizer": null, "bias_regularizer": null, "activity_regularizer": null, "kernel_constraint": null, "bias_constraint": null}, "name": "conv2d_83", "inbound_nodes": [[["zero_padding2d_32", 0, 0, {}]]]}, {"class_name": "BatchNormalization", "config": {"name": "batch_normalization_71", "trainable": true, "dtype": "float32", "axis": [3], "momentum": 0.9, "epsilon": 1e-05, "center": true, "scale": true, "beta_initializer": {"module": "keras.initializers", "class_name": "Zeros", "config": {}, "registered_name": null}, "gamma_initializer": {"module": "keras.initializers", "class_name": "Ones", "config": {}, "registered_name": null}, "moving_mean_initializer": {"module": "keras.initializers", "class_name": "Zeros", "config": {}, "registered_name": null}, "moving_variance_initializer": {"module": "keras.initializers", "class_name": "Ones", "config": {}, "registered_name": null}, "beta_regularizer": null, "gamma_regularizer": null, "beta_constraint": null, "gamma_constraint": null}, "name": "batch_normalization_71", "inbound_nodes": [[["conv2d_83", 0, 0, {}]]]}, {"class_name": "TFOpLambda", "config": {"name": "tf.clip_by_value_48", "trainable": true, "dtype": "float32", "function": "clip_by_value"}, "name": "tf.clip_by_value_48", "inbound_nodes": [["batch_normalization_71", 0, 0, {"clip_value_min": 0.0, "clip_value_max": 6.0}]]}, {"class_name": "Conv2D", "config": {"name": "conv2d_84", "trainable": true, "dtype": "float32", "filters": 64, "kernel_size": [1, 1], "strides": [1, 1], "padding": "valid", "data_format": "channels_last", "dilation_rate": [1, 1], "groups": 1, "activation": "linear", "use_bias": false, "kernel_initializer": {"module": "keras.initializers", "class_name": "GlorotUniform", "config": {"seed": null}, "registered_name": null}, "bias_initializer": {"module": "keras.initializers", "class_name": "Zeros", "config": {}, "registered_name": null}, "kernel_regularizer": null, "bias_regularizer": null, "activity_regularizer": null, "kernel_constraint": null, "bias_constraint": null}, "name": "conv2d_84", "inbound_nodes": [[["tf.clip_by_value_48", 0, 0, {}]]]}, {"class_name": "BatchNormalization", "config": {"name": "batch_normalization_72", "trainable": true, "dtype": "float32", "axis": [3], "momentum": 0.9, "epsilon": 1e-05, "center": true, "scale": true, "beta_initializer": {"module": "keras.initializers", "class_name": "Zeros", "config": {}, "registered_name": null}, "gamma_initializer": {"module": "keras.initializers", "class_name": "Ones", "config": {}, "registered_name": null}, "moving_mean_initializer": {"module": "keras.initializers", "class_name": "Zeros", "config": {}, "registered_name": null}, "moving_variance_initializer": {"module": "keras.initializers", "class_name": "Ones", "config": {}, "registered_name": null}, "beta_regularizer": null, "gamma_regularizer": null, "beta_constraint": null, "gamma_constraint": null}, "name": "batch_normalization_72", "inbound_nodes": [[["conv2d_84", 0, 0, {}]]]}, {"class_name": "Conv2D", "config": {"name": "conv2d_85", "trainable": true, "dtype": "float32", "filters": 384, "kernel_size": [1, 1], "strides": [1, 1], "padding": "valid", "data_format": "channels_last", "dilation_rate": [1, 1], "groups": 1, "activation": "linear", "use_bias": false, "kernel_initializer": {"module": "keras.initializers", "class_name": "GlorotUniform", "config": {"seed": null}, "registered_name": null}, "bias_initializer": {"module": "keras.initializers", "class_name": "Zeros", "config": {}, "registered_name": null}, "kernel_regularizer": null, "bias_regularizer": null, "activity_regularizer": null, "kernel_constraint": null, "bias_constraint": null}, "name": "conv2d_85", "inbound_nodes": [[["batch_normalization_72", 0, 0, {}]]]}, {"class_name": "BatchNormalization", "config": {"name": "batch_normalization_73", "trainable": true, "dtype": "float32", "axis": [3], "momentum": 0.9, "epsilon": 1e-05, "center": true, "scale": true, "beta_initializer": {"module": "keras.initializers", "class_name": "Zeros", "config": {}, "registered_name": null}, "gamma_initializer": {"module": "keras.initializers", "class_name": "Ones", "config": {}, "registered_name": null}, "moving_mean_initializer": {"module": "keras.initializers", "class_name": "Zeros", "config": {}, "registered_name": null}, "moving_variance_initializer": {"module": "keras.initializers", "class_name": "Ones", "config": {}, "registered_name": null}, "beta_regularizer": null, "gamma_regularizer": null, "beta_constraint": null, "gamma_constraint": null}, "name": "batch_normalization_73", "inbound_nodes": [[["conv2d_85", 0, 0, {}]]]}, {"class_name": "TFOpLambda", "config": {"name": "tf.clip_by_value_49", "trainable": true, "dtype": "float32", "function": "clip_by_value"}, "name": "tf.clip_by_value_49", "inbound_nodes": [["batch_normalization_73", 0, 0, {"clip_value_min": 0.0, "clip_value_max": 6.0}]]}, {"class_name": "ZeroPadding2D", "config": {"name": "zero_padding2d_33", "trainable": true, "dtype": "float32", "padding": [[1, 1], [1, 1]], "data_format": "channels_last"}, "name": "zero_padding2d_33", "inbound_nodes": [[["tf.clip_by_value_49", 0, 0, {}]]]}, {"class_name": "Conv2D", "config": {"name": "conv2d_86", "trainable": true, "dtype": "float32", "filters": 384, "kernel_size": [3, 3], "strides": [1, 1], "padding": "valid", "data_format": "channels_last", "dilation_rate": [1, 1], "groups": 384, "activation": "linear", "use_bias": false, "kernel_initializer": {"module": "keras.initializers", "class_name": "GlorotUniform", "config": {"seed": null}, "registered_name": null}, "bias_initializer": {"module": "keras.initializers", "class_name": "Zeros", "config": {}, "registered_name": null}, "kernel_regularizer": null, "bias_regularizer": null, "activity_regularizer": null, "kernel_constraint": null, "bias_constraint": null}, "name": "conv2d_86", "inbound_nodes": [[["zero_padding2d_33", 0, 0, {}]]]}, {"class_name": "BatchNormalization", "config": {"name": "batch_normalization_74", "trainable": true, "dtype": "float32", "axis": [3], "momentum": 0.9, "epsilon": 1e-05, "center": true, "scale": true, "beta_initializer": {"module": "keras.initializers", "class_name": "Zeros", "config": {}, "registered_name": null}, "gamma_initializer": {"module": "keras.initializers", "class_name": "Ones", "config": {}, "registered_name": null}, "moving_mean_initializer": {"module": "keras.initializers", "class_name": "Zeros", "config": {}, "registered_name": null}, "moving_variance_initializer": {"module": "keras.initializers", "class_name": "Ones", "config": {}, "registered_name": null}, "beta_regularizer": null, "gamma_regularizer": null, "beta_constraint": null, "gamma_constraint": null}, "name": "batch_normalization_74", "inbound_nodes": [[["conv2d_86", 0, 0, {}]]]}, {"class_name": "TFOpLambda", "config": {"name": "tf.clip_by_value_50", "trainable": true, "dtype": "float32", "function": "clip_by_value"}, "name": "tf.clip_by_value_50", "inbound_nodes": [["batch_normalization_74", 0, 0, {"clip_value_min": 0.0, "clip_value_max": 6.0}]]}, {"class_name": "Conv2D", "config": {"name": "conv2d_87", "trainable": true, "dtype": "float32", "filters": 64, "kernel_size": [1, 1], "strides": [1, 1], "padding": "valid", "data_format": "channels_last", "dilation_rate": [1, 1], "groups": 1, "activation": "linear", "use_bias": false, "kernel_initializer": {"module": "keras.initializers", "class_name": "GlorotUniform", "config": {"seed": null}, "registered_name": null}, "bias_initializer": {"module": "keras.initializers", "class_name": "Zeros", "config": {}, "registered_name": null}, "kernel_regularizer": null, "bias_regularizer": null, "activity_regularizer": null, "kernel_constraint": null, "bias_constraint": null}, "name": "conv2d_87", "inbound_nodes": [[["tf.clip_by_value_50", 0, 0, {}]]]}, {"class_name": "BatchNormalization", "config": {"name": "batch_normalization_75", "trainable": true, "dtype": "float32", "axis": [3], "momentum": 0.9, "epsilon": 1e-05, "center": true, "scale": true, "beta_initializer": {"module": "keras.initializers", "class_name": "Zeros", "config": {}, "registered_name": null}, "gamma_initializer": {"module": "keras.initializers", "class_name": "Ones", "config": {}, "registered_name": null}, "moving_mean_initializer": {"module": "keras.initializers", "class_name": "Zeros", "config": {}, "registered_name": null}, "moving_variance_initializer": {"module": "keras.initializers", "class_name": "Ones", "config": {}, "registered_name": null}, "beta_regularizer": null, "gamma_regularizer": null, "beta_constraint": null, "gamma_constraint": null}, "name": "batch_normalization_75", "inbound_nodes": [[["conv2d_87", 0, 0, {}]]]}, {"class_name": "TFOpLambda", "config": {"name": "tf.__operators__.add_19", "trainable": true, "dtype": "float32", "function": "__operators__.add"}, "name": "tf.__operators__.add_19", "inbound_nodes": [["batch_normalization_72", 0, 0, {"y": ["batch_normalization_75", 0, 0], "name": null}]]}, {"class_name": "Conv2D", "config": {"name": "conv2d_88", "trainable": true, "dtype": "float32", "filters": 384, "kernel_size": [1, 1], "strides": [1, 1], "padding": "valid", "data_format": "channels_last", "dilation_rate": [1, 1], "groups": 1, "activation": "linear", "use_bias": false, "kernel_initializer": {"module": "keras.initializers", "class_name": "GlorotUniform", "config": {"seed": null}, "registered_name": null}, "bias_initializer": {"module": "keras.initializers", "class_name": "Zeros", "config": {}, "registered_name": null}, "kernel_regularizer": null, "bias_regularizer": null, "activity_regularizer": null, "kernel_constraint": null, "bias_constraint": null}, "name": "conv2d_88", "inbound_nodes": [[["tf.__operators__.add_19", 0, 0, {}]]]}, {"class_name": "BatchNormalization", "config": {"name": "batch_normalization_76", "trainable": true, "dtype": "float32", "axis": [3], "momentum": 0.9, "epsilon": 1e-05, "center": true, "scale": true, "beta_initializer": {"module": "keras.initializers", "class_name": "Zeros", "config": {}, "registered_name": null}, "gamma_initializer": {"module": "keras.initializers", "class_name": "Ones", "config": {}, "registered_name": null}, "moving_mean_initializer": {"module": "keras.initializers", "class_name": "Zeros", "config": {}, "registered_name": null}, "moving_variance_initializer": {"module": "keras.initializers", "class_name": "Ones", "config": {}, "registered_name": null}, "beta_regularizer": null, "gamma_regularizer": null, "beta_constraint": null, "gamma_constraint": null}, "name": "batch_normalization_76", "inbound_nodes": [[["conv2d_88", 0, 0, {}]]]}, {"class_name": "TFOpLambda", "config": {"name": "tf.clip_by_value_51", "trainable": true, "dtype": "float32", "function": "clip_by_value"}, "name": "tf.clip_by_value_51", "inbound_nodes": [["batch_normalization_76", 0, 0, {"clip_value_min": 0.0, "clip_value_max": 6.0}]]}, {"class_name": "ZeroPadding2D", "config": {"name": "zero_padding2d_34", "trainable": true, "dtype": "float32", "padding": [[1, 1], [1, 1]], "data_format": "channels_last"}, "name": "zero_padding2d_34", "inbound_nodes": [[["tf.clip_by_value_51", 0, 0, {}]]]}, {"class_name": "Conv2D", "config": {"name": "conv2d_89", "trainable": true, "dtype": "float32", "filters": 384, "kernel_size": [3, 3], "strides": [1, 1], "padding": "valid", "data_format": "channels_last", "dilation_rate": [1, 1], "groups": 384, "activation": "linear", "use_bias": false, "kernel_initializer": {"module": "keras.initializers", "class_name": "GlorotUniform", "config": {"seed": null}, "registered_name": null}, "bias_initializer": {"module": "keras.initializers", "class_name": "Zeros", "config": {}, "registered_name": null}, "kernel_regularizer": null, "bias_regularizer": null, "activity_regularizer": null, "kernel_constraint": null, "bias_constraint": null}, "name": "conv2d_89", "inbound_nodes": [[["zero_padding2d_34", 0, 0, {}]]]}, {"class_name": "BatchNormalization", "config": {"name": "batch_normalization_77", "trainable": true, "dtype": "float32", "axis": [3], "momentum": 0.9, "epsilon": 1e-05, "center": true, "scale": true, "beta_initializer": {"module": "keras.initializers", "class_name": "Zeros", "config": {}, "registered_name": null}, "gamma_initializer": {"module": "keras.initializers", "class_name": "Ones", "config": {}, "registered_name": null}, "moving_mean_initializer": {"module": "keras.initializers", "class_name": "Zeros", "config": {}, "registered_name": null}, "moving_variance_initializer": {"module": "keras.initializers", "class_name": "Ones", "config": {}, "registered_name": null}, "beta_regularizer": null, "gamma_regularizer": null, "beta_constraint": null, "gamma_constraint": null}, "name": "batch_normalization_77", "inbound_nodes": [[["conv2d_89", 0, 0, {}]]]}, {"class_name": "TFOpLambda", "config": {"name": "tf.clip_by_value_52", "trainable": true, "dtype": "float32", "function": "clip_by_value"}, "name": "tf.clip_by_value_52", "inbound_nodes": [["batch_normalization_77", 0, 0, {"clip_value_min": 0.0, "clip_value_max": 6.0}]]}, {"class_name": "Conv2D", "config": {"name": "conv2d_90", "trainable": true, "dtype": "float32", "filters": 64, "kernel_size": [1, 1], "strides": [1, 1], "padding": "valid", "data_format": "channels_last", "dilation_rate": [1, 1], "groups": 1, "activation": "linear", "use_bias": false, "kernel_initializer": {"module": "keras.initializers", "class_name": "GlorotUniform", "config": {"seed": null}, "registered_name": null}, "bias_initializer": {"module": "keras.initializers", "class_name": "Zeros", "config": {}, "registered_name": null}, "kernel_regularizer": null, "bias_regularizer": null, "activity_regularizer": null, "kernel_constraint": null, "bias_constraint": null}, "name": "conv2d_90", "inbound_nodes": [[["tf.clip_by_value_52", 0, 0, {}]]]}, {"class_name": "BatchNormalization", "config": {"name": "batch_normalization_78", "trainable": true, "dtype": "float32", "axis": [3], "momentum": 0.9, "epsilon": 1e-05, "center": true, "scale": true, "beta_initializer": {"module": "keras.initializers", "class_name": "Zeros", "config": {}, "registered_name": null}, "gamma_initializer": {"module": "keras.initializers", "class_name": "Ones", "config": {}, "registered_name": null}, "moving_mean_initializer": {"module": "keras.initializers", "class_name": "Zeros", "config": {}, "registered_name": null}, "moving_variance_initializer": {"module": "keras.initializers", "class_name": "Ones", "config": {}, "registered_name": null}, "beta_regularizer": null, "gamma_regularizer": null, "beta_constraint": null, "gamma_constraint": null}, "name": "batch_normalization_78", "inbound_nodes": [[["conv2d_90", 0, 0, {}]]]}, {"class_name": "TFOpLambda", "config": {"name": "tf.__operators__.add_20", "trainable": true, "dtype": "float32", "function": "__operators__.add"}, "name": "tf.__operators__.add_20", "inbound_nodes": [["tf.__operators__.add_19", 0, 0, {"y": ["batch_normalization_78", 0, 0], "name": null}]]}, {"class_name": "Conv2D", "config": {"name": "conv2d_91", "trainable": true, "dtype": "float32", "filters": 384, "kernel_size": [1, 1], "strides": [1, 1], "padding": "valid", "data_format": "channels_last", "dilation_rate": [1, 1], "groups": 1, "activation": "linear", "use_bias": false, "kernel_initializer": {"module": "keras.initializers", "class_name": "GlorotUniform", "config": {"seed": null}, "registered_name": null}, "bias_initializer": {"module": "keras.initializers", "class_name": "Zeros", "config": {}, "registered_name": null}, "kernel_regularizer": null, "bias_regularizer": null, "activity_regularizer": null, "kernel_constraint": null, "bias_constraint": null}, "name": "conv2d_91", "inbound_nodes": [[["tf.__operators__.add_20", 0, 0, {}]]]}, {"class_name": "BatchNormalization", "config": {"name": "batch_normalization_79", "trainable": true, "dtype": "float32", "axis": [3], "momentum": 0.9, "epsilon": 1e-05, "center": true, "scale": true, "beta_initializer": {"module": "keras.initializers", "class_name": "Zeros", "config": {}, "registered_name": null}, "gamma_initializer": {"module": "keras.initializers", "class_name": "Ones", "config": {}, "registered_name": null}, "moving_mean_initializer": {"module": "keras.initializers", "class_name": "Zeros", "config": {}, "registered_name": null}, "moving_variance_initializer": {"module": "keras.initializers", "class_name": "Ones", "config": {}, "registered_name": null}, "beta_regularizer": null, "gamma_regularizer": null, "beta_constraint": null, "gamma_constraint": null}, "name": "batch_normalization_79", "inbound_nodes": [[["conv2d_91", 0, 0, {}]]]}, {"class_name": "TFOpLambda", "config": {"name": "tf.clip_by_value_53", "trainable": true, "dtype": "float32", "function": "clip_by_value"}, "name": "tf.clip_by_value_53", "inbound_nodes": [["batch_normalization_79", 0, 0, {"clip_value_min": 0.0, "clip_value_max": 6.0}]]}, {"class_name": "ZeroPadding2D", "config": {"name": "zero_padding2d_35", "trainable": true, "dtype": "float32", "padding": [[1, 1], [1, 1]], "data_format": "channels_last"}, "name": "zero_padding2d_35", "inbound_nodes": [[["tf.clip_by_value_53", 0, 0, {}]]]}, {"class_name": "Conv2D", "config": {"name": "conv2d_92", "trainable": true, "dtype": "float32", "filters": 384, "kernel_size": [3, 3], "strides": [1, 1], "padding": "valid", "data_format": "channels_last", "dilation_rate": [1, 1], "groups": 384, "activation": "linear", "use_bias": false, "kernel_initializer": {"module": "keras.initializers", "class_name": "GlorotUniform", "config": {"seed": null}, "registered_name": null}, "bias_initializer": {"module": "keras.initializers", "class_name": "Zeros", "config": {}, "registered_name": null}, "kernel_regularizer": null, "bias_regularizer": null, "activity_regularizer": null, "kernel_constraint": null, "bias_constraint": null}, "name": "conv2d_92", "inbound_nodes": [[["zero_padding2d_35", 0, 0, {}]]]}, {"class_name": "BatchNormalization", "config": {"name": "batch_normalization_80", "trainable": true, "dtype": "float32", "axis": [3], "momentum": 0.9, "epsilon": 1e-05, "center": true, "scale": true, "beta_initializer": {"module": "keras.initializers", "class_name": "Zeros", "config": {}, "registered_name": null}, "gamma_initializer": {"module": "keras.initializers", "class_name": "Ones", "config": {}, "registered_name": null}, "moving_mean_initializer": {"module": "keras.initializers", "class_name": "Zeros", "config": {}, "registered_name": null}, "moving_variance_initializer": {"module": "keras.initializers", "class_name": "Ones", "config": {}, "registered_name": null}, "beta_regularizer": null, "gamma_regularizer": null, "beta_constraint": null, "gamma_constraint": null}, "name": "batch_normalization_80", "inbound_nodes": [[["conv2d_92", 0, 0, {}]]]}, {"class_name": "TFOpLambda", "config": {"name": "tf.clip_by_value_54", "trainable": true, "dtype": "float32", "function": "clip_by_value"}, "name": "tf.clip_by_value_54", "inbound_nodes": [["batch_normalization_80", 0, 0, {"clip_value_min": 0.0, "clip_value_max": 6.0}]]}, {"class_name": "Conv2D", "config": {"name": "conv2d_93", "trainable": true, "dtype": "float32", "filters": 64, "kernel_size": [1, 1], "strides": [1, 1], "padding": "valid", "data_format": "channels_last", "dilation_rate": [1, 1], "groups": 1, "activation": "linear", "use_bias": false, "kernel_initializer": {"module": "keras.initializers", "class_name": "GlorotUniform", "config": {"seed": null}, "registered_name": null}, "bias_initializer": {"module": "keras.initializers", "class_name": "Zeros", "config": {}, "registered_name": null}, "kernel_regularizer": null, "bias_regularizer": null, "activity_regularizer": null, "kernel_constraint": null, "bias_constraint": null}, "name": "conv2d_93", "inbound_nodes": [[["tf.clip_by_value_54", 0, 0, {}]]]}, {"class_name": "BatchNormalization", "config": {"name": "batch_normalization_81", "trainable": true, "dtype": "float32", "axis": [3], "momentum": 0.9, "epsilon": 1e-05, "center": true, "scale": true, "beta_initializer": {"module": "keras.initializers", "class_name": "Zeros", "config": {}, "registered_name": null}, "gamma_initializer": {"module": "keras.initializers", "class_name": "Ones", "config": {}, "registered_name": null}, "moving_mean_initializer": {"module": "keras.initializers", "class_name": "Zeros", "config": {}, "registered_name": null}, "moving_variance_initializer": {"module": "keras.initializers", "class_name": "Ones", "config": {}, "registered_name": null}, "beta_regularizer": null, "gamma_regularizer": null, "beta_constraint": null, "gamma_constraint": null}, "name": "batch_normalization_81", "inbound_nodes": [[["conv2d_93", 0, 0, {}]]]}, {"class_name": "TFOpLambda", "config": {"name": "tf.__operators__.add_21", "trainable": true, "dtype": "float32", "function": "__operators__.add"}, "name": "tf.__operators__.add_21", "inbound_nodes": [["tf.__operators__.add_20", 0, 0, {"y": ["batch_normalization_81", 0, 0], "name": null}]]}, {"class_name": "Conv2D", "config": {"name": "conv2d_94", "trainable": true, "dtype": "float32", "filters": 384, "kernel_size": [1, 1], "strides": [1, 1], "padding": "valid", "data_format": "channels_last", "dilation_rate": [1, 1], "groups": 1, "activation": "linear", "use_bias": false, "kernel_initializer": {"module": "keras.initializers", "class_name": "GlorotUniform", "config": {"seed": null}, "registered_name": null}, "bias_initializer": {"module": "keras.initializers", "class_name": "Zeros", "config": {}, "registered_name": null}, "kernel_regularizer": null, "bias_regularizer": null, "activity_regularizer": null, "kernel_constraint": null, "bias_constraint": null}, "name": "conv2d_94", "inbound_nodes": [[["tf.__operators__.add_21", 0, 0, {}]]]}, {"class_name": "BatchNormalization", "config": {"name": "batch_normalization_82", "trainable": true, "dtype": "float32", "axis": [3], "momentum": 0.9, "epsilon": 1e-05, "center": true, "scale": true, "beta_initializer": {"module": "keras.initializers", "class_name": "Zeros", "config": {}, "registered_name": null}, "gamma_initializer": {"module": "keras.initializers", "class_name": "Ones", "config": {}, "registered_name": null}, "moving_mean_initializer": {"module": "keras.initializers", "class_name": "Zeros", "config": {}, "registered_name": null}, "moving_variance_initializer": {"module": "keras.initializers", "class_name": "Ones", "config": {}, "registered_name": null}, "beta_regularizer": null, "gamma_regularizer": null, "beta_constraint": null, "gamma_constraint": null}, "name": "batch_normalization_82", "inbound_nodes": [[["conv2d_94", 0, 0, {}]]]}, {"class_name": "TFOpLambda", "config": {"name": "tf.clip_by_value_55", "trainable": true, "dtype": "float32", "function": "clip_by_value"}, "name": "tf.clip_by_value_55", "inbound_nodes": [["batch_normalization_82", 0, 0, {"clip_value_min": 0.0, "clip_value_max": 6.0}]]}, {"class_name": "ZeroPadding2D", "config": {"name": "zero_padding2d_36", "trainable": true, "dtype": "float32", "padding": [[1, 1], [1, 1]], "data_format": "channels_last"}, "name": "zero_padding2d_36", "inbound_nodes": [[["tf.clip_by_value_55", 0, 0, {}]]]}, {"class_name": "Conv2D", "config": {"name": "conv2d_95", "trainable": true, "dtype": "float32", "filters": 384, "kernel_size": [3, 3], "strides": [1, 1], "padding": "valid", "data_format": "channels_last", "dilation_rate": [1, 1], "groups": 384, "activation": "linear", "use_bias": false, "kernel_initializer": {"module": "keras.initializers", "class_name": "GlorotUniform", "config": {"seed": null}, "registered_name": null}, "bias_initializer": {"module": "keras.initializers", "class_name": "Zeros", "config": {}, "registered_name": null}, "kernel_regularizer": null, "bias_regularizer": null, "activity_regularizer": null, "kernel_constraint": null, "bias_constraint": null}, "name": "conv2d_95", "inbound_nodes": [[["zero_padding2d_36", 0, 0, {}]]]}, {"class_name": "BatchNormalization", "config": {"name": "batch_normalization_83", "trainable": true, "dtype": "float32", "axis": [3], "momentum": 0.9, "epsilon": 1e-05, "center": true, "scale": true, "beta_initializer": {"module": "keras.initializers", "class_name": "Zeros", "config": {}, "registered_name": null}, "gamma_initializer": {"module": "keras.initializers", "class_name": "Ones", "config": {}, "registered_name": null}, "moving_mean_initializer": {"module": "keras.initializers", "class_name": "Zeros", "config": {}, "registered_name": null}, "moving_variance_initializer": {"module": "keras.initializers", "class_name": "Ones", "config": {}, "registered_name": null}, "beta_regularizer": null, "gamma_regularizer": null, "beta_constraint": null, "gamma_constraint": null}, "name": "batch_normalization_83", "inbound_nodes": [[["conv2d_95", 0, 0, {}]]]}, {"class_name": "TFOpLambda", "config": {"name": "tf.clip_by_value_56", "trainable": true, "dtype": "float32", "function": "clip_by_value"}, "name": "tf.clip_by_value_56", "inbound_nodes": [["batch_normalization_83", 0, 0, {"clip_value_min": 0.0, "clip_value_max": 6.0}]]}, {"class_name": "Conv2D", "config": {"name": "conv2d_96", "trainable": true, "dtype": "float32", "filters": 96, "kernel_size": [1, 1], "strides": [1, 1], "padding": "valid", "data_format": "channels_last", "dilation_rate": [1, 1], "groups": 1, "activation": "linear", "use_bias": false, "kernel_initializer": {"module": "keras.initializers", "class_name": "GlorotUniform", "config": {"seed": null}, "registered_name": null}, "bias_initializer": {"module": "keras.initializers", "class_name": "Zeros", "config": {}, "registered_name": null}, "kernel_regularizer": null, "bias_regularizer": null, "activity_regularizer": null, "kernel_constraint": null, "bias_constraint": null}, "name": "conv2d_96", "inbound_nodes": [[["tf.clip_by_value_56", 0, 0, {}]]]}, {"class_name": "BatchNormalization", "config": {"name": "batch_normalization_84", "trainable": true, "dtype": "float32", "axis": [3], "momentum": 0.9, "epsilon": 1e-05, "center": true, "scale": true, "beta_initializer": {"module": "keras.initializers", "class_name": "Zeros", "config": {}, "registered_name": null}, "gamma_initializer": {"module": "keras.initializers", "class_name": "Ones", "config": {}, "registered_name": null}, "moving_mean_initializer": {"module": "keras.initializers", "class_name": "Zeros", "config": {}, "registered_name": null}, "moving_variance_initializer": {"module": "keras.initializers", "class_name": "Ones", "config": {}, "registered_name": null}, "beta_regularizer": null, "gamma_regularizer": null, "beta_constraint": null, "gamma_constraint": null}, "name": "batch_normalization_84", "inbound_nodes": [[["conv2d_96", 0, 0, {}]]]}, {"class_name": "Conv2D", "config": {"name": "conv2d_97", "trainable": true, "dtype": "float32", "filters": 576, "kernel_size": [1, 1], "strides": [1, 1], "padding": "valid", "data_format": "channels_last", "dilation_rate": [1, 1], "groups": 1, "activation": "linear", "use_bias": false, "kernel_initializer": {"module": "keras.initializers", "class_name": "GlorotUniform", "config": {"seed": null}, "registered_name": null}, "bias_initializer": {"module": "keras.initializers", "class_name": "Zeros", "config": {}, "registered_name": null}, "kernel_regularizer": null, "bias_regularizer": null, "activity_regularizer": null, "kernel_constraint": null, "bias_constraint": null}, "name": "conv2d_97", "inbound_nodes": [[["batch_normalization_84", 0, 0, {}]]]}, {"class_name": "BatchNormalization", "config": {"name": "batch_normalization_85", "trainable": true, "dtype": "float32", "axis": [3], "momentum": 0.9, "epsilon": 1e-05, "center": true, "scale": true, "beta_initializer": {"module": "keras.initializers", "class_name": "Zeros", "config": {}, "registered_name": null}, "gamma_initializer": {"module": "keras.initializers", "class_name": "Ones", "config": {}, "registered_name": null}, "moving_mean_initializer": {"module": "keras.initializers", "class_name": "Zeros", "config": {}, "registered_name": null}, "moving_variance_initializer": {"module": "keras.initializers", "class_name": "Ones", "config": {}, "registered_name": null}, "beta_regularizer": null, "gamma_regularizer": null, "beta_constraint": null, "gamma_constraint": null}, "name": "batch_normalization_85", "inbound_nodes": [[["conv2d_97", 0, 0, {}]]]}, {"class_name": "TFOpLambda", "config": {"name": "tf.clip_by_value_57", "trainable": true, "dtype": "float32", "function": "clip_by_value"}, "name": "tf.clip_by_value_57", "inbound_nodes": [["batch_normalization_85", 0, 0, {"clip_value_min": 0.0, "clip_value_max": 6.0}]]}, {"class_name": "ZeroPadding2D", "config": {"name": "zero_padding2d_37", "trainable": true, "dtype": "float32", "padding": [[1, 1], [1, 1]], "data_format": "channels_last"}, "name": "zero_padding2d_37", "inbound_nodes": [[["tf.clip_by_value_57", 0, 0, {}]]]}, {"class_name": "Conv2D", "config": {"name": "conv2d_98", "trainable": true, "dtype": "float32", "filters": 576, "kernel_size": [3, 3], "strides": [1, 1], "padding": "valid", "data_format": "channels_last", "dilation_rate": [1, 1], "groups": 576, "activation": "linear", "use_bias": false, "kernel_initializer": {"module": "keras.initializers", "class_name": "GlorotUniform", "config": {"seed": null}, "registered_name": null}, "bias_initializer": {"module": "keras.initializers", "class_name": "Zeros", "config": {}, "registered_name": null}, "kernel_regularizer": null, "bias_regularizer": null, "activity_regularizer": null, "kernel_constraint": null, "bias_constraint": null}, "name": "conv2d_98", "inbound_nodes": [[["zero_padding2d_37", 0, 0, {}]]]}, {"class_name": "BatchNormalization", "config": {"name": "batch_normalization_86", "trainable": true, "dtype": "float32", "axis": [3], "momentum": 0.9, "epsilon": 1e-05, "center": true, "scale": true, "beta_initializer": {"module": "keras.initializers", "class_name": "Zeros", "config": {}, "registered_name": null}, "gamma_initializer": {"module": "keras.initializers", "class_name": "Ones", "config": {}, "registered_name": null}, "moving_mean_initializer": {"module": "keras.initializers", "class_name": "Zeros", "config": {}, "registered_name": null}, "moving_variance_initializer": {"module": "keras.initializers", "class_name": "Ones", "config": {}, "registered_name": null}, "beta_regularizer": null, "gamma_regularizer": null, "beta_constraint": null, "gamma_constraint": null}, "name": "batch_normalization_86", "inbound_nodes": [[["conv2d_98", 0, 0, {}]]]}, {"class_name": "TFOpLambda", "config": {"name": "tf.clip_by_value_58", "trainable": true, "dtype": "float32", "function": "clip_by_value"}, "name": "tf.clip_by_value_58", "inbound_nodes": [["batch_normalization_86", 0, 0, {"clip_value_min": 0.0, "clip_value_max": 6.0}]]}, {"class_name": "Conv2D", "config": {"name": "conv2d_99", "trainable": true, "dtype": "float32", "filters": 96, "kernel_size": [1, 1], "strides": [1, 1], "padding": "valid", "data_format": "channels_last", "dilation_rate": [1, 1], "groups": 1, "activation": "linear", "use_bias": false, "kernel_initializer": {"module": "keras.initializers", "class_name": "GlorotUniform", "config": {"seed": null}, "registered_name": null}, "bias_initializer": {"module": "keras.initializers", "class_name": "Zeros", "config": {}, "registered_name": null}, "kernel_regularizer": null, "bias_regularizer": null, "activity_regularizer": null, "kernel_constraint": null, "bias_constraint": null}, "name": "conv2d_99", "inbound_nodes": [[["tf.clip_by_value_58", 0, 0, {}]]]}, {"class_name": "BatchNormalization", "config": {"name": "batch_normalization_87", "trainable": true, "dtype": "float32", "axis": [3], "momentum": 0.9, "epsilon": 1e-05, "center": true, "scale": true, "beta_initializer": {"module": "keras.initializers", "class_name": "Zeros", "config": {}, "registered_name": null}, "gamma_initializer": {"module": "keras.initializers", "class_name": "Ones", "config": {}, "registered_name": null}, "moving_mean_initializer": {"module": "keras.initializers", "class_name": "Zeros", "config": {}, "registered_name": null}, "moving_variance_initializer": {"module": "keras.initializers", "class_name": "Ones", "config": {}, "registered_name": null}, "beta_regularizer": null, "gamma_regularizer": null, "beta_constraint": null, "gamma_constraint": null}, "name": "batch_normalization_87", "inbound_nodes": [[["conv2d_99", 0, 0, {}]]]}, {"class_name": "TFOpLambda", "config": {"name": "tf.__operators__.add_22", "trainable": true, "dtype": "float32", "function": "__operators__.add"}, "name": "tf.__operators__.add_22", "inbound_nodes": [["batch_normalization_84", 0, 0, {"y": ["batch_normalization_87", 0, 0], "name": null}]]}, {"class_name": "Conv2D", "config": {"name": "conv2d_100", "trainable": true, "dtype": "float32", "filters": 576, "kernel_size": [1, 1], "strides": [1, 1], "padding": "valid", "data_format": "channels_last", "dilation_rate": [1, 1], "groups": 1, "activation": "linear", "use_bias": false, "kernel_initializer": {"module": "keras.initializers", "class_name": "GlorotUniform", "config": {"seed": null}, "registered_name": null}, "bias_initializer": {"module": "keras.initializers", "class_name": "Zeros", "config": {}, "registered_name": null}, "kernel_regularizer": null, "bias_regularizer": null, "activity_regularizer": null, "kernel_constraint": null, "bias_constraint": null}, "name": "conv2d_100", "inbound_nodes": [[["tf.__operators__.add_22", 0, 0, {}]]]}, {"class_name": "BatchNormalization", "config": {"name": "batch_normalization_88", "trainable": true, "dtype": "float32", "axis": [3], "momentum": 0.9, "epsilon": 1e-05, "center": true, "scale": true, "beta_initializer": {"module": "keras.initializers", "class_name": "Zeros", "config": {}, "registered_name": null}, "gamma_initializer": {"module": "keras.initializers", "class_name": "Ones", "config": {}, "registered_name": null}, "moving_mean_initializer": {"module": "keras.initializers", "class_name": "Zeros", "config": {}, "registered_name": null}, "moving_variance_initializer": {"module": "keras.initializers", "class_name": "Ones", "config": {}, "registered_name": null}, "beta_regularizer": null, "gamma_regularizer": null, "beta_constraint": null, "gamma_constraint": null}, "name": "batch_normalization_88", "inbound_nodes": [[["conv2d_100", 0, 0, {}]]]}, {"class_name": "TFOpLambda", "config": {"name": "tf.clip_by_value_59", "trainable": true, "dtype": "float32", "function": "clip_by_value"}, "name": "tf.clip_by_value_59", "inbound_nodes": [["batch_normalization_88", 0, 0, {"clip_value_min": 0.0, "clip_value_max": 6.0}]]}, {"class_name": "ZeroPadding2D", "config": {"name": "zero_padding2d_38", "trainable": true, "dtype": "float32", "padding": [[1, 1], [1, 1]], "data_format": "channels_last"}, "name": "zero_padding2d_38", "inbound_nodes": [[["tf.clip_by_value_59", 0, 0, {}]]]}, {"class_name": "Conv2D", "config": {"name": "conv2d_101", "trainable": true, "dtype": "float32", "filters": 576, "kernel_size": [3, 3], "strides": [1, 1], "padding": "valid", "data_format": "channels_last", "dilation_rate": [1, 1], "groups": 576, "activation": "linear", "use_bias": false, "kernel_initializer": {"module": "keras.initializers", "class_name": "GlorotUniform", "config": {"seed": null}, "registered_name": null}, "bias_initializer": {"module": "keras.initializers", "class_name": "Zeros", "config": {}, "registered_name": null}, "kernel_regularizer": null, "bias_regularizer": null, "activity_regularizer": null, "kernel_constraint": null, "bias_constraint": null}, "name": "conv2d_101", "inbound_nodes": [[["zero_padding2d_38", 0, 0, {}]]]}, {"class_name": "BatchNormalization", "config": {"name": "batch_normalization_89", "trainable": true, "dtype": "float32", "axis": [3], "momentum": 0.9, "epsilon": 1e-05, "center": true, "scale": true, "beta_initializer": {"module": "keras.initializers", "class_name": "Zeros", "config": {}, "registered_name": null}, "gamma_initializer": {"module": "keras.initializers", "class_name": "Ones", "config": {}, "registered_name": null}, "moving_mean_initializer": {"module": "keras.initializers", "class_name": "Zeros", "config": {}, "registered_name": null}, "moving_variance_initializer": {"module": "keras.initializers", "class_name": "Ones", "config": {}, "registered_name": null}, "beta_regularizer": null, "gamma_regularizer": null, "beta_constraint": null, "gamma_constraint": null}, "name": "batch_normalization_89", "inbound_nodes": [[["conv2d_101", 0, 0, {}]]]}, {"class_name": "TFOpLambda", "config": {"name": "tf.clip_by_value_60", "trainable": true, "dtype": "float32", "function": "clip_by_value"}, "name": "tf.clip_by_value_60", "inbound_nodes": [["batch_normalization_89", 0, 0, {"clip_value_min": 0.0, "clip_value_max": 6.0}]]}, {"class_name": "Conv2D", "config": {"name": "conv2d_102", "trainable": true, "dtype": "float32", "filters": 96, "kernel_size": [1, 1], "strides": [1, 1], "padding": "valid", "data_format": "channels_last", "dilation_rate": [1, 1], "groups": 1, "activation": "linear", "use_bias": false, "kernel_initializer": {"module": "keras.initializers", "class_name": "GlorotUniform", "config": {"seed": null}, "registered_name": null}, "bias_initializer": {"module": "keras.initializers", "class_name": "Zeros", "config": {}, "registered_name": null}, "kernel_regularizer": null, "bias_regularizer": null, "activity_regularizer": null, "kernel_constraint": null, "bias_constraint": null}, "name": "conv2d_102", "inbound_nodes": [[["tf.clip_by_value_60", 0, 0, {}]]]}, {"class_name": "BatchNormalization", "config": {"name": "batch_normalization_90", "trainable": true, "dtype": "float32", "axis": [3], "momentum": 0.9, "epsilon": 1e-05, "center": true, "scale": true, "beta_initializer": {"module": "keras.initializers", "class_name": "Zeros", "config": {}, "registered_name": null}, "gamma_initializer": {"module": "keras.initializers", "class_name": "Ones", "config": {}, "registered_name": null}, "moving_mean_initializer": {"module": "keras.initializers", "class_name": "Zeros", "config": {}, "registered_name": null}, "moving_variance_initializer": {"module": "keras.initializers", "class_name": "Ones", "config": {}, "registered_name": null}, "beta_regularizer": null, "gamma_regularizer": null, "beta_constraint": null, "gamma_constraint": null}, "name": "batch_normalization_90", "inbound_nodes": [[["conv2d_102", 0, 0, {}]]]}, {"class_name": "TFOpLambda", "config": {"name": "tf.__operators__.add_23", "trainable": true, "dtype": "float32", "function": "__operators__.add"}, "name": "tf.__operators__.add_23", "inbound_nodes": [["tf.__operators__.add_22", 0, 0, {"y": ["batch_normalization_90", 0, 0], "name": null}]]}, {"class_name": "Conv2D", "config": {"name": "conv2d_103", "trainable": true, "dtype": "float32", "filters": 576, "kernel_size": [1, 1], "strides": [1, 1], "padding": "valid", "data_format": "channels_last", "dilation_rate": [1, 1], "groups": 1, "activation": "linear", "use_bias": false, "kernel_initializer": {"module": "keras.initializers", "class_name": "GlorotUniform", "config": {"seed": null}, "registered_name": null}, "bias_initializer": {"module": "keras.initializers", "class_name": "Zeros", "config": {}, "registered_name": null}, "kernel_regularizer": null, "bias_regularizer": null, "activity_regularizer": null, "kernel_constraint": null, "bias_constraint": null}, "name": "conv2d_103", "inbound_nodes": [[["tf.__operators__.add_23", 0, 0, {}]]]}, {"class_name": "BatchNormalization", "config": {"name": "batch_normalization_91", "trainable": true, "dtype": "float32", "axis": [3], "momentum": 0.9, "epsilon": 1e-05, "center": true, "scale": true, "beta_initializer": {"module": "keras.initializers", "class_name": "Zeros", "config": {}, "registered_name": null}, "gamma_initializer": {"module": "keras.initializers", "class_name": "Ones", "config": {}, "registered_name": null}, "moving_mean_initializer": {"module": "keras.initializers", "class_name": "Zeros", "config": {}, "registered_name": null}, "moving_variance_initializer": {"module": "keras.initializers", "class_name": "Ones", "config": {}, "registered_name": null}, "beta_regularizer": null, "gamma_regularizer": null, "beta_constraint": null, "gamma_constraint": null}, "name": "batch_normalization_91", "inbound_nodes": [[["conv2d_103", 0, 0, {}]]]}, {"class_name": "TFOpLambda", "config": {"name": "tf.clip_by_value_61", "trainable": true, "dtype": "float32", "function": "clip_by_value"}, "name": "tf.clip_by_value_61", "inbound_nodes": [["batch_normalization_91", 0, 0, {"clip_value_min": 0.0, "clip_value_max": 6.0}]]}, {"class_name": "ZeroPadding2D", "config": {"name": "zero_padding2d_39", "trainable": true, "dtype": "float32", "padding": [[1, 1], [1, 1]], "data_format": "channels_last"}, "name": "zero_padding2d_39", "inbound_nodes": [[["tf.clip_by_value_61", 0, 0, {}]]]}, {"class_name": "Conv2D", "config": {"name": "conv2d_104", "trainable": true, "dtype": "float32", "filters": 576, "kernel_size": [3, 3], "strides": [2, 2], "padding": "valid", "data_format": "channels_last", "dilation_rate": [1, 1], "groups": 576, "activation": "linear", "use_bias": false, "kernel_initializer": {"module": "keras.initializers", "class_name": "GlorotUniform", "config": {"seed": null}, "registered_name": null}, "bias_initializer": {"module": "keras.initializers", "class_name": "Zeros", "config": {}, "registered_name": null}, "kernel_regularizer": null, "bias_regularizer": null, "activity_regularizer": null, "kernel_constraint": null, "bias_constraint": null}, "name": "conv2d_104", "inbound_nodes": [[["zero_padding2d_39", 0, 0, {}]]]}, {"class_name": "BatchNormalization", "config": {"name": "batch_normalization_92", "trainable": true, "dtype": "float32", "axis": [3], "momentum": 0.9, "epsilon": 1e-05, "center": true, "scale": true, "beta_initializer": {"module": "keras.initializers", "class_name": "Zeros", "config": {}, "registered_name": null}, "gamma_initializer": {"module": "keras.initializers", "class_name": "Ones", "config": {}, "registered_name": null}, "moving_mean_initializer": {"module": "keras.initializers", "class_name": "Zeros", "config": {}, "registered_name": null}, "moving_variance_initializer": {"module": "keras.initializers", "class_name": "Ones", "config": {}, "registered_name": null}, "beta_regularizer": null, "gamma_regularizer": null, "beta_constraint": null, "gamma_constraint": null}, "name": "batch_normalization_92", "inbound_nodes": [[["conv2d_104", 0, 0, {}]]]}, {"class_name": "TFOpLambda", "config": {"name": "tf.clip_by_value_62", "trainable": true, "dtype": "float32", "function": "clip_by_value"}, "name": "tf.clip_by_value_62", "inbound_nodes": [["batch_normalization_92", 0, 0, {"clip_value_min": 0.0, "clip_value_max": 6.0}]]}, {"class_name": "Conv2D", "config": {"name": "conv2d_105", "trainable": true, "dtype": "float32", "filters": 160, "kernel_size": [1, 1], "strides": [1, 1], "padding": "valid", "data_format": "channels_last", "dilation_rate": [1, 1], "groups": 1, "activation": "linear", "use_bias": false, "kernel_initializer": {"module": "keras.initializers", "class_name": "GlorotUniform", "config": {"seed": null}, "registered_name": null}, "bias_initializer": {"module": "keras.initializers", "class_name": "Zeros", "config": {}, "registered_name": null}, "kernel_regularizer": null, "bias_regularizer": null, "activity_regularizer": null, "kernel_constraint": null, "bias_constraint": null}, "name": "conv2d_105", "inbound_nodes": [[["tf.clip_by_value_62", 0, 0, {}]]]}, {"class_name": "BatchNormalization", "config": {"name": "batch_normalization_93", "trainable": true, "dtype": "float32", "axis": [3], "momentum": 0.9, "epsilon": 1e-05, "center": true, "scale": true, "beta_initializer": {"module": "keras.initializers", "class_name": "Zeros", "config": {}, "registered_name": null}, "gamma_initializer": {"module": "keras.initializers", "class_name": "Ones", "config": {}, "registered_name": null}, "moving_mean_initializer": {"module": "keras.initializers", "class_name": "Zeros", "config": {}, "registered_name": null}, "moving_variance_initializer": {"module": "keras.initializers", "class_name": "Ones", "config": {}, "registered_name": null}, "beta_regularizer": null, "gamma_regularizer": null, "beta_constraint": null, "gamma_constraint": null}, "name": "batch_normalization_93", "inbound_nodes": [[["conv2d_105", 0, 0, {}]]]}, {"class_name": "Conv2D", "config": {"name": "conv2d_106", "trainable": true, "dtype": "float32", "filters": 960, "kernel_size": [1, 1], "strides": [1, 1], "padding": "valid", "data_format": "channels_last", "dilation_rate": [1, 1], "groups": 1, "activation": "linear", "use_bias": false, "kernel_initializer": {"module": "keras.initializers", "class_name": "GlorotUniform", "config": {"seed": null}, "registered_name": null}, "bias_initializer": {"module": "keras.initializers", "class_name": "Zeros", "config": {}, "registered_name": null}, "kernel_regularizer": null, "bias_regularizer": null, "activity_regularizer": null, "kernel_constraint": null, "bias_constraint": null}, "name": "conv2d_106", "inbound_nodes": [[["batch_normalization_93", 0, 0, {}]]]}, {"class_name": "BatchNormalization", "config": {"name": "batch_normalization_94", "trainable": true, "dtype": "float32", "axis": [3], "momentum": 0.9, "epsilon": 1e-05, "center": true, "scale": true, "beta_initializer": {"module": "keras.initializers", "class_name": "Zeros", "config": {}, "registered_name": null}, "gamma_initializer": {"module": "keras.initializers", "class_name": "Ones", "config": {}, "registered_name": null}, "moving_mean_initializer": {"module": "keras.initializers", "class_name": "Zeros", "config": {}, "registered_name": null}, "moving_variance_initializer": {"module": "keras.initializers", "class_name": "Ones", "config": {}, "registered_name": null}, "beta_regularizer": null, "gamma_regularizer": null, "beta_constraint": null, "gamma_constraint": null}, "name": "batch_normalization_94", "inbound_nodes": [[["conv2d_106", 0, 0, {}]]]}, {"class_name": "TFOpLambda", "config": {"name": "tf.clip_by_value_63", "trainable": true, "dtype": "float32", "function": "clip_by_value"}, "name": "tf.clip_by_value_63", "inbound_nodes": [["batch_normalization_94", 0, 0, {"clip_value_min": 0.0, "clip_value_max": 6.0}]]}, {"class_name": "ZeroPadding2D", "config": {"name": "zero_padding2d_40", "trainable": true, "dtype": "float32", "padding": [[1, 1], [1, 1]], "data_format": "channels_last"}, "name": "zero_padding2d_40", "inbound_nodes": [[["tf.clip_by_value_63", 0, 0, {}]]]}, {"class_name": "Conv2D", "config": {"name": "conv2d_107", "trainable": true, "dtype": "float32", "filters": 960, "kernel_size": [3, 3], "strides": [1, 1], "padding": "valid", "data_format": "channels_last", "dilation_rate": [1, 1], "groups": 960, "activation": "linear", "use_bias": false, "kernel_initializer": {"module": "keras.initializers", "class_name": "GlorotUniform", "config": {"seed": null}, "registered_name": null}, "bias_initializer": {"module": "keras.initializers", "class_name": "Zeros", "config": {}, "registered_name": null}, "kernel_regularizer": null, "bias_regularizer": null, "activity_regularizer": null, "kernel_constraint": null, "bias_constraint": null}, "name": "conv2d_107", "inbound_nodes": [[["zero_padding2d_40", 0, 0, {}]]]}, {"class_name": "BatchNormalization", "config": {"name": "batch_normalization_95", "trainable": true, "dtype": "float32", "axis": [3], "momentum": 0.9, "epsilon": 1e-05, "center": true, "scale": true, "beta_initializer": {"module": "keras.initializers", "class_name": "Zeros", "config": {}, "registered_name": null}, "gamma_initializer": {"module": "keras.initializers", "class_name": "Ones", "config": {}, "registered_name": null}, "moving_mean_initializer": {"module": "keras.initializers", "class_name": "Zeros", "config": {}, "registered_name": null}, "moving_variance_initializer": {"module": "keras.initializers", "class_name": "Ones", "config": {}, "registered_name": null}, "beta_regularizer": null, "gamma_regularizer": null, "beta_constraint": null, "gamma_constraint": null}, "name": "batch_normalization_95", "inbound_nodes": [[["conv2d_107", 0, 0, {}]]]}, {"class_name": "TFOpLambda", "config": {"name": "tf.clip_by_value_64", "trainable": true, "dtype": "float32", "function": "clip_by_value"}, "name": "tf.clip_by_value_64", "inbound_nodes": [["batch_normalization_95", 0, 0, {"clip_value_min": 0.0, "clip_value_max": 6.0}]]}, {"class_name": "Conv2D", "config": {"name": "conv2d_108", "trainable": true, "dtype": "float32", "filters": 160, "kernel_size": [1, 1], "strides": [1, 1], "padding": "valid", "data_format": "channels_last", "dilation_rate": [1, 1], "groups": 1, "activation": "linear", "use_bias": false, "kernel_initializer": {"module": "keras.initializers", "class_name": "GlorotUniform", "config": {"seed": null}, "registered_name": null}, "bias_initializer": {"module": "keras.initializers", "class_name": "Zeros", "config": {}, "registered_name": null}, "kernel_regularizer": null, "bias_regularizer": null, "activity_regularizer": null, "kernel_constraint": null, "bias_constraint": null}, "name": "conv2d_108", "inbound_nodes": [[["tf.clip_by_value_64", 0, 0, {}]]]}, {"class_name": "BatchNormalization", "config": {"name": "batch_normalization_96", "trainable": true, "dtype": "float32", "axis": [3], "momentum": 0.9, "epsilon": 1e-05, "center": true, "scale": true, "beta_initializer": {"module": "keras.initializers", "class_name": "Zeros", "config": {}, "registered_name": null}, "gamma_initializer": {"module": "keras.initializers", "class_name": "Ones", "config": {}, "registered_name": null}, "moving_mean_initializer": {"module": "keras.initializers", "class_name": "Zeros", "config": {}, "registered_name": null}, "moving_variance_initializer": {"module": "keras.initializers", "class_name": "Ones", "config": {}, "registered_name": null}, "beta_regularizer": null, "gamma_regularizer": null, "beta_constraint": null, "gamma_constraint": null}, "name": "batch_normalization_96", "inbound_nodes": [[["conv2d_108", 0, 0, {}]]]}, {"class_name": "TFOpLambda", "config": {"name": "tf.__operators__.add_24", "trainable": true, "dtype": "float32", "function": "__operators__.add"}, "name": "tf.__operators__.add_24", "inbound_nodes": [["batch_normalization_93", 0, 0, {"y": ["batch_normalization_96", 0, 0], "name": null}]]}, {"class_name": "Conv2D", "config": {"name": "conv2d_109", "trainable": true, "dtype": "float32", "filters": 960, "kernel_size": [1, 1], "strides": [1, 1], "padding": "valid", "data_format": "channels_last", "dilation_rate": [1, 1], "groups": 1, "activation": "linear", "use_bias": false, "kernel_initializer": {"module": "keras.initializers", "class_name": "GlorotUniform", "config": {"seed": null}, "registered_name": null}, "bias_initializer": {"module": "keras.initializers", "class_name": "Zeros", "config": {}, "registered_name": null}, "kernel_regularizer": null, "bias_regularizer": null, "activity_regularizer": null, "kernel_constraint": null, "bias_constraint": null}, "name": "conv2d_109", "inbound_nodes": [[["tf.__operators__.add_24", 0, 0, {}]]]}, {"class_name": "BatchNormalization", "config": {"name": "batch_normalization_97", "trainable": true, "dtype": "float32", "axis": [3], "momentum": 0.9, "epsilon": 1e-05, "center": true, "scale": true, "beta_initializer": {"module": "keras.initializers", "class_name": "Zeros", "config": {}, "registered_name": null}, "gamma_initializer": {"module": "keras.initializers", "class_name": "Ones", "config": {}, "registered_name": null}, "moving_mean_initializer": {"module": "keras.initializers", "class_name": "Zeros", "config": {}, "registered_name": null}, "moving_variance_initializer": {"module": "keras.initializers", "class_name": "Ones", "config": {}, "registered_name": null}, "beta_regularizer": null, "gamma_regularizer": null, "beta_constraint": null, "gamma_constraint": null}, "name": "batch_normalization_97", "inbound_nodes": [[["conv2d_109", 0, 0, {}]]]}, {"class_name": "TFOpLambda", "config": {"name": "tf.clip_by_value_65", "trainable": true, "dtype": "float32", "function": "clip_by_value"}, "name": "tf.clip_by_value_65", "inbound_nodes": [["batch_normalization_97", 0, 0, {"clip_value_min": 0.0, "clip_value_max": 6.0}]]}, {"class_name": "ZeroPadding2D", "config": {"name": "zero_padding2d_41", "trainable": true, "dtype": "float32", "padding": [[1, 1], [1, 1]], "data_format": "channels_last"}, "name": "zero_padding2d_41", "inbound_nodes": [[["tf.clip_by_value_65", 0, 0, {}]]]}, {"class_name": "Conv2D", "config": {"name": "conv2d_110", "trainable": true, "dtype": "float32", "filters": 960, "kernel_size": [3, 3], "strides": [1, 1], "padding": "valid", "data_format": "channels_last", "dilation_rate": [1, 1], "groups": 960, "activation": "linear", "use_bias": false, "kernel_initializer": {"module": "keras.initializers", "class_name": "GlorotUniform", "config": {"seed": null}, "registered_name": null}, "bias_initializer": {"module": "keras.initializers", "class_name": "Zeros", "config": {}, "registered_name": null}, "kernel_regularizer": null, "bias_regularizer": null, "activity_regularizer": null, "kernel_constraint": null, "bias_constraint": null}, "name": "conv2d_110", "inbound_nodes": [[["zero_padding2d_41", 0, 0, {}]]]}, {"class_name": "BatchNormalization", "config": {"name": "batch_normalization_98", "trainable": true, "dtype": "float32", "axis": [3], "momentum": 0.9, "epsilon": 1e-05, "center": true, "scale": true, "beta_initializer": {"module": "keras.initializers", "class_name": "Zeros", "config": {}, "registered_name": null}, "gamma_initializer": {"module": "keras.initializers", "class_name": "Ones", "config": {}, "registered_name": null}, "moving_mean_initializer": {"module": "keras.initializers", "class_name": "Zeros", "config": {}, "registered_name": null}, "moving_variance_initializer": {"module": "keras.initializers", "class_name": "Ones", "config": {}, "registered_name": null}, "beta_regularizer": null, "gamma_regularizer": null, "beta_constraint": null, "gamma_constraint": null}, "name": "batch_normalization_98", "inbound_nodes": [[["conv2d_110", 0, 0, {}]]]}, {"class_name": "TFOpLambda", "config": {"name": "tf.clip_by_value_66", "trainable": true, "dtype": "float32", "function": "clip_by_value"}, "name": "tf.clip_by_value_66", "inbound_nodes": [["batch_normalization_98", 0, 0, {"clip_value_min": 0.0, "clip_value_max": 6.0}]]}, {"class_name": "Conv2D", "config": {"name": "conv2d_111", "trainable": true, "dtype": "float32", "filters": 160, "kernel_size": [1, 1], "strides": [1, 1], "padding": "valid", "data_format": "channels_last", "dilation_rate": [1, 1], "groups": 1, "activation": "linear", "use_bias": false, "kernel_initializer": {"module": "keras.initializers", "class_name": "GlorotUniform", "config": {"seed": null}, "registered_name": null}, "bias_initializer": {"module": "keras.initializers", "class_name": "Zeros", "config": {}, "registered_name": null}, "kernel_regularizer": null, "bias_regularizer": null, "activity_regularizer": null, "kernel_constraint": null, "bias_constraint": null}, "name": "conv2d_111", "inbound_nodes": [[["tf.clip_by_value_66", 0, 0, {}]]]}, {"class_name": "BatchNormalization", "config": {"name": "batch_normalization_99", "trainable": true, "dtype": "float32", "axis": [3], "momentum": 0.9, "epsilon": 1e-05, "center": true, "scale": true, "beta_initializer": {"module": "keras.initializers", "class_name": "Zeros", "config": {}, "registered_name": null}, "gamma_initializer": {"module": "keras.initializers", "class_name": "Ones", "config": {}, "registered_name": null}, "moving_mean_initializer": {"module": "keras.initializers", "class_name": "Zeros", "config": {}, "registered_name": null}, "moving_variance_initializer": {"module": "keras.initializers", "class_name": "Ones", "config": {}, "registered_name": null}, "beta_regularizer": null, "gamma_regularizer": null, "beta_constraint": null, "gamma_constraint": null}, "name": "batch_normalization_99", "inbound_nodes": [[["conv2d_111", 0, 0, {}]]]}, {"class_name": "TFOpLambda", "config": {"name": "tf.__operators__.add_25", "trainable": true, "dtype": "float32", "function": "__operators__.add"}, "name": "tf.__operators__.add_25", "inbound_nodes": [["tf.__operators__.add_24", 0, 0, {"y": ["batch_normalization_99", 0, 0], "name": null}]]}, {"class_name": "Conv2D", "config": {"name": "conv2d_112", "trainable": true, "dtype": "float32", "filters": 960, "kernel_size": [1, 1], "strides": [1, 1], "padding": "valid", "data_format": "channels_last", "dilation_rate": [1, 1], "groups": 1, "activation": "linear", "use_bias": false, "kernel_initializer": {"module": "keras.initializers", "class_name": "GlorotUniform", "config": {"seed": null}, "registered_name": null}, "bias_initializer": {"module": "keras.initializers", "class_name": "Zeros", "config": {}, "registered_name": null}, "kernel_regularizer": null, "bias_regularizer": null, "activity_regularizer": null, "kernel_constraint": null, "bias_constraint": null}, "name": "conv2d_112", "inbound_nodes": [[["tf.__operators__.add_25", 0, 0, {}]]]}, {"class_name": "BatchNormalization", "config": {"name": "batch_normalization_100", "trainable": true, "dtype": "float32", "axis": [3], "momentum": 0.9, "epsilon": 1e-05, "center": true, "scale": true, "beta_initializer": {"module": "keras.initializers", "class_name": "Zeros", "config": {}, "registered_name": null}, "gamma_initializer": {"module": "keras.initializers", "class_name": "Ones", "config": {}, "registered_name": null}, "moving_mean_initializer": {"module": "keras.initializers", "class_name": "Zeros", "config": {}, "registered_name": null}, "moving_variance_initializer": {"module": "keras.initializers", "class_name": "Ones", "config": {}, "registered_name": null}, "beta_regularizer": null, "gamma_regularizer": null, "beta_constraint": null, "gamma_constraint": null}, "name": "batch_normalization_100", "inbound_nodes": [[["conv2d_112", 0, 0, {}]]]}, {"class_name": "TFOpLambda", "config": {"name": "tf.clip_by_value_67", "trainable": true, "dtype": "float32", "function": "clip_by_value"}, "name": "tf.clip_by_value_67", "inbound_nodes": [["batch_normalization_100", 0, 0, {"clip_value_min": 0.0, "clip_value_max": 6.0}]]}, {"class_name": "ZeroPadding2D", "config": {"name": "zero_padding2d_42", "trainable": true, "dtype": "float32", "padding": [[1, 1], [1, 1]], "data_format": "channels_last"}, "name": "zero_padding2d_42", "inbound_nodes": [[["tf.clip_by_value_67", 0, 0, {}]]]}, {"class_name": "Conv2D", "config": {"name": "conv2d_113", "trainable": true, "dtype": "float32", "filters": 960, "kernel_size": [3, 3], "strides": [1, 1], "padding": "valid", "data_format": "channels_last", "dilation_rate": [1, 1], "groups": 960, "activation": "linear", "use_bias": false, "kernel_initializer": {"module": "keras.initializers", "class_name": "GlorotUniform", "config": {"seed": null}, "registered_name": null}, "bias_initializer": {"module": "keras.initializers", "class_name": "Zeros", "config": {}, "registered_name": null}, "kernel_regularizer": null, "bias_regularizer": null, "activity_regularizer": null, "kernel_constraint": null, "bias_constraint": null}, "name": "conv2d_113", "inbound_nodes": [[["zero_padding2d_42", 0, 0, {}]]]}, {"class_name": "BatchNormalization", "config": {"name": "batch_normalization_101", "trainable": true, "dtype": "float32", "axis": [3], "momentum": 0.9, "epsilon": 1e-05, "center": true, "scale": true, "beta_initializer": {"module": "keras.initializers", "class_name": "Zeros", "config": {}, "registered_name": null}, "gamma_initializer": {"module": "keras.initializers", "class_name": "Ones", "config": {}, "registered_name": null}, "moving_mean_initializer": {"module": "keras.initializers", "class_name": "Zeros", "config": {}, "registered_name": null}, "moving_variance_initializer": {"module": "keras.initializers", "class_name": "Ones", "config": {}, "registered_name": null}, "beta_regularizer": null, "gamma_regularizer": null, "beta_constraint": null, "gamma_constraint": null}, "name": "batch_normalization_101", "inbound_nodes": [[["conv2d_113", 0, 0, {}]]]}, {"class_name": "TFOpLambda", "config": {"name": "tf.clip_by_value_68", "trainable": true, "dtype": "float32", "function": "clip_by_value"}, "name": "tf.clip_by_value_68", "inbound_nodes": [["batch_normalization_101", 0, 0, {"clip_value_min": 0.0, "clip_value_max": 6.0}]]}, {"class_name": "Conv2D", "config": {"name": "conv2d_114", "trainable": true, "dtype": "float32", "filters": 320, "kernel_size": [1, 1], "strides": [1, 1], "padding": "valid", "data_format": "channels_last", "dilation_rate": [1, 1], "groups": 1, "activation": "linear", "use_bias": false, "kernel_initializer": {"module": "keras.initializers", "class_name": "GlorotUniform", "config": {"seed": null}, "registered_name": null}, "bias_initializer": {"module": "keras.initializers", "class_name": "Zeros", "config": {}, "registered_name": null}, "kernel_regularizer": null, "bias_regularizer": null, "activity_regularizer": null, "kernel_constraint": null, "bias_constraint": null}, "name": "conv2d_114", "inbound_nodes": [[["tf.clip_by_value_68", 0, 0, {}]]]}, {"class_name": "BatchNormalization", "config": {"name": "batch_normalization_102", "trainable": true, "dtype": "float32", "axis": [3], "momentum": 0.9, "epsilon": 1e-05, "center": true, "scale": true, "beta_initializer": {"module": "keras.initializers", "class_name": "Zeros", "config": {}, "registered_name": null}, "gamma_initializer": {"module": "keras.initializers", "class_name": "Ones", "config": {}, "registered_name": null}, "moving_mean_initializer": {"module": "keras.initializers", "class_name": "Zeros", "config": {}, "registered_name": null}, "moving_variance_initializer": {"module": "keras.initializers", "class_name": "Ones", "config": {}, "registered_name": null}, "beta_regularizer": null, "gamma_regularizer": null, "beta_constraint": null, "gamma_constraint": null}, "name": "batch_normalization_102", "inbound_nodes": [[["conv2d_114", 0, 0, {}]]]}, {"class_name": "Conv2D", "config": {"name": "conv2d_115", "trainable": true, "dtype": "float32", "filters": 1280, "kernel_size": [1, 1], "strides": [1, 1], "padding": "valid", "data_format": "channels_last", "dilation_rate": [1, 1], "groups": 1, "activation": "linear", "use_bias": false, "kernel_initializer": {"module": "keras.initializers", "class_name": "GlorotUniform", "config": {"seed": null}, "registered_name": null}, "bias_initializer": {"module": "keras.initializers", "class_name": "Zeros", "config": {}, "registered_name": null}, "kernel_regularizer": null, "bias_regularizer": null, "activity_regularizer": null, "kernel_constraint": null, "bias_constraint": null}, "name": "conv2d_115", "inbound_nodes": [[["batch_normalization_102", 0, 0, {}]]]}, {"class_name": "BatchNormalization", "config": {"name": "batch_normalization_103", "trainable": true, "dtype": "float32", "axis": [3], "momentum": 0.9, "epsilon": 1e-05, "center": true, "scale": true, "beta_initializer": {"module": "keras.initializers", "class_name": "Zeros", "config": {}, "registered_name": null}, "gamma_initializer": {"module": "keras.initializers", "class_name": "Ones", "config": {}, "registered_name": null}, "moving_mean_initializer": {"module": "keras.initializers", "class_name": "Zeros", "config": {}, "registered_name": null}, "moving_variance_initializer": {"module": "keras.initializers", "class_name": "Ones", "config": {}, "registered_name": null}, "beta_regularizer": null, "gamma_regularizer": null, "beta_constraint": null, "gamma_constraint": null}, "name": "batch_normalization_103", "inbound_nodes": [[["conv2d_115", 0, 0, {}]]]}, {"class_name": "TFOpLambda", "config": {"name": "tf.clip_by_value_69", "trainable": true, "dtype": "float32", "function": "clip_by_value"}, "name": "tf.clip_by_value_69", "inbound_nodes": [["batch_normalization_103", 0, 0, {"clip_value_min": 0.0, "clip_value_max": 6.0}]]}, {"class_name": "Conv2D", "config": {"name": "conv2d_116", "trainable": true, "dtype": "float32", "filters": 256, "kernel_size": [1, 1], "strides": [1, 1], "padding": "valid", "data_format": "channels_last", "dilation_rate": [1, 1], "groups": 1, "activation": "linear", "use_bias": true, "kernel_initializer": {"module": "keras.initializers", "class_name": "GlorotUniform", "config": {"seed": null}, "registered_name": null}, "bias_initializer": {"module": "keras.initializers", "class_name": "Zeros", "config": {}, "registered_name": null}, "kernel_regularizer": null, "bias_regularizer": null, "activity_regularizer": null, "kernel_constraint": null, "bias_constraint": null}, "name": "conv2d_116", "inbound_nodes": [[["tf.clip_by_value_69", 0, 0, {}]]]}, {"class_name": "ZeroPadding2D", "config": {"name": "zero_padding2d_43", "trainable": true, "dtype": "float32", "padding": [[1, 1], [1, 1]], "data_format": "channels_last"}, "name": "zero_padding2d_43", "inbound_nodes": [[["conv2d_116", 0, 0, {}]]]}, {"class_name": "Conv2D", "config": {"name": "conv2d_120", "trainable": true, "dtype": "float32", "filters": 128, "kernel_size": [3, 3], "strides": [1, 1], "padding": "valid", "data_format": "channels_last", "dilation_rate": [1, 1], "groups": 1, "activation": "linear", "use_bias": false, "kernel_initializer": {"module": "keras.initializers", "class_name": "GlorotUniform", "config": {"seed": null}, "registered_name": null}, "bias_initializer": {"module": "keras.initializers", "class_name": "Zeros", "config": {}, "registered_name": null}, "kernel_regularizer": null, "bias_regularizer": null, "activity_regularizer": null, "kernel_constraint": null, "bias_constraint": null}, "name": "conv2d_120", "inbound_nodes": [[["zero_padding2d_43", 0, 0, {}]]]}, {"class_name": "GroupNormalization", "config": {"name": "group_normalization_7", "trainable": true, "dtype": "float32", "groups": 32, "axis": -1, "epsilon": 1e-05, "center": true, "scale": true, "beta_initializer": {"module": "keras.initializers", "class_name": "Zeros", "config": {}, "registered_name": null}, "gamma_initializer": {"module": "keras.initializers", "class_name": "Ones", "config": {}, "registered_name": null}, "beta_regularizer": null, "gamma_regularizer": null, "beta_constraint": null, "gamma_constraint": null}, "name": "group_normalization_7", "inbound_nodes": [[["conv2d_120", 0, 0, {}]]]}, {"class_name": "ReLU", "config": {"name": "re_lu_7", "trainable": true, "dtype": "float32", "max_value": null, "negative_slope": 0.0, "threshold": 0.0}, "name": "re_lu_7", "inbound_nodes": [[["group_normalization_7", 0, 0, {}]]]}, {"class_name": "TFOpLambda", "config": {"name": "tf.compat.v1.image.resize_images_7", "trainable": true, "dtype": "float32", "function": "compat.v1.image.resize_images"}, "name": "tf.compat.v1.image.resize_images_7", "inbound_nodes": [["re_lu_7", 0, 0, {"size": [32, 32], "method": "bilinear", "align_corners": true}]]}, {"class_name": "TFOpLambda", "config": {"name": "tf.image.resize_3", "trainable": true, "dtype": "float32", "function": "image.resize"}, "name": "tf.image.resize_3", "inbound_nodes": [["conv2d_116", 0, 0, {"size": [32, 32], "method": "nearest", "antialias": false}]]}, {"class_name": "Conv2D", "config": {"name": "conv2d_117", "trainable": true, "dtype": "float32", "filters": 256, "kernel_size": [1, 1], "strides": [1, 1], "padding": "valid", "data_format": "channels_last", "dilation_rate": [1, 1], "groups": 1, "activation": "linear", "use_bias": true, "kernel_initializer": {"module": "keras.initializers", "class_name": "GlorotUniform", "config": {"seed": null}, "registered_name": null}, "bias_initializer": {"module": "keras.initializers", "class_name": "Zeros", "config": {}, "registered_name": null}, "kernel_regularizer": null, "bias_regularizer": null, "activity_regularizer": null, "kernel_constraint": null, "bias_constraint": null}, "name": "conv2d_117", "inbound_nodes": [[["tf.__operators__.add_23", 0, 0, {}]]]}, {"class_name": "ZeroPadding2D", "config": {"name": "zero_padding2d_44", "trainable": true, "dtype": "float32", "padding": [[1, 1], [1, 1]], "data_format": "channels_last"}, "name": "zero_padding2d_44", "inbound_nodes": [[["tf.compat.v1.image.resize_images_7", 0, 0, {}]]]}, {"class_name": "TFOpLambda", "config": {"name": "tf.__operators__.add_26", "trainable": true, "dtype": "float32", "function": "__operators__.add"}, "name": "tf.__operators__.add_26", "inbound_nodes": [["tf.image.resize_3", 0, 0, {"y": ["conv2d_117", 0, 0], "name": null}]]}, {"class_name": "Conv2D", "config": {"name": "conv2d_121", "trainable": true, "dtype": "float32", "filters": 128, "kernel_size": [3, 3], "strides": [1, 1], "padding": "valid", "data_format": "channels_last", "dilation_rate": [1, 1], "groups": 1, "activation": "linear", "use_bias": false, "kernel_initializer": {"module": "keras.initializers", "class_name": "GlorotUniform", "config": {"seed": null}, "registered_name": null}, "bias_initializer": {"module": "keras.initializers", "class_name": "Zeros", "config": {}, "registered_name": null}, "kernel_regularizer": null, "bias_regularizer": null, "activity_regularizer": null, "kernel_constraint": null, "bias_constraint": null}, "name": "conv2d_121", "inbound_nodes": [[["zero_padding2d_44", 0, 0, {}]]]}, {"class_name": "ZeroPadding2D", "config": {"name": "zero_padding2d_46", "trainable": true, "dtype": "float32", "padding": [[1, 1], [1, 1]], "data_format": "channels_last"}, "name": "zero_padding2d_46", "inbound_nodes": [[["tf.__operators__.add_26", 0, 0, {}]]]}, {"class_name": "GroupNormalization", "config": {"name": "group_normalization_8", "trainable": true, "dtype": "float32", "groups": 32, "axis": -1, "epsilon": 1e-05, "center": true, "scale": true, "beta_initializer": {"module": "keras.initializers", "class_name": "Zeros", "config": {}, "registered_name": null}, "gamma_initializer": {"module": "keras.initializers", "class_name": "Ones", "config": {}, "registered_name": null}, "beta_regularizer": null, "gamma_regularizer": null, "beta_constraint": null, "gamma_constraint": null}, "name": "group_normalization_8", "inbound_nodes": [[["conv2d_121", 0, 0, {}]]]}, {"class_name": "Conv2D", "config": {"name": "conv2d_123", "trainable": true, "dtype": "float32", "filters": 128, "kernel_size": [3, 3], "strides": [1, 1], "padding": "valid", "data_format": "channels_last", "dilation_rate": [1, 1], "groups": 1, "activation": "linear", "use_bias": false, "kernel_initializer": {"module": "keras.initializers", "class_name": "GlorotUniform", "config": {"seed": null}, "registered_name": null}, "bias_initializer": {"module": "keras.initializers", "class_name": "Zeros", "config": {}, "registered_name": null}, "kernel_regularizer": null, "bias_regularizer": null, "activity_regularizer": null, "kernel_constraint": null, "bias_constraint": null}, "name": "conv2d_123", "inbound_nodes": [[["zero_padding2d_46", 0, 0, {}]]]}, {"class_name": "ReLU", "config": {"name": "re_lu_8", "trainable": true, "dtype": "float32", "max_value": null, "negative_slope": 0.0, "threshold": 0.0}, "name": "re_lu_8", "inbound_nodes": [[["group_normalization_8", 0, 0, {}]]]}, {"class_name": "GroupNormalization", "config": {"name": "group_normalization_10", "trainable": true, "dtype": "float32", "groups": 32, "axis": -1, "epsilon": 1e-05, "center": true, "scale": true, "beta_initializer": {"module": "keras.initializers", "class_name": "Zeros", "config": {}, "registered_name": null}, "gamma_initializer": {"module": "keras.initializers", "class_name": "Ones", "config": {}, "registered_name": null}, "beta_regularizer": null, "gamma_regularizer": null, "beta_constraint": null, "gamma_constraint": null}, "name": "group_normalization_10", "inbound_nodes": [[["conv2d_123", 0, 0, {}]]]}, {"class_name": "TFOpLambda", "config": {"name": "tf.compat.v1.image.resize_images_8", "trainable": true, "dtype": "float32", "function": "compat.v1.image.resize_images"}, "name": "tf.compat.v1.image.resize_images_8", "inbound_nodes": [["re_lu_8", 0, 0, {"size": [64, 64], "method": "bilinear", "align_corners": true}]]}, {"class_name": "ReLU", "config": {"name": "re_lu_10", "trainable": true, "dtype": "float32", "max_value": null, "negative_slope": 0.0, "threshold": 0.0}, "name": "re_lu_10", "inbound_nodes": [[["group_normalization_10", 0, 0, {}]]]}, {"class_name": "ZeroPadding2D", "config": {"name": "zero_padding2d_45", "trainable": true, "dtype": "float32", "padding": [[1, 1], [1, 1]], "data_format": "channels_last"}, "name": "zero_padding2d_45", "inbound_nodes": [[["tf.compat.v1.image.resize_images_8", 0, 0, {}]]]}, {"class_name": "TFOpLambda", "config": {"name": "tf.compat.v1.image.resize_images_10", "trainable": true, "dtype": "float32", "function": "compat.v1.image.resize_images"}, "name": "tf.compat.v1.image.resize_images_10", "inbound_nodes": [["re_lu_10", 0, 0, {"size": [64, 64], "method": "bilinear", "align_corners": true}]]}, {"class_name": "TFOpLambda", "config": {"name": "tf.image.resize_4", "trainable": true, "dtype": "float32", "function": "image.resize"}, "name": "tf.image.resize_4", "inbound_nodes": [["tf.__operators__.add_26", 0, 0, {"size": [64, 64], "method": "nearest", "antialias": false}]]}, {"class_name": "Conv2D", "config": {"name": "conv2d_118", "trainable": true, "dtype": "float32", "filters": 256, "kernel_size": [1, 1], "strides": [1, 1], "padding": "valid", "data_format": "channels_last", "dilation_rate": [1, 1], "groups": 1, "activation": "linear", "use_bias": true, "kernel_initializer": {"module": "keras.initializers", "class_name": "GlorotUniform", "config": {"seed": null}, "registered_name": null}, "bias_initializer": {"module": "keras.initializers", "class_name": "Zeros", "config": {}, "registered_name": null}, "kernel_regularizer": null, "bias_regularizer": null, "activity_regularizer": null, "kernel_constraint": null, "bias_constraint": null}, "name": "conv2d_118", "inbound_nodes": [[["tf.__operators__.add_18", 0, 0, {}]]]}, {"class_name": "Conv2D", "config": {"name": "conv2d_122", "trainable": true, "dtype": "float32", "filters": 128, "kernel_size": [3, 3], "strides": [1, 1], "padding": "valid", "data_format": "channels_last", "dilation_rate": [1, 1], "groups": 1, "activation": "linear", "use_bias": false, "kernel_initializer": {"module": "keras.initializers", "class_name": "GlorotUniform", "config": {"seed": null}, "registered_name": null}, "bias_initializer": {"module": "keras.initializers", "class_name": "Zeros", "config": {}, "registered_name": null}, "kernel_regularizer": null, "bias_regularizer": null, "activity_regularizer": null, "kernel_constraint": null, "bias_constraint": null}, "name": "conv2d_122", "inbound_nodes": [[["zero_padding2d_45", 0, 0, {}]]]}, {"class_name": "ZeroPadding2D", "config": {"name": "zero_padding2d_47", "trainable": true, "dtype": "float32", "padding": [[1, 1], [1, 1]], "data_format": "channels_last"}, "name": "zero_padding2d_47", "inbound_nodes": [[["tf.compat.v1.image.resize_images_10", 0, 0, {}]]]}, {"class_name": "TFOpLambda", "config": {"name": "tf.__operators__.add_27", "trainable": true, "dtype": "float32", "function": "__operators__.add"}, "name": "tf.__operators__.add_27", "inbound_nodes": [["tf.image.resize_4", 0, 0, {"y": ["conv2d_118", 0, 0], "name": null}]]}, {"class_name": "GroupNormalization", "config": {"name": "group_normalization_9", "trainable": true, "dtype": "float32", "groups": 32, "axis": -1, "epsilon": 1e-05, "center": true, "scale": true, "beta_initializer": {"module": "keras.initializers", "class_name": "Zeros", "config": {}, "registered_name": null}, "gamma_initializer": {"module": "keras.initializers", "class_name": "Ones", "config": {}, "registered_name": null}, "beta_regularizer": null, "gamma_regularizer": null, "beta_constraint": null, "gamma_constraint": null}, "name": "group_normalization_9", "inbound_nodes": [[["conv2d_122", 0, 0, {}]]]}, {"class_name": "Conv2D", "config": {"name": "conv2d_124", "trainable": true, "dtype": "float32", "filters": 128, "kernel_size": [3, 3], "strides": [1, 1], "padding": "valid", "data_format": "channels_last", "dilation_rate": [1, 1], "groups": 1, "activation": "linear", "use_bias": false, "kernel_initializer": {"module": "keras.initializers", "class_name": "GlorotUniform", "config": {"seed": null}, "registered_name": null}, "bias_initializer": {"module": "keras.initializers", "class_name": "Zeros", "config": {}, "registered_name": null}, "kernel_regularizer": null, "bias_regularizer": null, "activity_regularizer": null, "kernel_constraint": null, "bias_constraint": null}, "name": "conv2d_124", "inbound_nodes": [[["zero_padding2d_47", 0, 0, {}]]]}, {"class_name": "ZeroPadding2D", "config": {"name": "zero_padding2d_48", "trainable": true, "dtype": "float32", "padding": [[1, 1], [1, 1]], "data_format": "channels_last"}, "name": "zero_padding2d_48", "inbound_nodes": [[["tf.__operators__.add_27", 0, 0, {}]]]}, {"class_name": "TFOpLambda", "config": {"name": "tf.image.resize_5", "trainable": true, "dtype": "float32", "function": "image.resize"}, "name": "tf.image.resize_5", "inbound_nodes": [["tf.__operators__.add_27", 0, 0, {"size": [128, 128], "method": "nearest", "antialias": false}]]}, {"class_name": "Conv2D", "config": {"name": "conv2d_119", "trainable": true, "dtype": "float32", "filters": 256, "kernel_size": [1, 1], "strides": [1, 1], "padding": "valid", "data_format": "channels_last", "dilation_rate": [1, 1], "groups": 1, "activation": "linear", "use_bias": true, "kernel_initializer": {"module": "keras.initializers", "class_name": "GlorotUniform", "config": {"seed": null}, "registered_name": null}, "bias_initializer": {"module": "keras.initializers", "class_name": "Zeros", "config": {}, "registered_name": null}, "kernel_regularizer": null, "bias_regularizer": null, "activity_regularizer": null, "kernel_constraint": null, "bias_constraint": null}, "name": "conv2d_119", "inbound_nodes": [[["tf.__operators__.add_16", 0, 0, {}]]]}, {"class_name": "ReLU", "config": {"name": "re_lu_9", "trainable": true, "dtype": "float32", "max_value": null, "negative_slope": 0.0, "threshold": 0.0}, "name": "re_lu_9", "inbound_nodes": [[["group_normalization_9", 0, 0, {}]]]}, {"class_name": "GroupNormalization", "config": {"name": "group_normalization_11", "trainable": true, "dtype": "float32", "groups": 32, "axis": -1, "epsilon": 1e-05, "center": true, "scale": true, "beta_initializer": {"module": "keras.initializers", "class_name": "Zeros", "config": {}, "registered_name": null}, "gamma_initializer": {"module": "keras.initializers", "class_name": "Ones", "config": {}, "registered_name": null}, "beta_regularizer": null, "gamma_regularizer": null, "beta_constraint": null, "gamma_constraint": null}, "name": "group_normalization_11", "inbound_nodes": [[["conv2d_124", 0, 0, {}]]]}, {"class_name": "Conv2D", "config": {"name": "conv2d_125", "trainable": true, "dtype": "float32", "filters": 128, "kernel_size": [3, 3], "strides": [1, 1], "padding": "valid", "data_format": "channels_last", "dilation_rate": [1, 1], "groups": 1, "activation": "linear", "use_bias": false, "kernel_initializer": {"module": "keras.initializers", "class_name": "GlorotUniform", "config": {"seed": null}, "registered_name": null}, "bias_initializer": {"module": "keras.initializers", "class_name": "Zeros", "config": {}, "registered_name": null}, "kernel_regularizer": null, "bias_regularizer": null, "activity_regularizer": null, "kernel_constraint": null, "bias_constraint": null}, "name": "conv2d_125", "inbound_nodes": [[["zero_padding2d_48", 0, 0, {}]]]}, {"class_name": "TFOpLambda", "config": {"name": "tf.__operators__.add_28", "trainable": true, "dtype": "float32", "function": "__operators__.add"}, "name": "tf.__operators__.add_28", "inbound_nodes": [["tf.image.resize_5", 0, 0, {"y": ["conv2d_119", 0, 0], "name": null}]]}, {"class_name": "TFOpLambda", "config": {"name": "tf.compat.v1.image.resize_images_9", "trainable": true, "dtype": "float32", "function": "compat.v1.image.resize_images"}, "name": "tf.compat.v1.image.resize_images_9", "inbound_nodes": [["re_lu_9", 0, 0, {"size": [128, 128], "method": "bilinear", "align_corners": true}]]}, {"class_name": "ReLU", "config": {"name": "re_lu_11", "trainable": true, "dtype": "float32", "max_value": null, "negative_slope": 0.0, "threshold": 0.0}, "name": "re_lu_11", "inbound_nodes": [[["group_normalization_11", 0, 0, {}]]]}, {"class_name": "GroupNormalization", "config": {"name": "group_normalization_12", "trainable": true, "dtype": "float32", "groups": 32, "axis": -1, "epsilon": 1e-05, "center": true, "scale": true, "beta_initializer": {"module": "keras.initializers", "class_name": "Zeros", "config": {}, "registered_name": null}, "gamma_initializer": {"module": "keras.initializers", "class_name": "Ones", "config": {}, "registered_name": null}, "beta_regularizer": null, "gamma_regularizer": null, "beta_constraint": null, "gamma_constraint": null}, "name": "group_normalization_12", "inbound_nodes": [[["conv2d_125", 0, 0, {}]]]}, {"class_name": "ZeroPadding2D", "config": {"name": "zero_padding2d_49", "trainable": true, "dtype": "float32", "padding": [[1, 1], [1, 1]], "data_format": "channels_last"}, "name": "zero_padding2d_49", "inbound_nodes": [[["tf.__operators__.add_28", 0, 0, {}]]]}, {"class_name": "TFOpLambda", "config": {"name": "tf.math.add_1", "trainable": true, "dtype": "float32", "function": "math.add"}, "name": "tf.math.add_1", "inbound_nodes": [["tf.compat.v1.image.resize_images_9", 0, 0, {"y": 0.0, "name": null}]]}, {"class_name": "TFOpLambda", "config": {"name": "tf.compat.v1.image.resize_images_11", "trainable": true, "dtype": "float32", "function": "compat.v1.image.resize_images"}, "name": "tf.compat.v1.image.resize_images_11", "inbound_nodes": [["re_lu_11", 0, 0, {"size": [128, 128], "method": "bilinear", "align_corners": true}]]}, {"class_name": "ReLU", "config": {"name": "re_lu_12", "trainable": true, "dtype": "float32", "max_value": null, "negative_slope": 0.0, "threshold": 0.0}, "name": "re_lu_12", "inbound_nodes": [[["group_normalization_12", 0, 0, {}]]]}, {"class_name": "Conv2D", "config": {"name": "conv2d_126", "trainable": true, "dtype": "float32", "filters": 128, "kernel_size": [3, 3], "strides": [1, 1], "padding": "valid", "data_format": "channels_last", "dilation_rate": [1, 1], "groups": 1, "activation": "linear", "use_bias": false, "kernel_initializer": {"module": "keras.initializers", "class_name": "GlorotUniform", "config": {"seed": null}, "registered_name": null}, "bias_initializer": {"module": "keras.initializers", "class_name": "Zeros", "config": {}, "registered_name": null}, "kernel_regularizer": null, "bias_regularizer": null, "activity_regularizer": null, "kernel_constraint": null, "bias_constraint": null}, "name": "conv2d_126", "inbound_nodes": [[["zero_padding2d_49", 0, 0, {}]]]}, {"class_name": "TFOpLambda", "config": {"name": "tf.__operators__.add_29", "trainable": true, "dtype": "float32", "function": "__operators__.add"}, "name": "tf.__operators__.add_29", "inbound_nodes": [["tf.math.add_1", 0, 0, {"y": ["tf.compat.v1.image.resize_images_11", 0, 0], "name": null}]]}, {"class_name": "TFOpLambda", "config": {"name": "tf.compat.v1.image.resize_images_12", "trainable": true, "dtype": "float32", "function": "compat.v1.image.resize_images"}, "name": "tf.compat.v1.image.resize_images_12", "inbound_nodes": [["re_lu_12", 0, 0, {"size": [128, 128], "method": "bilinear", "align_corners": true}]]}, {"class_name": "GroupNormalization", "config": {"name": "group_normalization_13", "trainable": true, "dtype": "float32", "groups": 32, "axis": -1, "epsilon": 1e-05, "center": true, "scale": true, "beta_initializer": {"module": "keras.initializers", "class_name": "Zeros", "config": {}, "registered_name": null}, "gamma_initializer": {"module": "keras.initializers", "class_name": "Ones", "config": {}, "registered_name": null}, "beta_regularizer": null, "gamma_regularizer": null, "beta_constraint": null, "gamma_constraint": null}, "name": "group_normalization_13", "inbound_nodes": [[["conv2d_126", 0, 0, {}]]]}, {"class_name": "TFOpLambda", "config": {"name": "tf.__operators__.add_30", "trainable": true, "dtype": "float32", "function": "__operators__.add"}, "name": "tf.__operators__.add_30", "inbound_nodes": [["tf.__operators__.add_29", 0, 0, {"y": ["tf.compat.v1.image.resize_images_12", 0, 0], "name": null}]]}, {"class_name": "ReLU", "config": {"name": "re_lu_13", "trainable": true, "dtype": "float32", "max_value": null, "negative_slope": 0.0, "threshold": 0.0}, "name": "re_lu_13", "inbound_nodes": [[["group_normalization_13", 0, 0, {}]]]}, {"class_name": "TFOpLambda", "config": {"name": "tf.__operators__.add_31", "trainable": true, "dtype": "float32", "function": "__operators__.add"}, "name": "tf.__operators__.add_31", "inbound_nodes": [["tf.__operators__.add_30", 0, 0, {"y": ["re_lu_13", 0, 0], "name": null}]]}, {"class_name": "SpatialDropout2D", "config": {"name": "spatial_dropout2d_1", "trainable": true, "dtype": "float32", "rate": 0.2, "noise_shape": null, "seed": null}, "name": "spatial_dropout2d_1", "inbound_nodes": [[["tf.__operators__.add_31", 0, 0, {}]]]}, {"class_name": "Conv2D", "config": {"name": "conv2d_127", "trainable": true, "dtype": "float32", "filters": 1, "kernel_size": [1, 1], "strides": [1, 1], "padding": "valid", "data_format": "channels_last", "dilation_rate": [1, 1], "groups": 1, "activation": "linear", "use_bias": true, "kernel_initializer": {"module": "keras.initializers", "class_name": "GlorotUniform", "config": {"seed": null}, "registered_name": null}, "bias_initializer": {"module": "keras.initializers", "class_name": "Zeros", "config": {}, "registered_name": null}, "kernel_regularizer": null, "bias_regularizer": null, "activity_regularizer": null, "kernel_constraint": null, "bias_constraint": null}, "name": "conv2d_127", "inbound_nodes": [[["spatial_dropout2d_1", 0, 0, {}]]]}, {"class_name": "TFOpLambda", "config": {"name": "tf.compat.v1.image.resize_images_13", "trainable": true, "dtype": "float32", "function": "compat.v1.image.resize_images"}, "name": "tf.compat.v1.image.resize_images_13", "inbound_nodes": [["conv2d_127", 0, 0, {"size": [512, 512], "method": "bilinear", "align_corners": true}]]}, {"class_name": "Activation", "config": {"name": "activation_11", "trainable": true, "dtype": "float32", "activation": "sigmoid"}, "name": "activation_11", "inbound_nodes": [[["tf.compat.v1.image.resize_images_13", 0, 0, {}]]]}, {"class_name": "TFOpLambda", "config": {"name": "tf.identity_1", "trainable": true, "dtype": "float32", "function": "identity"}, "name": "tf.identity_1", "inbound_nodes": [["activation_11", 0, 0, {}]]}], "input_layers": [["input_2", 0, 0]], "output_layers": [["tf.identity_1", 0, 0]]}}}, "weightsManifest": [{"paths": ["group1-shard1of5.bin", "group1-shard2of5.bin", "group1-shard3of5.bin", "group1-shard4of5.bin", "group1-shard5of5.bin"], "weights": [{"name": "batch_normalization_100/gamma", "shape": [960], "dtype": "float32"}, {"name": "batch_normalization_100/beta", "shape": [960], "dtype": "float32"}, {"name": "batch_normalization_100/moving_mean", "shape": [960], "dtype": "float32"}, {"name": "batch_normalization_100/moving_variance", "shape": [960], "dtype": "float32"}, {"name": "batch_normalization_101/gamma", "shape": [960], "dtype": "float32"}, {"name": "batch_normalization_101/beta", "shape": [960], "dtype": "float32"}, {"name": "batch_normalization_101/moving_mean", "shape": [960], "dtype": "float32"}, {"name": "batch_normalization_101/moving_variance", "shape": [960], "dtype": "float32"}, {"name": "batch_normalization_102/gamma", "shape": [320], "dtype": "float32"}, {"name": "batch_normalization_102/beta", "shape": [320], "dtype": "float32"}, {"name": "batch_normalization_102/moving_mean", "shape": [320], "dtype": "float32"}, {"name": "batch_normalization_102/moving_variance", "shape": [320], "dtype": "float32"}, {"name": "batch_normalization_103/gamma", "shape": [1280], "dtype": "float32"}, {"name": "batch_normalization_103/beta", "shape": [1280], "dtype": "float32"}, {"name": "batch_normalization_103/moving_mean", "shape": [1280], "dtype": "float32"}, {"name": "batch_normalization_103/moving_variance", "shape": [1280], "dtype": "float32"}, {"name": "batch_normalization_52/gamma", "shape": [32], "dtype": "float32"}, {"name": "batch_normalization_52/beta", "shape": [32], "dtype": "float32"}, {"name": "batch_normalization_52/moving_mean", "shape": [32], "dtype": "float32"}, {"name": "batch_normalization_52/moving_variance", "shape": [32], "dtype": "float32"}, {"name": "batch_normalization_53/gamma", "shape": [32], "dtype": "float32"}, {"name": "batch_normalization_53/beta", "shape": [32], "dtype": "float32"}, {"name": "batch_normalization_53/moving_mean", "shape": [32], "dtype": "float32"}, {"name": "batch_normalization_53/moving_variance", "shape": [32], "dtype": "float32"}, {"name": "batch_normalization_54/gamma", "shape": [16], "dtype": "float32"}, {"name": "batch_normalization_54/beta", "shape": [16], "dtype": "float32"}, {"name": "batch_normalization_54/moving_mean", "shape": [16], "dtype": "float32"}, {"name": "batch_normalization_54/moving_variance", "shape": [16], "dtype": "float32"}, {"name": "batch_normalization_55/gamma", "shape": [96], "dtype": "float32"}, {"name": "batch_normalization_55/beta", "shape": [96], "dtype": "float32"}, {"name": "batch_normalization_55/moving_mean", "shape": [96], "dtype": "float32"}, {"name": "batch_normalization_55/moving_variance", "shape": [96], "dtype": "float32"}, {"name": "batch_normalization_56/gamma", "shape": [96], "dtype": "float32"}, {"name": "batch_normalization_56/beta", "shape": [96], "dtype": "float32"}, {"name": "batch_normalization_56/moving_mean", "shape": [96], "dtype": "float32"}, {"name": "batch_normalization_56/moving_variance", "shape": [96], "dtype": "float32"}, {"name": "batch_normalization_57/gamma", "shape": [24], "dtype": "float32"}, {"name": "batch_normalization_57/beta", "shape": [24], "dtype": "float32"}, {"name": "batch_normalization_57/moving_mean", "shape": [24], "dtype": "float32"}, {"name": "batch_normalization_57/moving_variance", "shape": [24], "dtype": "float32"}, {"name": "batch_normalization_58/gamma", "shape": [144], "dtype": "float32"}, {"name": "batch_normalization_58/beta", "shape": [144], "dtype": "float32"}, {"name": "batch_normalization_58/moving_mean", "shape": [144], "dtype": "float32"}, {"name": "batch_normalization_58/moving_variance", "shape": [144], "dtype": "float32"}, {"name": "batch_normalization_59/gamma", "shape": [144], "dtype": "float32"}, {"name": "batch_normalization_59/beta", "shape": [144], "dtype": "float32"}, {"name": "batch_normalization_59/moving_mean", "shape": [144], "dtype": "float32"}, {"name": "batch_normalization_59/moving_variance", "shape": [144], "dtype": "float32"}, {"name": "batch_normalization_60/gamma", "shape": [24], "dtype": "float32"}, {"name": "batch_normalization_60/beta", "shape": [24], "dtype": "float32"}, {"name": "batch_normalization_60/moving_mean", "shape": [24], "dtype": "float32"}, {"name": "batch_normalization_60/moving_variance", "shape": [24], "dtype": "float32"}, {"name": "batch_normalization_61/gamma", "shape": [144], "dtype": "float32"}, {"name": "batch_normalization_61/beta", "shape": [144], "dtype": "float32"}, {"name": "batch_normalization_61/moving_mean", "shape": [144], "dtype": "float32"}, {"name": "batch_normalization_61/moving_variance", "shape": [144], "dtype": "float32"}, {"name": "batch_normalization_62/gamma", "shape": [144], "dtype": "float32"}, {"name": "batch_normalization_62/beta", "shape": [144], "dtype": "float32"}, {"name": "batch_normalization_62/moving_mean", "shape": [144], "dtype": "float32"}, {"name": "batch_normalization_62/moving_variance", "shape": [144], "dtype": "float32"}, {"name": "batch_normalization_63/gamma", "shape": [32], "dtype": "float32"}, {"name": "batch_normalization_63/beta", "shape": [32], "dtype": "float32"}, {"name": "batch_normalization_63/moving_mean", "shape": [32], "dtype": "float32"}, {"name": "batch_normalization_63/moving_variance", "shape": [32], "dtype": "float32"}, {"name": "batch_normalization_64/gamma", "shape": [192], "dtype": "float32"}, {"name": "batch_normalization_64/beta", "shape": [192], "dtype": "float32"}, {"name": "batch_normalization_64/moving_mean", "shape": [192], "dtype": "float32"}, {"name": "batch_normalization_64/moving_variance", "shape": [192], "dtype": "float32"}, {"name": "batch_normalization_65/gamma", "shape": [192], "dtype": "float32"}, {"name": "batch_normalization_65/beta", "shape": [192], "dtype": "float32"}, {"name": "batch_normalization_65/moving_mean", "shape": [192], "dtype": "float32"}, {"name": "batch_normalization_65/moving_variance", "shape": [192], "dtype": "float32"}, {"name": "batch_normalization_66/gamma", "shape": [32], "dtype": "float32"}, {"name": "batch_normalization_66/beta", "shape": [32], "dtype": "float32"}, {"name": "batch_normalization_66/moving_mean", "shape": [32], "dtype": "float32"}, {"name": "batch_normalization_66/moving_variance", "shape": [32], "dtype": "float32"}, {"name": "batch_normalization_67/gamma", "shape": [192], "dtype": "float32"}, {"name": "batch_normalization_67/beta", "shape": [192], "dtype": "float32"}, {"name": "batch_normalization_67/moving_mean", "shape": [192], "dtype": "float32"}, {"name": "batch_normalization_67/moving_variance", "shape": [192], "dtype": "float32"}, {"name": "batch_normalization_68/gamma", "shape": [192], "dtype": "float32"}, {"name": "batch_normalization_68/beta", "shape": [192], "dtype": "float32"}, {"name": "batch_normalization_68/moving_mean", "shape": [192], "dtype": "float32"}, {"name": "batch_normalization_68/moving_variance", "shape": [192], "dtype": "float32"}, {"name": "batch_normalization_69/gamma", "shape": [32], "dtype": "float32"}, {"name": "batch_normalization_69/beta", "shape": [32], "dtype": "float32"}, {"name": "batch_normalization_69/moving_mean", "shape": [32], "dtype": "float32"}, {"name": "batch_normalization_69/moving_variance", "shape": [32], "dtype": "float32"}, {"name": "batch_normalization_70/gamma", "shape": [192], "dtype": "float32"}, {"name": "batch_normalization_70/beta", "shape": [192], "dtype": "float32"}, {"name": "batch_normalization_70/moving_mean", "shape": [192], "dtype": "float32"}, {"name": "batch_normalization_70/moving_variance", "shape": [192], "dtype": "float32"}, {"name": "batch_normalization_71/gamma", "shape": [192], "dtype": "float32"}, {"name": "batch_normalization_71/beta", "shape": [192], "dtype": "float32"}, {"name": "batch_normalization_71/moving_mean", "shape": [192], "dtype": "float32"}, {"name": "batch_normalization_71/moving_variance", "shape": [192], "dtype": "float32"}, {"name": "batch_normalization_72/gamma", "shape": [64], "dtype": "float32"}, {"name": "batch_normalization_72/beta", "shape": [64], "dtype": "float32"}, {"name": "batch_normalization_72/moving_mean", "shape": [64], "dtype": "float32"}, {"name": "batch_normalization_72/moving_variance", "shape": [64], "dtype": "float32"}, {"name": "batch_normalization_73/gamma", "shape": [384], "dtype": "float32"}, {"name": "batch_normalization_73/beta", "shape": [384], "dtype": "float32"}, {"name": "batch_normalization_73/moving_mean", "shape": [384], "dtype": "float32"}, {"name": "batch_normalization_73/moving_variance", "shape": [384], "dtype": "float32"}, {"name": "batch_normalization_74/gamma", "shape": [384], "dtype": "float32"}, {"name": "batch_normalization_74/beta", "shape": [384], "dtype": "float32"}, {"name": "batch_normalization_74/moving_mean", "shape": [384], "dtype": "float32"}, {"name": "batch_normalization_74/moving_variance", "shape": [384], "dtype": "float32"}, {"name": "batch_normalization_75/gamma", "shape": [64], "dtype": "float32"}, {"name": "batch_normalization_75/beta", "shape": [64], "dtype": "float32"}, {"name": "batch_normalization_75/moving_mean", "shape": [64], "dtype": "float32"}, {"name": "batch_normalization_75/moving_variance", "shape": [64], "dtype": "float32"}, {"name": "batch_normalization_76/gamma", "shape": [384], "dtype": "float32"}, {"name": "batch_normalization_76/beta", "shape": [384], "dtype": "float32"}, {"name": "batch_normalization_76/moving_mean", "shape": [384], "dtype": "float32"}, {"name": "batch_normalization_76/moving_variance", "shape": [384], "dtype": "float32"}, {"name": "batch_normalization_77/gamma", "shape": [384], "dtype": "float32"}, {"name": "batch_normalization_77/beta", "shape": [384], "dtype": "float32"}, {"name": "batch_normalization_77/moving_mean", "shape": [384], "dtype": "float32"}, {"name": "batch_normalization_77/moving_variance", "shape": [384], "dtype": "float32"}, {"name": "batch_normalization_78/gamma", "shape": [64], "dtype": "float32"}, {"name": "batch_normalization_78/beta", "shape": [64], "dtype": "float32"}, {"name": "batch_normalization_78/moving_mean", "shape": [64], "dtype": "float32"}, {"name": "batch_normalization_78/moving_variance", "shape": [64], "dtype": "float32"}, {"name": "batch_normalization_79/gamma", "shape": [384], "dtype": "float32"}, {"name": "batch_normalization_79/beta", "shape": [384], "dtype": "float32"}, {"name": "batch_normalization_79/moving_mean", "shape": [384], "dtype": "float32"}, {"name": "batch_normalization_79/moving_variance", "shape": [384], "dtype": "float32"}, {"name": "batch_normalization_80/gamma", "shape": [384], "dtype": "float32"}, {"name": "batch_normalization_80/beta", "shape": [384], "dtype": "float32"}, {"name": "batch_normalization_80/moving_mean", "shape": [384], "dtype": "float32"}, {"name": "batch_normalization_80/moving_variance", "shape": [384], "dtype": "float32"}, {"name": "batch_normalization_81/gamma", "shape": [64], "dtype": "float32"}, {"name": "batch_normalization_81/beta", "shape": [64], "dtype": "float32"}, {"name": "batch_normalization_81/moving_mean", "shape": [64], "dtype": "float32"}, {"name": "batch_normalization_81/moving_variance", "shape": [64], "dtype": "float32"}, {"name": "batch_normalization_82/gamma", "shape": [384], "dtype": "float32"}, {"name": "batch_normalization_82/beta", "shape": [384], "dtype": "float32"}, {"name": "batch_normalization_82/moving_mean", "shape": [384], "dtype": "float32"}, {"name": "batch_normalization_82/moving_variance", "shape": [384], "dtype": "float32"}, {"name": "batch_normalization_83/gamma", "shape": [384], "dtype": "float32"}, {"name": "batch_normalization_83/beta", "shape": [384], "dtype": "float32"}, {"name": "batch_normalization_83/moving_mean", "shape": [384], "dtype": "float32"}, {"name": "batch_normalization_83/moving_variance", "shape": [384], "dtype": "float32"}, {"name": "batch_normalization_84/gamma", "shape": [96], "dtype": "float32"}, {"name": "batch_normalization_84/beta", "shape": [96], "dtype": "float32"}, {"name": "batch_normalization_84/moving_mean", "shape": [96], "dtype": "float32"}, {"name": "batch_normalization_84/moving_variance", "shape": [96], "dtype": "float32"}, {"name": "batch_normalization_85/gamma", "shape": [576], "dtype": "float32"}, {"name": "batch_normalization_85/beta", "shape": [576], "dtype": "float32"}, {"name": "batch_normalization_85/moving_mean", "shape": [576], "dtype": "float32"}, {"name": "batch_normalization_85/moving_variance", "shape": [576], "dtype": "float32"}, {"name": "batch_normalization_86/gamma", "shape": [576], "dtype": "float32"}, {"name": "batch_normalization_86/beta", "shape": [576], "dtype": "float32"}, {"name": "batch_normalization_86/moving_mean", "shape": [576], "dtype": "float32"}, {"name": "batch_normalization_86/moving_variance", "shape": [576], "dtype": "float32"}, {"name": "batch_normalization_87/gamma", "shape": [96], "dtype": "float32"}, {"name": "batch_normalization_87/beta", "shape": [96], "dtype": "float32"}, {"name": "batch_normalization_87/moving_mean", "shape": [96], "dtype": "float32"}, {"name": "batch_normalization_87/moving_variance", "shape": [96], "dtype": "float32"}, {"name": "batch_normalization_88/gamma", "shape": [576], "dtype": "float32"}, {"name": "batch_normalization_88/beta", "shape": [576], "dtype": "float32"}, {"name": "batch_normalization_88/moving_mean", "shape": [576], "dtype": "float32"}, {"name": "batch_normalization_88/moving_variance", "shape": [576], "dtype": "float32"}, {"name": "batch_normalization_89/gamma", "shape": [576], "dtype": "float32"}, {"name": "batch_normalization_89/beta", "shape": [576], "dtype": "float32"}, {"name": "batch_normalization_89/moving_mean", "shape": [576], "dtype": "float32"}, {"name": "batch_normalization_89/moving_variance", "shape": [576], "dtype": "float32"}, {"name": "batch_normalization_90/gamma", "shape": [96], "dtype": "float32"}, {"name": "batch_normalization_90/beta", "shape": [96], "dtype": "float32"}, {"name": "batch_normalization_90/moving_mean", "shape": [96], "dtype": "float32"}, {"name": "batch_normalization_90/moving_variance", "shape": [96], "dtype": "float32"}, {"name": "batch_normalization_91/gamma", "shape": [576], "dtype": "float32"}, {"name": "batch_normalization_91/beta", "shape": [576], "dtype": "float32"}, {"name": "batch_normalization_91/moving_mean", "shape": [576], "dtype": "float32"}, {"name": "batch_normalization_91/moving_variance", "shape": [576], "dtype": "float32"}, {"name": "batch_normalization_92/gamma", "shape": [576], "dtype": "float32"}, {"name": "batch_normalization_92/beta", "shape": [576], "dtype": "float32"}, {"name": "batch_normalization_92/moving_mean", "shape": [576], "dtype": "float32"}, {"name": "batch_normalization_92/moving_variance", "shape": [576], "dtype": "float32"}, {"name": "batch_normalization_93/gamma", "shape": [160], "dtype": "float32"}, {"name": "batch_normalization_93/beta", "shape": [160], "dtype": "float32"}, {"name": "batch_normalization_93/moving_mean", "shape": [160], "dtype": "float32"}, {"name": "batch_normalization_93/moving_variance", "shape": [160], "dtype": "float32"}, {"name": "batch_normalization_94/gamma", "shape": [960], "dtype": "float32"}, {"name": "batch_normalization_94/beta", "shape": [960], "dtype": "float32"}, {"name": "batch_normalization_94/moving_mean", "shape": [960], "dtype": "float32"}, {"name": "batch_normalization_94/moving_variance", "shape": [960], "dtype": "float32"}, {"name": "batch_normalization_95/gamma", "shape": [960], "dtype": "float32"}, {"name": "batch_normalization_95/beta", "shape": [960], "dtype": "float32"}, {"name": "batch_normalization_95/moving_mean", "shape": [960], "dtype": "float32"}, {"name": "batch_normalization_95/moving_variance", "shape": [960], "dtype": "float32"}, {"name": "batch_normalization_96/gamma", "shape": [160], "dtype": "float32"}, {"name": "batch_normalization_96/beta", "shape": [160], "dtype": "float32"}, {"name": "batch_normalization_96/moving_mean", "shape": [160], "dtype": "float32"}, {"name": "batch_normalization_96/moving_variance", "shape": [160], "dtype": "float32"}, {"name": "batch_normalization_97/gamma", "shape": [960], "dtype": "float32"}, {"name": "batch_normalization_97/beta", "shape": [960], "dtype": "float32"}, {"name": "batch_normalization_97/moving_mean", "shape": [960], "dtype": "float32"}, {"name": "batch_normalization_97/moving_variance", "shape": [960], "dtype": "float32"}, {"name": "batch_normalization_98/gamma", "shape": [960], "dtype": "float32"}, {"name": "batch_normalization_98/beta", "shape": [960], "dtype": "float32"}, {"name": "batch_normalization_98/moving_mean", "shape": [960], "dtype": "float32"}, {"name": "batch_normalization_98/moving_variance", "shape": [960], "dtype": "float32"}, {"name": "batch_normalization_99/gamma", "shape": [160], "dtype": "float32"}, {"name": "batch_normalization_99/beta", "shape": [160], "dtype": "float32"}, {"name": "batch_normalization_99/moving_mean", "shape": [160], "dtype": "float32"}, {"name": "batch_normalization_99/moving_variance", "shape": [160], "dtype": "float32"}, {"name": "conv2d_100/kernel", "shape": [1, 1, 96, 576], "dtype": "float32"}, {"name": "conv2d_101/kernel", "shape": [3, 3, 1, 576], "dtype": "float32"}, {"name": "conv2d_102/kernel", "shape": [1, 1, 576, 96], "dtype": "float32"}, {"name": "conv2d_103/kernel", "shape": [1, 1, 96, 576], "dtype": "float32"}, {"name": "conv2d_104/kernel", "shape": [3, 3, 1, 576], "dtype": "float32"}, {"name": "conv2d_105/kernel", "shape": [1, 1, 576, 160], "dtype": "float32"}, {"name": "conv2d_106/kernel", "shape": [1, 1, 160, 960], "dtype": "float32"}, {"name": "conv2d_107/kernel", "shape": [3, 3, 1, 960], "dtype": "float32"}, {"name": "conv2d_108/kernel", "shape": [1, 1, 960, 160], "dtype": "float32"}, {"name": "conv2d_109/kernel", "shape": [1, 1, 160, 960], "dtype": "float32"}, {"name": "conv2d_110/kernel", "shape": [3, 3, 1, 960], "dtype": "float32"}, {"name": "conv2d_111/kernel", "shape": [1, 1, 960, 160], "dtype": "float32"}, {"name": "conv2d_112/kernel", "shape": [1, 1, 160, 960], "dtype": "float32"}, {"name": "conv2d_113/kernel", "shape": [3, 3, 1, 960], "dtype": "float32"}, {"name": "conv2d_114/kernel", "shape": [1, 1, 960, 320], "dtype": "float32"}, {"name": "conv2d_115/kernel", "shape": [1, 1, 320, 1280], "dtype": "float32"}, {"name": "conv2d_116/kernel", "shape": [1, 1, 1280, 256], "dtype": "float32"}, {"name": "conv2d_116/bias", "shape": [256], "dtype": "float32"}, {"name": "conv2d_117/kernel", "shape": [1, 1, 96, 256], "dtype": "float32"}, {"name": "conv2d_117/bias", "shape": [256], "dtype": "float32"}, {"name": "conv2d_118/kernel", "shape": [1, 1, 32, 256], "dtype": "float32"}, {"name": "conv2d_118/bias", "shape": [256], "dtype": "float32"}, {"name": "conv2d_119/kernel", "shape": [1, 1, 24, 256], "dtype": "float32"}, {"name": "conv2d_119/bias", "shape": [256], "dtype": "float32"}, {"name": "conv2d_120/kernel", "shape": [3, 3, 256, 128], "dtype": "float32"}, {"name": "conv2d_121/kernel", "shape": [3, 3, 128, 128], "dtype": "float32"}, {"name": "conv2d_122/kernel", "shape": [3, 3, 128, 128], "dtype": "float32"}, {"name": "conv2d_123/kernel", "shape": [3, 3, 256, 128], "dtype": "float32"}, {"name": "conv2d_124/kernel", "shape": [3, 3, 128, 128], "dtype": "float32"}, {"name": "conv2d_125/kernel", "shape": [3, 3, 256, 128], "dtype": "float32"}, {"name": "conv2d_126/kernel", "shape": [3, 3, 256, 128], "dtype": "float32"}, {"name": "conv2d_127/kernel", "shape": [1, 1, 128, 1], "dtype": "float32"}, {"name": "conv2d_127/bias", "shape": [1], "dtype": "float32"}, {"name": "conv2d_64/kernel", "shape": [3, 3, 1, 32], "dtype": "float32"}, {"name": "conv2d_65/kernel", "shape": [3, 3, 1, 32], "dtype": "float32"}, {"name": "conv2d_66/kernel", "shape": [1, 1, 32, 16], "dtype": "float32"}, {"name": "conv2d_67/kernel", "shape": [1, 1, 16, 96], "dtype": "float32"}, {"name": "conv2d_68/kernel", "shape": [3, 3, 1, 96], "dtype": "float32"}, {"name": "conv2d_69/kernel", "shape": [1, 1, 96, 24], "dtype": "float32"}, {"name": "conv2d_70/kernel", "shape": [1, 1, 24, 144], "dtype": "float32"}, {"name": "conv2d_71/kernel", "shape": [3, 3, 1, 144], "dtype": "float32"}, {"name": "conv2d_72/kernel", "shape": [1, 1, 144, 24], "dtype": "float32"}, {"name": "conv2d_73/kernel", "shape": [1, 1, 24, 144], "dtype": "float32"}, {"name": "conv2d_74/kernel", "shape": [3, 3, 1, 144], "dtype": "float32"}, {"name": "conv2d_75/kernel", "shape": [1, 1, 144, 32], "dtype": "float32"}, {"name": "conv2d_76/kernel", "shape": [1, 1, 32, 192], "dtype": "float32"}, {"name": "conv2d_77/kernel", "shape": [3, 3, 1, 192], "dtype": "float32"}, {"name": "conv2d_78/kernel", "shape": [1, 1, 192, 32], "dtype": "float32"}, {"name": "conv2d_79/kernel", "shape": [1, 1, 32, 192], "dtype": "float32"}, {"name": "conv2d_80/kernel", "shape": [3, 3, 1, 192], "dtype": "float32"}, {"name": "conv2d_81/kernel", "shape": [1, 1, 192, 32], "dtype": "float32"}, {"name": "conv2d_82/kernel", "shape": [1, 1, 32, 192], "dtype": "float32"}, {"name": "conv2d_83/kernel", "shape": [3, 3, 1, 192], "dtype": "float32"}, {"name": "conv2d_84/kernel", "shape": [1, 1, 192, 64], "dtype": "float32"}, {"name": "conv2d_85/kernel", "shape": [1, 1, 64, 384], "dtype": "float32"}, {"name": "conv2d_86/kernel", "shape": [3, 3, 1, 384], "dtype": "float32"}, {"name": "conv2d_87/kernel", "shape": [1, 1, 384, 64], "dtype": "float32"}, {"name": "conv2d_88/kernel", "shape": [1, 1, 64, 384], "dtype": "float32"}, {"name": "conv2d_89/kernel", "shape": [3, 3, 1, 384], "dtype": "float32"}, {"name": "conv2d_90/kernel", "shape": [1, 1, 384, 64], "dtype": "float32"}, {"name": "conv2d_91/kernel", "shape": [1, 1, 64, 384], "dtype": "float32"}, {"name": "conv2d_92/kernel", "shape": [3, 3, 1, 384], "dtype": "float32"}, {"name": "conv2d_93/kernel", "shape": [1, 1, 384, 64], "dtype": "float32"}, {"name": "conv2d_94/kernel", "shape": [1, 1, 64, 384], "dtype": "float32"}, {"name": "conv2d_95/kernel", "shape": [3, 3, 1, 384], "dtype": "float32"}, {"name": "conv2d_96/kernel", "shape": [1, 1, 384, 96], "dtype": "float32"}, {"name": "conv2d_97/kernel", "shape": [1, 1, 96, 576], "dtype": "float32"}, {"name": "conv2d_98/kernel", "shape": [3, 3, 1, 576], "dtype": "float32"}, {"name": "conv2d_99/kernel", "shape": [1, 1, 576, 96], "dtype": "float32"}, {"name": "group_normalization_10/gamma", "shape": [128], "dtype": "float32"}, {"name": "group_normalization_10/beta", "shape": [128], "dtype": "float32"}, {"name": "group_normalization_11/gamma", "shape": [128], "dtype": "float32"}, {"name": "group_normalization_11/beta", "shape": [128], "dtype": "float32"}, {"name": "group_normalization_12/gamma", "shape": [128], "dtype": "float32"}, {"name": "group_normalization_12/beta", "shape": [128], "dtype": "float32"}, {"name": "group_normalization_13/gamma", "shape": [128], "dtype": "float32"}, {"name": "group_normalization_13/beta", "shape": [128], "dtype": "float32"}, {"name": "group_normalization_7/gamma", "shape": [128], "dtype": "float32"}, {"name": "group_normalization_7/beta", "shape": [128], "dtype": "float32"}, {"name": "group_normalization_8/gamma", "shape": [128], "dtype": "float32"}, {"name": "group_normalization_8/beta", "shape": [128], "dtype": "float32"}, {"name": "group_normalization_9/gamma", "shape": [128], "dtype": "float32"}, {"name": "group_normalization_9/beta", "shape": [128], "dtype": "float32"}]}]}